result/low_level/ETHUSDT/best_model/vol/1/best_model.pkl (torch, 187425 bytes, 14 tensors)

fc1.weight f4 [64, 36]
0.16650805 -0.09136411 0.54022014 0.034909785 -0.048135765 -0.0012831457 -0.17527924 0.42131323
0.14376199 0.089322336 0.20794788 0.18882716 0.2240529 -0.64268136 -0.68368405 -0.58246976
0.06449024 0.09161736 -0.3731192 0.10509134 -0.02711737 -0.020414311 -0.19844301 0.055521656
-0.18021971 -0.01944518 -0.14607579 -0.1758541 -0.16187994 0.053024467 -0.20849687 0.09031412
-0.13685101 0.038709793 -0.11290885 -0.025918644 0.14765224 -0.42853886 -0.1365811 0.0192259
-0.16689463 -0.18138903 -0.20373018 -0.1587659 -0.18794389 -0.24510078 -0.2198251 0.10624074
-0.003703629 -0.44062826 -0.26167056 -0.489626 -0.0045320857 -0.011746266 -0.07792987 0.08243232
-0.008230762 0.082477555 0.14485961 -0.071166076 0.18475302 0.06504887 0.19169682 0.11444582
-0.049387403 0.044066533 -0.10106522 -0.14290577 0.18903972 0.006456984 0.1292871 0.17165421
0.043081757 0.07471177 -0.2192016 -0.025439551 -0.22861618 0.036565978 -0.060366966 -0.267091
-0.0485304 0.02079214 -0.22283599 -0.10908117 -0.011549117 -0.007460896 0.20809892 0.098044954
-0.14679967 -0.09494058 0.12847388 -0.020547025 0.106412314 -0.035065837 0.019558884 0.061344776
0.03212017 -0.003355575 0.014238854 0.107100084 -0.079648696 0.0022167377 0.20826592 -0.12120944
0.104929045 -0.15464634 0.019245211 0.08112142 -0.17232077 -0.049409818 -0.15357338 -0.16470434
-0.101564415 0.0031672334 -0.0010035083 -0.2571672 -0.25092945 -0.20212083 -0.22896385 -0.04265054
-0.15220745 0.11673852 0.08063701 0.10545123 -0.024211157 0.1476276 -0.20516245 -0.09692323
-0.08698751 0.06867891 -0.21668264 -0.13609475 0.007563976 0.09587741 0.04999235 0.12177247
-0.08947091 0.06929105 -0.053599708 0.036411174 0.025131866 0.039782066 0.17370632 -0.032344513
-0.18576728 0.2864813 0.058767334 0.15065311 -0.08227901 -0.07198118 0.28458574 -0.14949112
0.11649115 0.02433433 0.1805212 0.10284278 0.13341406 0.27495936 0.14566055 0.13020082
-0.17678179 -0.055273667 -0.08623038 -0.05752697 0.061045896 0.10265976 0.03293346 -0.044501025
-0.12673824 -0.06933063 0.0703249 -0.15903774 -0.20664588 -0.019286942 -0.05360569 -0.07088675
-0.0062413416 0.07262675 -0.15404023 -0.08259631 0.101567574 0.27391854 0.0031868238 -0.024671027
0.03454107 0.086368196 0.023663407 0.35845792 0.2547692 0.0668872 0.10134547 -0.09925378
-0.11538653 0.049048834 0.073263645 0.16316655 0.1324276 0.128305 -0.06677003 -0.05307896
-0.12002844 -0.020306405 -0.017230377 0.010207888 0.022918234 -0.07440294 -0.123672076 -0.111553974
-0.009691533 0.04090818 -0.19933577 -0.17091377 -0.048799872 0.12963903 -0.10027906 -0.09533637
0.081950754 -0.17580037 0.13839035 -0.086901106 -0.18659325 -0.027484024 -0.0624013 0.082712054
-0.16297267 0.058303606 -0.19407855 -0.16415118 -0.10379204 -0.2340326 -0.15601365 -0.09343579
0.16264068 -0.07198241 -0.025926739 -0.018762978 0.046521638 -0.036981154 -0.012093076 0.07552103
-0.059269667 0.18961053 -0.09803543 -0.15170942 0.008574789 -0.14071642 -0.1011121 0.08518515
0.06488773 -0.10194333 -0.11860587 -0.11261414 -0.049141895 -0.042554867 0.27860165 0.06610498
00000000: 1681 2a3e 1b1d bbbd de4b 0a3f 90fd 0e3d
00000010: 022a 45bd 3a2f a8ba 677c 33be 5eb6 d73e
00000020: 5836 133e a1ee b63d 4af0 543e e85b 413e
00000030: 206e 653e c486 24bf eb05 2fbf bd1c 15bf
00000040: 7513 843d e2a1 bb3d 7b09 bfbe 213a d73d
00000050: 3f25 debc ea3b a7bc a534 4bbe ad6a 633d
00000060: 848b 38be 804b 9fbc e494 15be 1913 34be
00000070: dbc3 25be 2f30 593d 3480 55be 9cf6 b83d
00000080: ac22 0cbe 298e 1e3d c13c e7bd 5653 d4bc
00000090: 2632 173e 7269 dbbe eadb 0bbe a27f 9d3c
000000a0: 6de6 2abe 0cbe 39be a59e 50be 8793 22be
000000b0: 5d74 40be b3fb 7abe d519 61be bf94 d93d
000000c0: 95b8 72bb 079a e1be aff9 85be 42b0 fabe
000000d0: e481 94bb 6973 40bc b299 9fbd 47d2 a83d
000000e0: 51da 06bc fee9 a83d 1456 143e 85bf 91bd
000000f0: e52f 3d3e 5838 853d 2c4c 443e 9262 ea3d
00000100: 724a 4abd 1c7f 343d 48fb cebd e455 12be
00000110: a193 413e 1c95 d33b d663 043e 1fc6 2f3e
00000120: 7f76 303d 7c02 993d 6276 60be 9b66 d0bc
00000130: 5c1a 6abe 35c6 153d 5a43 77bd 27c0 88be
00000140: d0c7 46bd 4754 aa3c 1e2f 64be f365 dfbd
00000150: 8238 3dbc 887a f4bb e217 553e cbcb c83d
00000160: a752 16be 3570 c2bd a88e 033e 3c52 a8bc
00000170: b3ee d93d 32a1 0fbd f439 a03c a944 7b3d
00000180: 7090 033d 35e9 5bbb 154a 693c 4a57 db3d
00000190: db1e a3bd b046 113b a943 553e a83c f8bd
000001a0: 0ae5 d63d 9c5b 1ebe 22a8 9d3c fd22 a63d
000001b0: db74 30be f361 4abd 5742 1dbe 41a8 28be
000001c0: 0101 d0bd 5c91 4f3b 2788 83ba 6bab 83be
000001d0: d379 80be c3f8 4ebe 8075 6abe 55b2 2ebd
000001e0: 45dc 1bbe 9b14 ef3d 0425 a53d d1f6 d73d
000001f0: 7a56 c6bc b12b 173e 1b16 52be b07f c6bd
00000200: 8226 b2bd 87a7 8c3d 0ee2 5dbe 6c5c 0bbe
00000210: 3bdb f73b 605b c43d c7c4 4c3d d863 f93d
00000220: 863c b7bd 77e8 8d3d 5e8b 5bbd e223 153d
00000230: 58e1 cd3c 85f2 223d 12e0 313e ae7b 04bd
00000240: c739 3ebe adad 923e 04b6 703d cf44 1a3e
00000250: e681 a8bd de6a 93bd 39b5 913e 3314 19be
00000260: e992 ee3d ca58 c73c 8dda 383e 3c9f d23d
00000270: b29d 083e 79c7 8c3e 0a28 153e 5d53 053e
00000280: 4906 35be a466 62bd 8e99 b0bd 66a1 6bbd
00000290: 430b 7a3d 483f d23d 3ce5 063d b546 36bd
000002a0: abc7 01be 38fd 8dbd 8006 903d cada 22be
000002b0: fa9a 53be a6ff 9dbc a491 5bbd 132d 91bd
000002c0: 2b84 ccbb 55bd 943d b9bc 1dbe 4128 a9bd
000002d0: a902 d03d 0d3f 8c3e 08da 503b e51a cabc
000002e0: f07a 0d3d cfe1 b03d c3d9 c13c cc87 b73e
000002f0: 1c71 823e 28fc 883d 378e cf3d 9145 cbbd
00000300: c64f ecbd 6ee7 483d 400b 963d 2215 273e
00000310: 1a9b 073e 6362 033e babe 88bd 5369 59bd
00000320: 79d1 f5bd 9e59 a6bc b826 8dbc fc3e 273c
00000330: 05bf bb3c 9260 98bd c947 fdbd 6976 e4bd
00000340: 3cc9 1ebc 568f 273d ad1e 4cbe 0504 2fbe
00000350: 60e2 47bd 18c0 043e 1c5f cdbd b73f c3bd
00000360: ccd5 a73d 0305 34be 33b6 0d3e 35f9 b1bd
00000370: 4d12 3fbe 2d26 e1bc 8198 7fbd f064 a93d
00000380: 4fe2 26be c3cf 6e3d 87bc 46be 3f17 28be
00000390: ec90 d4bd 3ea6 6fbe 0bc2 1fbe 435b bfbd
000003a0: 478b 263e 846b 93bd 5064 d4bc d1b4 99bc
000003b0: 798d 3e3d 8d79 17bd 0922 46bc c5aa 9a3d
000003c0: c0c4 72bd 4329 423e cdc6 c8bd b759 1bbe
000003d0: 467d 0c3c f717 10be dc13 cfbd 8d75 ae3d
000003e0: dce3 843d aac7 d0bd a2e7 f2bd 3ea2 e6bd
000003f0: 0349 49bd 034e 2ebd e0a4 8e3e 0c62 873d

fc1.bias f4 [64]
-0.015650295 -0.3769668 -0.1819509 -0.12896411 0.18405364 0.24701428 -0.1416867 -0.22105017
-0.22896884 0.067477144 0.094578914 -0.18410711 0.32083094 0.06814991 -0.19128864 -0.20382008
-0.061226808 0.22653218 -0.20826744 0.0145130735 -0.18093736 0.09284963 -0.010059099 0.0077468525
-0.20825654 0.02926755 0.09040307 0.26506776 0.012838641 -0.13392912 0.079735085 0.011754897
-0.20558834 -0.12376135 0.25061536 0.031815488 -0.13851431 -0.32207328 -0.12156766 -0.30982625
-0.04182143 0.29120156 0.018383967 -0.059898507 -0.28697258 -0.11201885 0.041995272 -0.20635499
-0.16990127 -0.16554676 0.24882257 -0.4017379 0.03421801 -0.07442035 0.065956034 -0.057789575
-0.07448673 0.07766101 -0.26462308 0.08677222 0.119211785 0.29545787 -0.091956265 0.156682
00000000: 0c35 80bc cb01 c1be 5651 3abe 2b0f 04be
00000010: 8f78 3c3e 50f1 7c3e 5116 11be fa5a 62be
00000020: cf76 6abe 7531 8a3d 97b2 c13d 9386 3cbe
00000030: f443 a43e 2e92 8b3d 2be1 43be 36b6 50be
00000040: f6c8 7abd 0df8 673e 0f44 55be 3ec8 6d3c
00000050: a547 39be f227 be3d ebce 24bc 4fd9 fd3b
00000060: 3441 55be 80c2 ef3c 3f25 b93d f6b6 873e
00000070: 2a59 523c b724 09be 264c a33d 9d97 403c
00000080: c085 52be 9776 fdbd a850 803e f550 023d
00000090: b2d6 0dbe cae6 a4be 77f8 f8bd 8ca1 9ebe
000000a0: f34c 2bbd 5f18 953e f999 963c 2358 75bd
000000b0: 12ee 92be 246a e5bd 3c03 2c3d b94e 53be
000000c0: 99fa 2dbe 1785 29be 58cb 7e3e 97b0 cdbe
000000d0: 2f28 0c3d b269 98bd f513 873d c3b4 6cbd
000000e0: 808c 98bd bc0c 9f3d ad7c 87be a2b5 b13d
000000f0: 4f25 f43d 4146 973e 9153 bcbd 3f71 203e

fc2.weight f4 [64, 9]
-0.07373863 0.17067015 -0.258824 -0.21897417 -0.22397721 -0.25028455 -0.060924616 -0.0063301288
0.24286793 -0.12036061 -0.16418491 0.13507594 0.047332104 0.10034507 -0.0808224 -0.13367195
-0.13537696 0.06447287 -0.07723392 0.14387545 -0.056860857 0.26642635 0.21508965 0.045793645
-0.005055498 0.014319961 0.32565847 0.05307892 0.115738496 -0.11616004 0.2372704 -0.31406775
-0.0129420515 0.24897213 0.09445924 0.23126069 -0.2696909 0.32701933 0.14534609 0.13697436
0.20704314 -0.2974132 0.34548575 -0.16506314 -0.2564905 0.2190056 -0.3256618 -0.15877204
0.12650226 -0.1711257 -0.25031784 0.077344425 0.14439712 -0.33704188 -0.13206714 0.1920258
-0.18215197 -0.35387745 -0.00295359 -0.17424716 0.06416766 -0.26115766 -0.02408201 0.27640834
0.028850522 -0.10693022 -0.19251919 -0.1643968 -0.30334732 -0.13179179 0.33228466 -0.10187573
0.17665191 0.28716853 0.03326881 -0.10119514 -0.11674961 0.20419322 0.31460723 0.34088528
0.163311 0.083220676 0.080254145 0.4317229 -0.110050954 -0.2774619 0.1513938 0.014303485
0.17433062 -0.07102857 -0.25419125 -0.3602319 -0.14768945 -0.25807527 -0.29593933 -0.101526804
0.2849188 -0.05053398 -0.14583921 -0.1897768 -0.3096323 0.26861432 0.31903678 -0.018628953
0.107048206 0.0543568 -0.23106395 0.25291538 -0.21706493 -0.30807945 -0.009731182 0.16377285
0.10269574 0.009459028 -0.2180333 0.2536966 -0.251468 -0.29915208 0.30297485 0.21324085
-0.023675492 -0.20919593 -0.0015448636 0.088871956 -0.04436764 0.111157574 -0.17473336 -0.18930355
-0.35333353 -0.12856342 -0.037567362 -0.029748993 -0.21112402 -0.11508843 -0.037196036 -0.08861792
0.03480337 -0.23546736 -0.27564153 0.2659448 0.10203148 -0.18962272 -0.072249524 0.27164036
0.1318705 -0.17156507 0.12235713 0.14949086 0.110357106 -0.16344166 -0.10062674 -0.23017429
-0.2007275 0.15610024 0.25273407 -0.024360627 0.008313843 0.113112725 0.30457073 -0.2401826
-0.24769278 -0.23476179 -0.20824279 0.07037128 -0.19654715 -0.40444925 0.16341375 0.33364537
-0.1859192 0.24630368 -0.19298133 -0.22190061 0.33350953 0.2847055 0.2532641 0.126031
0.084552914 0.18652752 -0.3116907 0.2357017 -0.11422514 0.28783008 0.1212849 -0.19583203
0.24425343 -0.08807183 -0.086034514 0.11099407 -0.013588316 -0.17956164 0.16524616 -0.4269023
0.1439979 0.11749497 -0.12779292 0.11029889 -0.11277693 0.31391868 0.2700218 -0.31245613
-0.14821488 -0.03199306 0.31436655 0.10005551 -0.12591627 0.26258144 -0.14511587 0.29333562
0.15364663 -0.019854246 0.2731518 -0.19369864 0.194818 0.32653695 -0.27443153 -0.059260275
-0.19371647 0.16765891 0.18141541 0.10057882 0.3071176 0.007979699 0.12678516 0.28141475
-0.0011956714 -0.069309406 0.09919986 -0.17400995 0.029150987 0.12794511 -0.097301535 0.31583765
0.10774694 -0.24165575 0.16995983 -0.29934964 0.24894936 -0.15629253 -0.12108461 -0.022779398
-0.034476485 -0.10832464 -0.105341844 0.3100751 -0.0578999 0.05459792 -0.23621638 0.12844847
-0.13059554 0.17679553 -0.07687358 -0.15357858 0.25845122 0.29504907 0.22208506 0.022222294
00000000: 4704 97bd 28c4 2e3e 9484 84be c43a 60be
00000010: 485a 65be 4c25 80be 178c 79bd f86c cfbb
00000020: 5fb2 783e a07f f6bd 1720 28be 5951 0a3e
00000030: 4fdf 413d b781 cd3d 3786 a5bd 4de1 08be
00000040: 42a0 0abe 5a0a 843d d12c 9ebd 1654 133e
00000050: eee6 68bd 0969 883e 7640 5c3e 1e92 3b3d
00000060: 97a8 a5bb 459e 6a3c b5bc a63e 4869 593d
00000070: 4e08 ed3d 51e5 edbd 03f7 723e 7dcd a0be
00000080: e60a 54bc 8df2 7e3e d973 c13d 9acf 6c3e
00000090: ed14 8abe 146f a73e 9bd5 143e 0243 0c3e
000000a0: 1e03 543e 8b46 98be 82e3 b03e 5006 29be
000000b0: b952 83be 0143 603e 25bd a6be 2395 22be
000000c0: cf89 013e 933b 2fbe a929 80be c166 9e3d
000000d0: d7dc 133e c190 acbe 9c3c 07be 69a2 443e
000000e0: 0c86 3abe 6d2f b5be 0491 41bb d96d 32be
000000f0: 566a 833d 75b6 85be a347 c5bc 6585 8d3e
00000100: ee57 ec3c 3bfe dabd c023 45be a257 28be
00000110: 5750 9bbe 6df4 06be 3721 aa3e 39a4 d0bd
00000120: 3de4 343e c107 933e e044 083d 663f cfbd
00000130: 6b1a efbd 0718 513e 3314 a13e 8488 ae3e
00000140: 003b 273e 9a6f aa3d 495c a43d c90a dd3e
00000150: 6562 e1bd 7c0f 8ebe fa06 1b3e 2a59 6a3c
00000160: ba83 323e 6d77 91bd 5b25 82be 5170 b8be
00000170: e73b 17be 7122 84be 5c85 97be 49ed cfbd
00000180: e1e0 913e b8fc 4ebd e056 15be d954 42be
00000190: 2088 9ebe d187 893e ca58 a33e bf9b 98bc
000001a0: 173c db3d 3ca5 5e3d 079c 6cbe 207e 813e
000001b0: 4546 5ebe 97bc 9dbe 896f 1fbc 12b4 273e
000001c0: 2552 d23d 0afa 1a3c 1f44 5fbe 85e4 813e
000001d0: 6ac0 80be 762a 99be 851f 9b3e cf5b 5a3e
000001e0: 1bf3 c1bc 7537 56be 057d caba 8002 b63d
000001f0: d8ba 35bd 95a6 e33d 4ded 32be cad8 41be
00000200: 22e8 b4be 21a6 03be 3ce0 19bd 29b4 f3bc
00000210: e530 58be 7cb3 ebbd df5a 18bd 507d b5bd
00000220: fa8d 0e3d 5b1e 71be e320 8dbe eb29 883e
00000230: e1f5 d03d 752c 42be 8ff7 93bd 7214 8b3e
00000240: 0f09 073e c1ae 2fbe 6096 fa3d 2214 193e
00000250: e802 e23d 405d 27be 6415 cebd cfb2 6bbe
00000260: 828b 4dbe bed8 1f3e 5c66 813e f08f c7bc
00000270: c936 083c a5a7 e73d b2f0 9b3e 6df2 75be
00000280: 2da3 7dbe 6565 70be 993d 55be d11e 903d
00000290: a843 49be f913 cfbe ef55 273e 91d3 aa3e
000002a0: 9a61 3ebe 0837 7c3e e69c 45be ea39 63be
000002b0: c3c1 aa3e ebc4 913e d5ab 813e 450e 013e
000002c0: 142a ad3d 1201 3f3e ec95 9fbe c95b 713e
000002d0: dfee e9bd 775e 933e 3864 f83d 3188 48be
000002e0: 921d 7a3e 015f b4bd dd32 b0bd dc50 e33d
000002f0: 87a1 5ebc 02df 37be 4a36 293e f092 dabe
00000300: 2f74 133e 34a1 f03d 26dc 02be 62e4 e13d
00000310: 97f7 e6bd f3b9 a03e 4c40 8a3e 40fa 9fbe
00000320: a4c5 17be 280b 03bd a7f4 a03e e7e9 cc3d
00000330: 32f0 00be 1371 863e 4199 14be 1630 963e
00000340: 8b55 1d3e 5fa5 a2bc 8dda 8b3e f058 46be
00000350: 5f7e 473e da2f a73e 4a82 8cbe e7ba 72bd
00000360: 9c5d 46be c7ae 2b3e f6c4 393e 45fc cd3d
00000370: 853e 9d3e 49bd 023c f8d3 013e 9815 903e
00000380: 13b8 9cba 17f2 8dbd 4c29 cb3d aa2f 32be
00000390: 0dce ee3c 0b04 033e 0746 c7bd 79b5 a13e
000003a0: 6daa dc3d 9b74 77be f309 2e3e 5b44 99be
000003b0: 95ec 7e3e 260b 20be 35fb f7bd dc9b babc
000003c0: 3737 0dbd 4fd9 ddbd 77bd d7bd 2ac2 9e3e
000003d0: 7228 6dbd 12a2 5f3d b5e2 71be ff87 033e
000003e0: d6ba 05be e309 353e e56f 9dbd b443 1dbe
000003f0: b853 843e ac10 973e 446a 633e 870b b63c

fc2.bias f4 [64]
0.26241353 0.31464523 -0.20338137 0.23973714 0.1651146 0.24376054 -0.27900565 0.34256572
0.07905058 -0.076169126 0.12922141 -0.16038978 0.2281728 -0.26103833 0.1595811 0.249621
0.06785563 0.10127991 -0.16607162 0.049625073 0.1464839 0.33646566 -0.20156217 0.3205895
-0.18819638 0.14167127 0.17969374 0.05459413 0.100545175 -0.137436 0.32318243 -0.31837755
0.29390296 0.2644553 -0.28216323 -0.14262834 -0.15552019 0.20642018 0.14725365 0.19105741
0.2906364 -0.061018754 0.21881884 0.25932524 0.046095468 0.058792558 0.32725668 -0.14981602
-0.060352027 -0.30391872 0.29788265 -0.25264224 0.11522577 -0.1561887 -0.14560448 0.07547976
0.27739742 0.041544992 0.0128169665 0.2799589 0.24403131 0.042383578 -0.21299733 -0.08358704
00000000: 115b 863e 2e19 a13e 3543 50be a77d 753e
00000010: cd13 293e 5d9c 793e d4d9 8ebe c664 af3e
00000020: 45e5 a13d 8ffe 9bbd 9e52 043e 383d 24be
00000030: 21a6 693e d1a6 85be 3a69 233e a69c 7f3e
00000040: e4f7 8a3d d76b cf3d ae0e 2abe a943 4b3d
00000050: e0ff 153e 3a45 ac3e 5066 4ebe 4f24 a43e
00000060: 8db6 40be 4612 113e a301 383e 189e 5f3d
00000070: a1ea cd3d 06bc 0cbe 2b78 a53e 6202 a3be
00000080: 737a 963e af66 873e b377 90be 2a0d 12be
00000090: af40 1fbe d05f 533e a9c9 163e 8ea4 433e
000000a0: 4bce 943e cdee 79bd 0c12 603e 47c6 843e
000000b0: 9ace 3c3d 77d0 703d 308e a73e 5f69 19be
000000c0: b033 77bd 3c9b 9bbe 1384 983e 535a 81be
000000d0: 7dfb eb3d eeef 1fbe 5719 15be 2295 9a3d
000000e0: 0907 8e3e 152b 2a3d 41fe 513c c656 8f3e
000000f0: 58e3 793e 679a 2d3d f91b 5abe af2f abbd

embedding.weight f4 [2, 64]
-0.89119196 -1.3984089 2.3094401 1.4017835 1.2529597 -0.6758195 1.2525362 -0.07646084
-0.50178117 -2.6663003 -0.11902339 0.5851621 0.629862 1.0214576 2.4098313 -1.376646
-0.92234904 -0.5643353 1.292085 -0.5892105 -1.2939091 0.5942111 0.39121097 -0.9848005
1.5498819 1.1521639 -0.6329538 -0.41683242 -0.16600163 1.1098667 0.009588512 0.5405411
-0.30267337 -0.68342954 1.9898958 -1.2191808 -2.1599576 1.3580492 -2.0591397 0.03606348
-1.9228628 -1.2790058 0.76752996 0.15324597 -0.6024518 -0.3078462 1.0427172 0.4512851
-0.38963798 0.46642855 -1.6244873 0.3554671 -2.0243626 -1.273581 1.2058553 0.22014996
0.43456244 -1.4904897 -0.8055138 -0.052649975 -0.19860204 -2.5211754 -2.087056 1.6240531
-0.45822284 1.0580527 -1.1294559 -1.5716141 -0.8419863 -0.6624148 0.8540863 -0.9785874
-0.15853965 0.8889049 -2.4787755 -2.004425 0.58286864 1.2987372 -0.13123925 -0.2648087
0.2029547 -0.2220045 0.6674353 -1.6682391 -0.18297914 -0.7335207 0.7432602 1.177313
-0.12567948 1.6486266 -0.25806522 -0.25397912 -0.12519091 1.8647008 1.7549844 0.184034
0.05352238 -1.9151634 0.675946 0.38961896 0.20132451 0.20443265 -0.27495688 0.4539611
-0.3842125 0.9052252 1.3767983 1.0099193 1.5171591 0.39266992 1.2614541 0.7986602
-1.8988295 -0.43521017 2.1336653 -2.5190966 -1.8608904 1.847395 -0.4541754 0.42138842
0.9008997 0.7450596 -0.61714536 -0.4613197 -1.2666906 -1.0004735 1.6453226 0.055571318
00000000: 2825 64bf 10ff b2bf decd 1340 a46d b33f
00000010: fc60 a03f 8202 2dbf 1b53 a03f 8097 9cbd
00000020: bb74 00bf aaa4 2ac0 89c2 f3bd 2fcd 153f
00000030: a33e 213f 1fbf 823f ad3a 1a40 f035 b0bf
00000040: 111f 6cbf 4778 10bf 0b63 a53f 80d6 16bf
00000050: d09e a5bf 381e 183f ce4c c83e e31b 7cbf
00000060: 8862 c63f 1b7a 933f 4309 22bf 0f6b d5be
00000070: 55fc 29be 1d10 8e3f 2219 1d3c e760 0a3f
00000080: 01f8 9abe 3df5 2ebf e8b4 fe3f 1e0e 9cbf
00000090: bf3c 0ac0 8ed4 ad3f f2c8 03c0 4db7 133d
000000a0: 5e20 f6bf 76b6 a3bf d87c 443f 83ec 1c3e
000000b0: 483a 1abf 049e 9dbe c277 853f d70e e73e
000000c0: a17e c7be b9cf ee3e 33ef cfbf c9ff b53e
000000d0: 288f 01c0 b404 a3bf 7759 9a3f fe6e 613e
000000e0: f87e de3e 5ec8 bebf 2736 4ebf 80a7 57bd
000000f0: 555e 4bbe f05a 21c0 5392 05c0 f9e0 cf3f
00000100: 2f9c eabe 456e 873f 0392 90bf a72a c9bf
00000110: 6a8c 57bf 0494 29bf 66a5 5a3f b484 7abf
00000120: 3858 22be 468f 633f 42a4 1ec0 8048 00c0
00000130: e136 153f 053d a63f 9563 06be 0295 87be
00000140: 5bd3 4f3e 2655 63be 0add 2a3f dc88 d5bf
00000150: e25e 3bbe 03c8 3bbf 4d46 3e3f 31b2 963f
00000160: 1fb2 00be 3206 d33f 2021 84be 8d09 82be
00000170: 0c32 00be 84ae ee3f 54a3 e03f 6973 3c3e
00000180: 483a 5b3d 1324 f5bf cc0a 2d3f 237c c73e
00000190: 0328 4e3e cb56 513e 26c7 8cbe 976d e83e
000001a0: 80b7 c4be d7bc 673f ed3a b03f 0945 813f
000001b0: 4532 c23f 080c c93e 5477 a13f ff74 4c3f
000001c0: d80c f3bf ded3 debe f98d 0840 e138 21c0
000001d0: a831 eebf 7077 ec3f ae89 e8be 39c0 d73e
000001e0: 5da1 663f 3abc 3e3f 3dfd 1dbf 1932 ecbe
000001f0: eb22 a2bf 840f 80bf ee99 d23f c09e 633d

adaLN_modulation.1.weight f4 [128, 64]
0.113764286 0.11679519 -0.09881652 -0.009710501 -0.09851586 0.115642324 0.064116076 0.1059579
0.040698443 -0.10009593 0.099586576 0.057446014 -0.05447568 0.049077623 -0.11228363 0.104611024
0.013467669 0.004159789 0.09718759 0.005021226 0.05084113 -0.06558691 -0.047768008 0.03281915
-0.12398711 -0.043632116 0.09107767 0.06402241 0.10804703 0.011485207 0.051710635 0.065763004
-0.10319404 0.058258664 -0.03397162 -0.030666882 0.11227874 -0.060328875 -0.01848397 -0.04759897
-0.05543768 -0.03771023 0.1253532 0.053245146 0.041681245 0.014754239 -0.006247603 -0.04326639
-0.013373979 0.050002724 -0.052990038 0.026575284 -0.0031928658 0.05313112 0.008683747 -0.038290147
-0.0022788036 0.023002358 0.025364717 -0.111155435 0.016699813 -0.03551287 -0.11713417 0.009816012
0.074253984 0.101379625 -0.020417048 -0.11754289 -0.047840368 0.106978424 -0.030774133 0.06535016
0.10293435 -0.1284963 -0.0875862 -0.042108867 0.08761206 -0.09529327 -0.08620161 0.053638726
0.106185645 0.021687863 -0.026935859 0.080824725 0.006899809 -0.13200453 0.0052813385 -0.12784334
0.078757115 -0.059906296 -0.07990125 0.08182989 0.09551168 0.019984318 -0.00094277435 0.10778115
0.09730165 -0.0873162 -0.041846003 -0.11719996 0.043785363 0.070928626 -0.032982636 -0.006027546
-0.10507122 -0.042973626 0.09419426 -0.07702293 -0.019953685 0.018195288 -0.03956363 0.026182506
0.01742767 0.09827842 -0.07712558 -0.037911624 -0.027905293 -0.12039829 -0.048406154 0.07966306
-0.1306446 -0.11557901 0.07426215 0.016634982 -0.027569275 -0.065916814 -0.007270895 -0.011773926
-0.036372524 0.026853861 0.012276071 0.014354339 -0.054967377 0.022761157 0.06170332 -0.032132618
-0.011846397 0.0026010666 -0.11969522 -0.08035208 -0.06527999 0.081564575 0.10221462 0.106916055
0.0029325462 0.07580466 -0.02721216 0.057118773 -0.041625157 0.0366954 0.08399093 0.051942218
0.053824075 0.027082054 -0.05148146 -0.07276245 -0.07429902 -0.10798431 0.006876062 0.00385804
-0.04537376 0.027656946 -0.08859631 0.0019323046 -0.04538968 -0.09802687 0.07788775 -0.09925599
-0.08847399 0.032419 -0.061825164 0.094619595 -0.08030706 -0.085586466 -0.0131034255 -0.07202405
0.08819611 0.026945498 -0.10274265 0.09063337 -0.08174006 0.036823705 -0.0053185276 0.0020306527
-0.005897285 -0.0056898715 -0.08020525 -0.09714627 -0.059524726 0.052410822 0.11024253 -0.041759808
0.008092408 -0.1199425 0.018501766 -0.0033564672 -0.024738839 0.11000636 -0.020066794 0.09806345
-0.033682518 0.026493577 0.082308024 0.10369841 -0.06960323 0.028834151 0.09211598 -0.10825118
0.04123666 0.032747068 -0.02862493 -0.11327934 -0.003025345 -0.07056208 0.08464142 0.07162232
0.07376401 -0.086559795 0.114105985 0.075558536 0.028286826 -0.034900572 0.0007562755 0.06357915
0.015136072 0.0355095 0.02253142 -0.0950173 -0.011464061 0.063681275 -0.07386166 -0.08131559
0.0040700985 -0.044149723 -0.10578948 -0.06158826 -0.10586121 -0.087769166 -0.0088244835 0.029008916
-0.041259386 -0.020285971 0.07340625 -0.04120472 -0.024293622 0.040330607 0.014497288 0.08781805
0.031657115 0.010773815 -0.01231996 0.012087261 0.11612568 0.04774434 -0.03617355 -0.07157342
00000000: 40fd e83d 5132 ef3d 5160 cabd cb18 1fbc
00000010: afc2 c9bd e2d5 ec3d 4a4f 833d 7500 d93d
00000020: 69b3 263d 18ff ccbd 0cf4 cb3d 834c 6b3d
00000030: e421 5fbd 9e05 493d f6f4 e5bd 4e3e d63d
00000040: 7fa7 5c3c d74e 883b 4a0a c73d 1989 a43b
00000050: ca3e 503d 6e52 86bd 63a8 43bd 5f6d 063d
00000060: f4ec fdbd 97b7 32bd ee86 ba3d 2e1e 833d
00000070: c347 dd3d 732c 3c3c 88ce 533d c1ae 863d
00000080: 6657 d3bd a3a0 6e3d d325 0bbd 1d39 fbbc
00000090: 65f2 e53d 691b 77bd b26b 97bc 23f7 42bd
000000a0: 9f12 63bd 0b76 1abd 975c 003e 9517 5a3d
000000b0: f4b9 2a3d c3bb 713c b1b8 ccbb 1938 31bd
000000c0: 891e 5bbc a8cf 4c3d 150c 59bd 69b4 d93c
000000d0: 663f 51bb 04a0 593d 4646 0e3c 21d6 1cbd
000000e0: fb57 15bb 716f bc3c abc9 cf3c 76a5 e3bd
000000f0: 0cce 883c f175 11bd 0ae4 efbd 57d3 203c
00000100: 7912 983d 1fa0 cf3d a741 a7bc 54ba f0bd
00000110: 43f4 43bd 8117 db3d 091a fcbc 4ed6 853d
00000120: 3fcf d23d 8994 03be 6560 b3bd 597a 2cbd
00000130: f46d b33d 1e29 c3bd 788a b0bd 48b4 5b3d
00000140: dc77 d93d bfaa b13c 97a8 dcbc 6f87 a53d
00000150: cb17 e23b 322c 07be 140f ad3b 5de9 02be
00000160: 694b a13d 4e60 75bd 44a3 a3bd 6e96 a73d
00000170: a19b c33d 27b6 a33c 8424 77ba 5dbc dc3d
00000180: 1646 c73d d6d2 b2bd b766 2bbd 8806 f0bd
00000190: 4858 333d 0743 913d cd18 07bd b882 c5bb
000001a0: 942f d7bd 1d05 30bd ece8 c03d 33be 9dbd
000001b0: e975 a3bc 490e 953c 790d 22bd b27c d63c
000001c0: 79c4 8e3c 3246 c93d 04f4 9dbd 3849 1bbd
000001d0: a499 e4bc 6193 f6bd 8845 46bd 6326 a33d
000001e0: b3c7 05be b0b4 ecbd c116 983d 1646 883c
000001f0: f6d8 e1bc 65ff 86bd b040 eebb 6de7 40bc
00000200: 5bfb 14bd a1fc db3c 9321 493c 762e 6b3c
00000210: 7925 61bd 9b75 ba3c 9fbc 7c3d 7e9d 03bd
00000220: 6417 42bc a876 2a3b c422 f5bd a28f a4bd
00000230: 84b1 85bd 540b a73d e655 d13d cef6 da3d
00000240: f62f 403b 793f 9b3d 09ec debc 60f5 693d
00000250: 247f 2abd ea4d 163d 7003 ac3d 5dc1 543d
00000260: a276 5c3d 2fdb dd3c 39de 52bd 7b04 95bd
00000270: 162a 98bd e126 ddbd 9750 e13b 2cd7 7c3b
00000280: d6d9 39bd d290 e23c fb71 b5bd 6245 fd3a
00000290: 87ea 39bd 50c2 c8bd 9d83 9f3d b946 cbbd
000002a0: da31 b5bd c9c9 043d 623c 7dbd ebc7 c13d
000002b0: 0778 a4bd f547 afbd c0af 56bc 5881 93bd
000002c0: 2aa0 b43d cebc dc3c bd6a d2bd fd9d b93d
000002d0: 5567 a7bd 74d4 163d 0b47 aebb b314 053b
000002e0: 033e c1bb 1a72 babb a642 a4bd a0f4 c6bd
000002f0: 33d0 73bd bbac 563d d6c6 e13d 550c 2bbd
00000300: 0596 043c 6aa4 f5bd 0491 973c 2df8 5bbb
00000310: 1ba9 cabc 044b e13d 1e63 a4bc 7dd5 c83d
00000320: aef6 09bd 0f09 d93c 1c91 a83d d55f d43d
00000330: 238c 8ebd 9935 ec3c 4ea7 bc3d cbb2 ddbd
00000340: c6e7 283d ca21 063d d47e eabc 00ff e7bd
00000350: de44 46bb da82 90bd 7b58 ad3d b9ae 923d
00000360: 9611 973d 4346 b1bd 66b0 e93d 6fbe 9a3d
00000370: c6b9 e73c e7f3 0ebd ca40 463a c935 823d
00000380: 4afd 773c 6972 113d d093 b83c 6e98 c2bd
00000390: c2d3 3bbc 546b 823d c844 97bd ca88 a6bd
000003a0: 765e 853b 57d6 34bd 28a8 d8bd f943 7cbd
000003b0: c3cd d8bd 52c0 b3bd 9194 10bc 1ba4 ed3c
000003c0: 9aff 28bd c42e a6bc 0456 963d 48c6 28bd
000003d0: 6b03 c7bc b531 253d 0886 6d3c f3d9 b33d
000003e0: e4aa 013d a884 303c a8d9 49bc a609 463c
000003f0: 4dd3 ed3d 928f 433d b72a 14bd 1695 92bd

adaLN_modulation.1.bias f4 [128]
-0.07475435 0.04470599 -0.01608284 0.005279147 -0.10090253 -0.095730506 -0.07564674 -0.03930456
-0.08361711 -0.026154337 0.07001497 0.12524256 0.113781676 0.028712451 -0.00089892634 -0.121086165
0.113754936 -0.025370413 -0.12699676 -0.003584253 0.031996924 -0.016435722 -0.027265184 -0.010146341
-0.10455284 -0.10898056 0.11625242 -0.08541977 0.09504245 -0.0881198 0.09202642 0.037278306
-0.123407185 -0.054893903 -0.090886995 0.01144127 -0.0439014 0.0562082 -0.009688022 0.048437264
0.08863478 0.13281399 0.10537011 -0.09370508 -0.025415951 -0.012637469 0.08082452 0.09563849
0.07981822 -0.04474262 -0.11059974 0.053009346 0.03721032 -0.07283394 0.10576528 -0.020622002
0.0011559135 -0.06838723 0.018438838 0.024166832 -0.034746513 -0.059998848 -0.014109265 0.024902541
0.08387825 0.09205613 -0.032939773 0.09535336 -0.05608052 -0.04600803 0.12818141 -0.12681392
-0.11718977 -0.12874655 -0.0023115422 -0.08884023 0.015117508 0.067311436 -0.025534755 0.061532773
0.106810346 0.08570887 0.048685495 0.089341216 0.04333323 0.121702775 -0.047519706 0.012589749
-0.12761414 -0.11834229 -0.06881037 -0.123612635 -0.10111225 -0.041040357 0.03081294 -0.087724425
-0.07952467 0.04109519 0.12331209 -0.019073322 -0.01020919 -0.08621315 0.02014087 0.06970112
0.04774389 0.06845028 -0.029030923 -0.10353237 0.034291048 -0.12854415 -0.028487124 -0.039356165
-0.030846735 -0.010321546 0.01790885 0.06742679 0.0049146344 -0.06283879 0.05421071 0.022003155
0.05274437 0.091797285 0.10552622 -0.082730226 0.08313643 -0.014149408 -0.09255186 0.11938263
00000000: cf18 99bd a11d 373d 29c0 83bc b2fc ac3b
00000010: fca5 cebd 5b0e c4bd aeec 9abd d1fd 20bd
00000020: 733f abbd 9f41 d6bc 0264 8f3d 963f 003e
00000030: 5e06 e93d 6036 eb3c eda5 6bba 06fc f7bd
00000040: 59f8 e83d 9dd5 cfbc 700b 02be c9e5 6abb
00000050: 350f 033d 35a4 86bc 3c5b dfbc d73c 26bc
00000060: cd1f d6bd 3331 dfbd c015 ee3d 8ff0 aebd
00000070: 9ea5 c23d 2778 b4bd 5978 bc3d 23b1 183d
00000080: e8bc fcbd 6ed8 60bd f622 babd 2a74 3b3c
00000090: f4d1 33bd 923a 663d 82ba 1ebc 2766 463d
000000a0: 2786 b53d 6400 083e 49cc d73d 73e8 bfbd
000000b0: 1d35 d0bc 630d 4fbc 5387 a53d 1dde c33d
000000c0: bc77 a33d 0a44 37bd 1e82 e2bd 5420 593d
000000d0: d969 183d f629 95bd 789b d83d 79ef a8bc
000000e0: 0582 973a 9b0e 8cbd 0c0d 973c 85f9 c53c
000000f0: 5c52 0ebd 5ac1 75bd 8c2a 67bc 6a00 cc3c
00000100: 5cc8 ab3d ed87 bc3d dbeb 06bd 9f48 c33d
00000110: b0b4 65bd eb72 3cbd fd41 033e 82db 01be
00000120: 3101 f0bd 23d6 03be 3e7d 17bb def1 b5bd
00000130: 6daf 773c 94da 893d 432e d1bc ca09 7c3d
00000140: 62bf da3d 2288 af3d 716a 473d 87f8 b63d
00000150: 2f7e 313d 4e3f f93d 06a4 42bd 3c45 4e3c
00000160: 48ad 02be 715d f2bd 74ec 8cbd 9f28 fdbd
00000170: f013 cfbd ef19 28bd 6b6b fc3c dda8 b3bd
00000180: d5dd a2bd 6e53 283d 0d8b fc3d a83f 9cbc
00000190: 7244 27bc 8590 b0bd 77fe a43c 76bf 8e3d
000001a0: 198f 433d a92f 8c3d 42d2 edbc c708 d4bd
000001b0: c574 0c3d 14a1 03be d45d e9bc ee33 21bd
000001c0: 4bb2 fcbc b41b 29bc 95b5 923c 0f17 8a3d
000001d0: f10a a13b a0b1 80bd 0d0c 5e3d f63f b43c
000001e0: 7b0a 583d 3700 bc3d 211e d83d 776e a9bd
000001f0: 6f43 aa3d ebd2 67bc d48b bdbd e17e f43d

advantage.0.weight f4 [256, 64]
0.07449499 -0.11899394 0.03207892 0.06547994 0.113936655 -0.105963655 -0.01076268 -0.040515974
0.099951185 -0.055770252 -0.09736356 -0.0729374 -0.06330584 -0.046880584 -0.029864764 -0.0078525245
-0.019965544 0.11469809 0.048990723 -0.09880521 0.13692544 0.1067473 -0.063169785 0.04858997
-0.0143467905 0.034579456 -0.0879387 0.035097994 -0.12053338 0.11384575 -0.01872739 -0.008882704
0.084041 0.026065 -0.14006595 -0.0027288026 0.11295537 -0.057032928 -0.04098007 0.12567428
0.10013151 0.032159124 0.051168878 -0.1034956 -0.0153654795 -0.023497598 -0.022592116 -0.112057455
0.07350592 -0.03601541 0.0011033596 -0.015741192 0.07599994 0.10748569 0.020976534 -0.055493306
-0.07057043 0.12073748 0.08320258 -0.14611827 0.032155607 -0.01571528 -0.08064212 -0.09237762
-0.03058599 0.07080542 -0.10249328 -0.03407529 -0.10143134 0.11140572 -0.11230867 -0.09473266
0.08096025 -0.03313465 0.078720726 0.13122302 0.04233832 -0.015398284 -0.025282748 -0.016685542
0.07293711 0.08980865 0.10669488 0.123406485 0.049512666 -0.119742714 0.07514027 -0.079703815
0.053828873 0.110740535 -0.11521005 -0.06802399 0.077578366 -0.028338522 -0.056602336 0.02547588
-0.040819336 -0.10576559 0.02694524 -0.08955663 0.09814029 0.046465944 0.0741214 -0.04342442
-0.07364094 -0.11488463 -0.10867948 -0.08262221 -0.025903475 0.054065637 -0.035687957 0.041994143
-0.07463625 0.050611176 0.032747824 0.025361273 0.008491282 0.06787472 -0.07984358 0.053916335
0.014397147 -0.020814158 0.0072382297 -0.12079545 -0.05618263 0.049847312 -0.09330128 -0.1265773
0.0379093 0.012610033 0.113199174 -0.08279733 0.02487179 0.102366365 -0.07243845 0.056831263
-0.097947374 -0.09034495 0.112940036 -0.06578874 -0.12698218 -0.062427755 -0.13046962 0.11051125
-0.10934282 0.052496154 0.069251604 -0.08233379 0.05033898 -0.00028053176 0.020138659 0.006605017
-0.06423139 0.05568792 0.004672994 0.030920908 0.112257056 0.10602258 0.0399539 -0.10976145
-0.033864126 0.0773675 -0.06401982 -0.020939326 -0.10748189 -0.0794388 0.093034685 0.13765
0.02777225 -0.0503176 -0.10516758 -0.10780446 -0.054427773 0.12296286 -0.12477537 0.055450052
0.051464412 -0.101886034 -0.04748895 -0.044824604 0.03638181 -0.0647001 -0.038254134 0.123228796
0.11135773 -0.05334493 -0.022416487 0.048318904 0.11013765 -0.10463602 -0.12002573 0.011792907
-0.05569567 0.081665404 -0.0008501926 0.0757189 0.028054034 0.03513722 -0.1135664 0.10962245
0.013043104 0.052800957 0.107007235 -0.042061493 -0.034993146 0.03489242 -0.12989478 -0.08976475
-0.053239144 -0.03212121 -0.11010611 -0.054219548 -0.09473376 0.08211391 0.06432464 -0.111416414
0.07298614 0.1268962 -0.020228343 -0.079395495 0.027922077 0.12274474 -0.13164002 0.0036669583
-0.040336616 -0.08554161 -0.024454437 -0.0049325842 -0.009806694 -0.03748825 -0.07775592 0.08778527
-0.030807666 -0.037250984 0.016663792 -0.046336185 -0.09564157 -0.13009158 0.116981916 0.0924428
0.065312706 -0.06913969 0.040697876 -0.09125549 -0.043760434 0.12809955 0.069816895 -0.097787686
-0.022141872 -0.06754273 -0.09332403 -0.040598787 0.083883524 0.03432757 0.11403362 0.017009193
00000000: d490 983d 18b3 f3bd 3065 033d 591a 863d
00000010: 9f57 e93d 7903 d9bd f455 30bc 14f4 25bd
00000020: 35b3 cc3d 596f 64bd 8c66 c7bd 3460 95bd
00000030: 7ea6 81bd db05 40bd f3a6 f4bc e0a7 00bc
00000040: c88e a3bc d5e6 ea3d 7faa 483d 635a cabd
00000050: 2f36 0c3e 549e da3d 295f 81bd 4706 473d
00000060: cd0e 6bbc 30a3 0d3d 3519 b4bd eac2 0f3d
00000070: 34da f6bd f627 e93d 2f6a 99bc c388 11bc
00000080: b01d ac3d 4486 d53c 736d 0fbe b6d5 32bb
00000090: 2555 e73d 5c9b 69bd b8da 27bd c2b0 003e
000000a0: c011 cd3d 49b9 033d 7596 513d 80f5 d3bd
000000b0: 7ebf 7bbc 097e c0bc 1a13 b9bc 617e e5bd
000000c0: 468a 963d e584 13bd 9b9e 903a acf3 80bc
000000d0: dba5 9b3d 7521 dc3d fbd6 ab3c f34c 63bd
000000e0: 3b87 90bd 3645 f73d 1d66 aa3d 07a0 15be
000000f0: 99b5 033d 55bd 80bc b227 a5bd 7a30 bdbd
00000100: 788f fabc 6f02 913d ffe7 d1bd 8892 0bbd
00000110: 3cbb cfbd af28 e43d 1702 e6bd 3203 c2bd
00000120: 7dce a53d 33b8 07bd 5538 a13d 545f 063e
00000130: f26a 2d3d 1649 7cbc c41d cfbc 1eb0 88bc
00000140: 0d60 953d 99ed b73d d882 da3d 8abc fc3d
00000150: cbcd 4a3d ab3b f5bd 24e3 993d c13b a3bd
00000160: aa7b 5c3d efcb e23d 3ff3 ebbd 2950 8bbd
00000170: 68e1 9e3d 3026 e8bc dad7 67bd cbb2 d03c
00000180: 2d32 27bd a19b d8bd 44bc dc3c 7769 b7bd
00000190: c7fd c83d 1353 3e3d f6cc 973d cedd 31bd
000001a0: 10d1 96bd a248 ebbd 5993 debd d535 a9bd
000001b0: 8633 d4bc ee73 5d3d 892d 12bd 0d02 2c3d
000001c0: e4da 98bd aa4d 4f3d 9522 063d 72c2 cf3c
000001d0: 051f 0b3c e701 8b3d 0885 a3bd 60d7 5c3d
000001e0: 03e2 6b3c 7482 aabc ac2e ed3b 9b63 f7bd
000001f0: c21f 66bd b22c 4c3d be14 bfbd 7b9d 01be
00000200: c846 1b3d 509a 4e3c f8d4 e73d a691 a9bd
00000210: edbf cb3c 75a5 d13d 9c5a 94bd e6c7 683d
00000220: a298 c8bd c606 b9bd 1b4d e73d 3fbc 86bd
00000230: 9e07 02be 3fb4 7fbd d499 05be b953 e23d
00000240: 21ef dfbd 3506 573d c9d3 8d3d 9e9e a8bd
00000250: 3f30 4e3d 5614 93b9 d4f9 a43c e66e d83b
00000260: bf8b 83bd 0419 643d ea1f 993b d84d fd3c
00000270: 07e7 e53d 5e22 d93d b3a6 233d 9cca e0bd
00000280: 1cb5 0abd da72 9e3d d31c 83bd f388 abbc
00000290: 771f dcbd cfb0 a2bd f888 be3d 1ff4 0c3e
000002a0: a182 e33c d419 4ebd 1a62 d7bd 96c8 dcbd
000002b0: a8ef 5ebd f4d3 fb3d 3b8a ffbd 981f 633d
000002c0: 59cc 523d a0a9 d0bd c683 42bd 019a 37bd
000002d0: 1805 153d 7c81 84bd 5eb0 1cbd 615f fc3d
000002e0: 860f e43d 3780 5abd c8a2 b7bc 0bea 453d
000002f0: d98f e13d 694b d6bd 0dd0 f5bd 0937 413c
00000300: 2521 64bd 3140 a73d 76df 5eba 8312 9b3d
00000310: 93d1 e53c 0cec 0f3d 8095 e8bd bc81 e03d
00000320: beb2 553c d145 583d 9c26 db3d ac48 2cbd
00000330: f954 0fbd 5beb 0e3d 2303 05be 95d6 b7bd
00000340: 4a11 5abd 8891 03bd 507f e1bd 5115 5ebd
00000350: c603 c2bd 562b a83d a3bc 833d 4a2e e4bd
00000360: c279 953d 14f1 013e e9b5 a5bc 1b9a a2bd
00000370: d7bc e43c 9861 fb3d a4cc 06be 5a51 703b
00000380: 0238 25bd 7130 afbd ac54 c8bc 84a1 a1bb
00000390: 42ac 20bc 478d 19bd 7f3e 9fbd c3c8 b33d
000003a0: 5c60 fcbc 7d94 18bd 8182 883c 03cb 3dbd
000003b0: badf c3bd ba36 05be 3794 ef3d a752 bd3d
000003c0: abc2 853d 1c99 8dbd d1b2 263d 29e4 babd
000003d0: 243e 33bd 872c 033e 29fc 8e3d e944 c8bd
000003e0: df62 b5bc d853 8abd ab20 bfbd ea4a 26bd
000003f0: 20cb ab3d 119b 0c3d 758a e93d dd56 8b3c

advantage.0.bias f4 [256]
0.029909402 0.112657905 0.09640964 0.0446666 0.042320285 -0.11975376 -0.08839456 -0.12120013
-0.0004533831 -0.021835865 0.13093977 -0.073187836 -0.03997207 0.03292967 0.108709976 0.0269012
-0.12535222 0.090482034 -0.0605385 0.05212963 -0.09990794 0.11701757 -0.027905898 0.083484836
-0.031601593 0.033405684 -0.005288323 0.028319359 0.10267901 -0.049609456 -0.01836256 0.05319426
-0.07112823 0.066390395 -0.0993993 -0.056117762 0.08119196 -0.028007407 0.00044301336 0.11183641
-0.015356879 0.098922946 0.053549465 -0.040429726 0.008842595 -0.06508856 0.049275745 -0.07515066
0.024082638 -0.03804975 -0.06645781 0.053884078 0.07479196 0.102224305 -0.051504087 -0.083295375
0.08108008 -0.04897286 -0.07393588 -0.0011888158 0.063947 -0.12691692 0.008732294 -0.014837822
-0.020440364 -0.031234112 0.02725612 -0.10723086 0.1074457 0.057456803 -0.04512214 -0.10024085
0.0411807 0.0745794 0.120253496 -0.13408291 0.017247312 -0.098069936 -0.09623918 -0.11324408
0.013552119 0.05408303 0.10928312 -0.012698922 -0.07218734 0.021262994 0.039055504 0.11023994
-0.024746345 0.065595575 0.080456294 0.08469083 0.012554412 -0.034967806 -0.05244696 0.03512863
0.11356533 -0.02267911 -0.07080763 -0.03083233 0.060110666 0.043885216 0.07569633 0.0992532
-0.1288711 -0.10192141 -0.03277876 -0.033734497 0.0035516063 -0.06396064 0.08237176 0.0023803513
0.009852128 0.009240978 -0.12095446 -0.039456986 -0.060021024 -0.03868108 -0.09231576 0.093396455
-0.005611743 0.09549076 -0.109469846 0.032602414 0.028759012 0.030094812 0.1129935 0.09527357
0.11226207 -0.07236311 0.054758284 -0.09292417 0.013969696 0.10561725 -0.0023607179 0.03767193
0.09500163 -0.11972233 0.060090818 0.018654758 -0.09370772 -0.0026063968 0.008968486 0.1146909
-0.030532334 0.093678 0.09479885 0.08971375 -0.07642372 0.042648245 -0.10879589 -0.08392638
-0.017504532 0.07830266 0.106961526 -0.11474651 0.112389624 0.022747697 -0.027076937 0.06180626
0.07596117 0.109752096 -0.11610866 0.06711856 -0.10373169 0.02174689 0.038139377 -0.052170817
0.07997203 0.077824526 0.06674759 0.056288768 -0.07565218 -0.11297324 0.11155138 -0.028481562
-0.10308174 0.06988799 -0.021791896 -0.050433923 -0.0475489 -0.092210785 0.01982063 -0.067601554
0.001387775 -0.044594266 0.07409156 0.027695604 -0.11174465 0.014127582 -0.095611274 -0.09806722
-0.108436756 -0.096974015 0.085527934 0.053786933 0.0014392524 0.03722958 -0.07853919 0.05694775
-0.08694333 -0.0034991342 0.091249384 0.038022902 0.0068502305 0.09314435 0.029206436 -0.008073095
0.04299712 0.050509118 0.019110769 -0.0013584764 0.056985304 0.09312948 0.0077816388 -0.12297081
-0.0020515101 -0.018235393 -0.07181188 -0.084967695 -0.108245894 0.0964681 -0.019282501 0.05655782
0.007184738 0.0882424 0.06809998 0.03576807 0.075418204 0.0011580609 0.109430626 -0.0980993
-0.050473597 0.0070129526 -0.12608996 -0.12038047 -0.060605396 0.030593202 -0.04740985 -0.11817016
0.016495088 0.023530995 -0.11678275 -0.09112362 -0.09648021 -0.008785722 0.10124227 -0.0232473
0.12590297 0.07689119 -0.089194775 0.0038417864 0.08268907 -0.10425603 0.026066124 0.050139137
00000000: 9004 f53c 30b9 e63d 6b72 c53d 53f4 363d
00000010: 0958 2d3d 7641 f5bd 3508 b5bd c637 f8bd
00000020: 0db4 edb9 21e1 b2bc 1315 063e 81e3 95bd
00000030: c1b9 23bd 43e1 063d 56a3 de3d e85f dc3c
00000040: 555c 00be a54e b93d 38f7 77bd e185 553d
00000050: 899c ccbd e8a6 ef3d e99a e4bc 19fa aa3d
00000060: ac70 01bd 66d4 083d ab49 adbb 00fe e73c
00000070: 5f49 d23d 4933 4bbd 146d 96bc 39e2 593d
00000080: adab 91bd b0f7 873d dc91 cbbd bddb 65bd
00000090: f847 a63d ca6f e5bc 3f44 e839 7d0a e53d
000000a0: 6b9b 7bbc 1d98 ca3d af56 5b3d a499 25bd
000000b0: 88e0 103c 274d 85bd 5dd5 493d 97e8 99bd
000000c0: f448 c53c 0eda 1bbd 081b 88bd 8db5 5c3d
000000d0: 872c 993d fa5a d13d f3f5 52bd c496 aabd
000000e0: 500d a63d c497 48bd b26b 97bd 0ad2 9bba
000000f0: a5f6 823d 82f6 01be e511 0f3c 561a 73bc
00000100: 8d72 a7bc aede ffbc 3a48 df3c da9b dbbd
00000110: 7e0c dc3d d357 6b3d fed1 38bd 134b cdbd
00000120: 18ad 283d 16bd 983d 7747 f63d 084d 09be
00000130: 3c4a 8d3c e4d8 c8bd 0c19 c5bd 83ec e7bd
00000140: b509 5e3c 2b86 5d3d d4cf df3d 240f 50bc
00000150: f5d6 93bd bb2f ae3c aaf8 1f3d 7ac5 e13d
00000160: d9b8 cabc f956 863d 45c6 a43d 6372 ad3d
00000170: 05b1 4d3c 673a 0fbd a0d2 56bd 0ae3 0f3d
00000180: f194 e83d 8ac9 b9bc 9703 91bd 1594 fcbc
00000190: 9a36 763d fcc0 333d ad06 9b3d 4345 cb3d
000001a0: c9f6 03be 2cbc d0bd 0543 06bd 2f2d 0abd
000001b0: 11c2 683b ccfd 82bd 86b2 a83d abff 1b3b
000001c0: d26a 213c 7967 173c f9b6 f7bd a69d 21bd
000001d0: 9bd8 75bd 0d70 1ebd 0c10 bdbd a446 bf3d
000001e0: b6e2 b7bb a990 c33d ba31 e0bd 1c8a 053d
000001f0: 0598 eb3c 6589 f63c 2369 e73d ca1e c33d
00000200: a8e9 e53d 1c33 94bd 394a 603d 074f bebd
00000210: 27e1 643c db4d d83d 46b6 1abb e24d 1a3d
00000220: 3790 c23d fb30 f5bd ca21 763d ddd1 983c
00000230: d5e9 bfbd 15d0 2abb 8ff0 123c 10e3 ea3d
00000240: f21e fabc 40da bf3d e625 c23d d8bb b73d
00000250: 0a84 9cbd edaf 2e3d 61d0 debd 98e1 abbd
00000260: aa65 8fbc 255d a03d a50e db3d 3800 ebbd
00000270: 882c e63d 6159 ba3c 74d0 ddbc 9028 7d3d
00000280: 8891 9b3d b5c5 e03d 61ca edbd 7575 893d
00000290: 4871 d4bd 8926 b23c 0938 1c3d 11b1 55bd
000002a0: 60c8 a33d 7762 9f3d f6b2 883d 0d8f 663d
000002b0: 88ef 9abd 845e e7bd 0d75 e43d 2a52 e9bc
000002c0: 851c d3bd 6f21 8f3d eb84 b2bc cd93 4ebd
000002d0: a3c2 42bd 02d9 bcbd e05e a23c af72 8abd
000002e0: 00e6 b53a 7aa8 36bd 51bd 973d e4e1 e23c
000002f0: 61da e4bd 6077 673c d8cf c3bd 77d7 c8bd
00000300: 1714 debd 509a c6bd 4529 af3d b04f 5c3d
00000310: 4ca5 bc3a 0b7e 183d 28d9 a0bd 0b42 693d
00000320: 580f b2bd bb51 65bb f5e0 ba3d e7bd 1b3d
00000330: e677 e03b 77c2 be3d 5642 ef3c 0445 04bc
00000340: c01d 303d a6e2 4e3d 308e 9c3c e70e b2ba
00000350: 6c69 693d abba be3d 1efd fe3b 1fd8 fbbd
00000360: a172 06bb 6462 95bc 1b12 93bd 8b03 aebd
00000370: 06b0 ddbd 1191 c53d 56f6 9dbc 2ca9 673d
00000380: f36d eb3b 6eb8 b43d 0178 8b3d 8a81 123d
00000390: dc74 9a3d 13ca 973a 2a1d e03d 49e8 c8bd
000003a0: 67bd 4ebd e9cc e53b ba1d 01be 098a f6bd
000003b0: 5d3d 78bd 989e fa3c d530 42bd 3203 f2bd
000003c0: b520 873c 13c4 c03c cb2b efbd 059f babd
000003d0: 6b97 c5bd fdf1 0fbc 1b58 cf3d 1f71 bebc
000003e0: b5ec 003e 2179 9d3d c0ab b6bd 7bc6 7b3b
000003f0: e358 a93d 2f84 d5bd a088 d53c b25e 4d3d

advantage.2.weight f4 [2, 256]
0.039516464 -0.009098448 0.030710157 0.057864714 -0.017402865 -0.029052077 0.022752488 -0.007961946
0.0015550585 -0.026522035 -0.054014307 -0.031372555 0.03757042 0.028574266 -0.053321693 0.042135518
-0.010592244 0.015512039 -0.014864094 -0.040882684 -0.043989535 -0.016853 -0.027215153 -0.035849277
0.01774148 -0.05728281 0.033440776 0.044254936 -0.056368794 -0.07700302 -0.03370629 0.025907747
0.0471794 -0.044477254 0.0056778076 0.045450874 -0.031678624 0.036894992 0.024499217 -0.013857196
-0.049275093 0.014073284 -0.012327936 -0.052308463 -0.04376499 -0.014227754 0.025068212 0.03046316
0.06560603 0.05050521 -0.026905373 0.07363078 0.019269211 0.015218132 0.01058304 0.053432386
0.0115915965 -0.0064795176 -0.03126843 0.028276024 0.025735702 0.049160097 0.010622115 -0.015198558
-0.04928241 -0.019033242 -0.025660476 -0.015401406 0.04602068 -0.0015656102 -0.048887495 -0.0053721685
-0.048120588 -0.038864538 0.06891788 0.047514655 0.038831245 -0.015407864 0.059964564 0.02642407
-0.024092915 0.0480321 0.03415471 -0.04789919 0.07874231 -0.0046668705 0.046009153 -0.041629177
0.011640779 -0.022971496 -0.030188551 -0.026037633 -0.01637276 0.066091 0.0060555586 0.034205806
0.026299946 0.008218988 0.033817854 -0.05046063 -0.0060644974 -0.007392978 -0.041482136 0.025959082
0.011935365 -0.051972978 -0.055753443 -0.050474398 -0.009412128 0.024823757 -0.05412534 -0.017942736
0.0078068627 -0.012338958 -0.012562054 0.03549536 -0.009720018 0.015573803 0.006321034 -0.037767384
0.010292674 0.023393383 0.067491174 -0.0074775154 -0.02860743 0.023635138 0.042661685 0.021872735
-0.01097636 0.01807417 -0.045962933 0.0005167764 0.041704487 0.04403948 0.016286558 0.02693318
0.034482975 -0.0077447356 0.051535584 0.05309664 0.031129612 -0.03686924 0.019732485 -0.04407599
0.042741552 0.009752087 0.027908567 -0.013204013 0.035006426 -0.024787076 0.04237085 0.046221245
-0.05222304 0.060573578 0.0064294194 -0.06153099 0.009128243 -0.01732806 0.0680529 -0.0068343133
0.04268641 0.043708164 0.02012961 -0.04259092 -0.0077708545 -0.01933803 -0.029099822 0.036052715
0.016326986 0.03386353 0.037510023 0.029491322 -0.014522499 0.06788182 0.05978848 -0.025814995
0.032746423 -0.052706208 0.013186968 0.00094383286 -0.05367831 -0.05650647 0.019685352 0.052697968
-0.078808755 0.034104973 0.0065039424 0.0345805 0.016594037 0.027713962 -0.057821088 -0.0176702
0.041480523 -0.021947922 0.009379218 0.0417379 -0.057015534 0.029421153 -0.05560431 -0.025270626
-0.019841587 -0.037313957 -0.02024175 -0.0030760262 0.019544236 0.046671495 0.025998937 0.031589862
0.029993495 -0.03448364 0.015172118 -0.034333926 -0.032666232 0.0014993761 0.0025496227 -0.0464681
-0.045623407 -0.036302157 -0.029821558 -0.021834496 -0.059260946 0.022912601 -0.03689813 0.042594418
0.01585884 -0.016095402 0.024406288 -0.014948547 -0.044798046 0.038061313 -0.026212554 0.05628898
-0.0135962255 0.099389166 0.028447073 0.035728853 -0.032164294 -0.060032953 -0.020185495 0.015574887
-0.023990298 0.05056386 0.014200055 0.048315935 0.05537503 0.010783378 -0.0054775295 -0.050111547
0.05960222 0.06264856 -0.010251765 0.0780155 -0.04236953 -0.009314208 0.00041899757 -0.055916317
00000000: 04dc 213d a811 15bc de93 fb3c 8d03 6d3d
00000010: 7490 8ebc 9ffe edbc 6d63 ba3c d272 02bc
00000020: 1bd3 cb3a bd44 d9bc 1b3e 5dbd 8280 00bd
00000030: 71e3 193d 9414 ea3c d967 5abd 4b96 2c3d
00000040: 178b 2dbc 3526 7e3c 8788 73bc 9a74 27bd
00000050: 5f2e 34bd 4d0f 8abc 50f2 debc b1d6 12bd
00000060: 9556 913c 61a1 6abd 32f9 083d aa44 353d
00000070: f7e2 66bd c2b3 9dbd 9b0f 0abd 7c3c d43c
00000080: 303f 413d c82d 36bd e70c ba3b b22a 3a3d
00000090: 72c1 01bd 341f 173d 95b2 c83c 4b09 63bc
000000a0: aed4 49bd a293 663c 1cfb 49bc 6641 56bd
000000b0: eb42 33bd 871b 69bc da5b cd3c e08d f93c
000000c0: 745c 863d 8dde 4e3d a868 dcbc bccb 963d
000000d0: 77da 9d3c 7955 793c 7d64 2d3c ebdb 5a3d
000000e0: aeea 3d3c 2252 d4bb 5313 00bd 1fa3 e73c
000000f0: aed3 d23c 195c 493d 6108 2e3c 5f03 79bc
00000100: 5adc 49bd 9aeb 9bbc eb35 d2bc 2e56 7cbc
00000110: 2e80 3c3d 2935 cdba 413e 48bd 0409 b0bb
00000120: 181a 45bd 6c30 1fbd d124 8d3d ba9e 423d
00000130: 830d 1f3d 4471 7cbc 679d 753d 4b77 d83c
00000140: 815e c5bc 4fbd 443d cfe5 0b3d f131 44bd
00000150: a643 a13d 8cec 98bb 1874 3c3d 5b83 2abd
00000160: f7b8 3e3c b82e bcbc fb4d f7bc e04c d5bc
00000170: 2b20 86bc b85a 873d b56d c63b 631b 0c3d
00000180: fc72 d73c efa8 063c 9784 0a3d ceaf 4ebd
00000190: b1b8 c6bb cb40 f2bb 2ce9 29bd 24a8 d43c
000001a0: 8d8c 433c 9ee1 54bd b95d 64bd 3ebe 4ebd
000001b0: 5335 1abc 315b cb3c 88b2 5dbd a5fc 92bc
000001c0: b6d0 ff3b 5729 4abc 13d1 4dbc 9563 113d
000001d0: b640 1fbc 4429 7f3c ad20 cf3b f9b1 1abd
000001e0: 9ba2 283c 7ba3 bf3c d038 8a3d f205 f5bb
000001f0: 215a eabc 7a9e c13c 05be 2e3d 732e b33c
00000200: 31d6 33bc 4810 943c a143 3cbd 4778 073a
00000210: 53d2 2a3d be62 343d 636b 853c f9a2 dc3c
00000220: 053e 0d3d 8dc7 fdbb fa16 533d dd7b 593d
00000230: 8703 ff3c 3304 17bd 05a6 a13c 0689 34bd
00000240: c411 2f3d 38c7 1f3c 82a0 e43c a555 58bc
00000250: e662 0f3d 440e cbbc 0e8d 2d3d 7d52 3d3d
00000260: d4e7 55bd 001c 783d e1ad d23b eb07 7cbd
00000270: a08e 153c 93f3 8dbc 525f 8b3d 60f2 dfbb
00000280: f2d7 2e3d 5507 333d dae6 a43c d173 2ebd
00000290: a7a2 febb ca6a 9ebc c062 eebc 03ac 133d
000002a0: 2cc0 853c 7cb4 0a3d 1ca4 193d c997 f13c
000002b0: c7ef 6dbc a005 8b3d c4e4 743d f879 d3bc
000002c0: 1d21 063d 77e2 57bd 270e 583c 8d6b 773a
000002d0: cadd 5bbd 5473 67bd 2d43 a13c d3d9 573d
000002e0: 7c66 a1bd a8b1 0b3d 061f d53b 48a4 0d3d
000002f0: 38f0 873c 6408 e33c ced5 6cbd 18c1 90bc
00000300: 7be7 293d 21cc b3bc 4bab 193c 5cf5 2a3d
00000310: 1f89 69bd a104 f13c 58c1 63bd 5804 cfbc
00000320: d38a a2bc 85d6 18bd 07d2 a5bc 2897 49bb
00000330: 3c1b a03c 9c2a 3f3d b9fb d43c 5f64 013d
00000340: ebb4 f53c b83e 0dbd 7a94 783c bba1 0cbd
00000350: 07cd 05bd b786 c43a 9217 273b 5655 3ebd
00000360: 9cdf 3abd 92b1 14bd 574c f4bc 42de b2bc
00000370: 9bbb 72bd 35b3 bb3c 7e22 17bd 7c77 2e3d
00000380: 66ea 813c 81da 83bc b2ef c73c c0ea 74bc
00000390: 287e 37bd 2ee6 1b3d b6bb d6bc 468f 663d
000003a0: b4c2 5ebc 8c8c cb3d d609 e93c 6b58 123d
000003b0: b5be 03bd 1de5 75bd 0d5c a5bc d02d 7f3c
000003c0: 4d87 c4bc 0d1c 4f3d 59a7 683c eee6 453d
000003d0: edd0 623d c4ac 303c d97c b3bb c441 4dbd
000003e0: 7521 743d e34d 803d 05f7 27bc 97c6 9f3d
000003f0: ac8b 2dbd 9f9a 18bc e7ac db39 8208 65bd

advantage.2.bias f4 [2]
-0.02241209 0.022091027
00000000: 8f99 b7bc 3ef8 b43c
