result/low_level/ETHUSDT/best_model/slope/3/best_model.pkl (torch, 187425 bytes, 14 tensors)

fc1.weight f4 [64, 36]
0.17102922 0.16451164 0.108099885 -0.023486007 -0.12939799 -0.08247544 -0.019694716 0.037944283
-0.0176626 -0.072785296 -0.025665574 0.071945086 0.10568299 0.03091905 -0.058790494 0.049814187
0.07490751 0.09286569 -0.113898985 0.054562192 -0.040760994 -0.005936638 -0.1714818 0.08283105
-0.15306465 0.0056439326 -0.11888383 -0.021988844 -0.10929336 0.18563338 -0.24693319 0.058517773
-0.13732211 -0.08049808 0.025564844 0.04163593 0.17334203 -0.09058793 -0.10875289 0.0834832
0.039700855 -0.020828532 0.1566194 -0.10154147 0.07195191 -0.17724515 -0.16411969 0.10806358
-0.0041132052 -0.06575629 0.15736586 -0.06789571 0.018327864 0.01476302 0.030402424 0.07549744
-0.017906466 0.09125902 0.0409359 -0.17502454 0.082868084 -0.036571536 0.088938 0.24669738
-0.058729764 -0.010579407 -0.03576269 -0.060537957 0.031023946 0.026023932 0.11959142 0.0886981
0.053547863 0.040653143 -0.08283356 0.085063145 -0.10041977 0.08859415 -0.008705053 -0.12548338
-0.09778475 0.02446443 -0.14910698 -0.17684495 -0.077364154 -0.13233069 0.05524204 -0.07602646
-0.15390617 -0.069400094 0.05524924 -0.008122635 0.07302135 -0.0028751623 -0.025316037 0.016295351
-0.0118314875 -0.046713866 -0.03062301 0.11778437 -0.13062462 -0.13760358 0.2161769 -0.19735284
0.0974142 -0.026290923 0.017002841 0.06914352 -0.13052084 0.13130881 -0.08001503 -0.15473178
-0.033981234 0.17139813 0.11523265 -0.06296524 -0.012636739 -0.05577783 -0.10334782 0.041117195
-0.06977324 0.25912493 0.17908487 0.21850975 0.018743884 0.18384062 -0.23978545 -0.07146653
-0.09388144 0.078019276 -0.016078675 0.06271002 0.2087075 0.297781 0.25103697 0.13426463
-0.12272694 0.032697286 -0.006496187 0.1518056 -0.06324127 0.061010327 0.11843466 -0.12639095
-0.19391245 0.1460244 0.16482913 0.1658442 -0.09525672 -0.016282117 0.027834453 0.0014213908
0.16694097 0.10812821 0.2496752 0.003257111 0.031492766 0.22398806 0.100951634 0.045945924
-0.19169061 -0.058238357 0.07660463 -0.03105636 0.068061516 0.09086986 0.1671805 0.08836368
0.008452444 0.068662085 0.20457935 -0.122625634 0.07900394 0.09249835 0.2127173 -0.11654269
0.22978649 0.1251363 -0.12113671 0.076444805 0.09537798 0.045767646 -0.05094989 -0.10024484
-0.11712606 -0.14662908 -0.15102397 0.082986966 -0.07998856 -0.19378723 -0.12728888 -0.14555743
-0.15815067 -0.16765308 -0.123402886 -0.014654491 0.1264516 0.120979145 0.1581525 -0.066402026
-0.10286175 -0.038254995 -0.0032506504 0.025327152 0.036080103 -0.060347456 -0.109802045 -0.0870637
-0.03202395 0.049608313 -0.18717101 -0.2808367 -0.060069725 0.030228527 -0.07998694 -0.068194136
0.08419424 -0.1177668 0.073872164 -0.15794986 -0.1911706 -0.009010213 -0.046952292 0.087925084
-0.033468153 0.095395766 -0.19580467 -0.06728314 -0.010209174 -0.15669207 -0.07712988 0.025842048
0.17518377 -0.07674994 -0.012207543 -0.029468156 0.03826731 -0.026307484 -0.06359782 0.024843302
-0.10918881 0.13866115 -0.14842671 -0.09278245 -0.16363673 -0.022721043 -0.09353727 0.22439791
-0.09884699 -0.19459257 -0.17025754 -0.12686703 -0.03916001 0.108391725 -0.03812516 -0.11396107
00000000: 4922 2f3e bd75 283e 7963 dd3d ba65 c0bc
00000010: e880 04be e2e8 a8bd d056 a1bc 776b 1b3d
00000020: 28b1 90bc 7510 95bd 9c40 d2bc f257 933d
00000030: 5370 d83d f349 fd3c 4dce 70bd f609 4c3d
00000040: 1c69 993d 5e30 be3d df43 e9bd 9b7c 5f3d
00000050: 00f5 26bd 2188 c2bb ed98 2fbe 53a3 a93d
00000060: fbbc 1cbe bdf0 b83b 5e79 f3bd f321 b4bc
00000070: 32d5 dfbd ad16 3e3e 0edc 7cbe 55b0 6f3d
00000080: 2b9e 0cbe 2ddc a4bd 5d6d d13c 708a 2a3d
00000090: 9380 313e 2a86 b9bd d6b9 debd 3df9 aa3d
000000a0: 5d9d 223d 99a0 aabc d660 203e f9f4 cfbd
000000b0: 865b 933d c17f 35be fe0e 28be 7050 dd3d
000000c0: 11c8 86bb 3cab 86bd 8424 213e e80c 8bbd
000000d0: 5124 963c 98e0 713c 810e f93c 679e 9a3d
000000e0: 95b0 92bc 02e6 ba3d 67ac 273d a239 33be
000000f0: beb6 a93d 09cc 15bd 2025 b63d 3d9e 7c3e
00000100: 9f8e 70bd 4055 2dbc e67b 12bd a6f6 77bd
00000110: ee25 fe3c 2430 d53c 59ec f43d 59a7 b53d
00000120: 0155 5b3d e983 263d a4a4 a9bd 9635 ae3d
00000130: e1a8 cdbd da70 b53d a39f 0ebc b77e 00be
00000140: 5f43 c8bd a169 c83c 80af 18be d816 35be
00000150: 1971 9ebd b281 07be 7a45 623d c3b3 9bbd
00000160: 9499 1dbe a321 8ebd 074d 623d cd14 05bc
00000170: 388c 953d 386d 3cbb 9463 cfbc d47d 853c
00000180: dbd8 41bc 0a57 3fbd 1bdd fabc ef38 f13d
00000190: 76c2 05be f4e7 0cbe 7a5d 5d3e dd16 4abe
000001a0: 1981 c73d 1060 d7bc 8b49 8b3c 1e9b 8d3d
000001b0: 41a7 05be d175 063e ecde a3bd 0272 1ebe
000001c0: e82f 0bbd fe82 2f3e 18ff eb3d ebf3 80bd
000001d0: 530a 4fbc 4b77 64bd 06a8 d3bd 816a 283d
000001e0: 46e5 8ebd 06ac 843e 0662 373e 05c1 5f3e
000001f0: c68c 993c b740 3c3e 518a 75be 0b5d 92bd
00000200: ea44 c0bd 92c8 9f3d 6db7 83bc 1c6e 803d
00000210: 6bb7 553e c076 983e eb87 803e ab7c 093e
00000220: 4358 fbbd 97ed 053d f7dd d4bb ed72 1b3e
00000230: a484 81bd f7e5 793d df8d f23d a16c 01be
00000240: fc90 46be 6c87 153e f8c8 283e 10d3 293e
00000250: f515 c3bd 1362 85bc 1405 e43c f64d ba3a
00000260: 93f2 2a3e 5372 dd3d dbaa 7f3e 4175 553b
00000270: 8ffe 003d 205d 653e bbbf ce3d cb31 3c3d
00000280: 8b4a 44be 588b 6ebd e3e2 9c3d e869 febc
00000290: d663 8b3d fa19 ba3d 5d31 2b3e 04f8 b43d
000002a0: 1f7c 0a3c b59e 8c3d 407d 513e 2623 fbbd
000002b0: d1cc a13d c66f bd3d 90d2 593e efad eebd
000002c0: 264d 6b3e bb23 003e 8616 f8bd 188f 9c3d
000002d0: 8855 c33d db76 3b3d d5b0 50bd 2b4d cdbd
000002e0: cadf efbd ef25 16be 07a6 1abe 12f5 a93d
000002f0: 0bd1 a3bd 2970 46be 0458 02be 020d 15be
00000300: 40f2 21be 40ad 2bbe a7ba fcbd 6419 70bc
00000310: 877c 013e eac3 f73d bbf2 213e c9fd 87bd
00000320: 2ea9 d2bd 45b1 1cbd dd08 55bb e37a cf3c
00000330: bbc8 133d e52e 77bd e5df e0bd 744e b2bd
00000340: 8c2b 03bd 1632 4b3d c2a9 3fbe d4c9 8fbe
00000350: ac0b 76bd d1a1 f73c 31d0 a3bd 5ea9 8bbd
00000360: 086e ac3d b82f f1bd 4a4a 973d 9cbd 21be
00000370: 3ac2 43be 939f 13bc 0c51 40bd 1112 b43d
00000380: e715 09bd db5e c33d 0581 48be becb 89bd
00000390: 6144 27bc e373 20be 45f6 9dbd b4b2 d33c
000003a0: 6063 333e 132f 9dbd 2502 48bc 3467 f1bc
000003b0: 2fbe 1c3d cb82 d7bc 933f 82bd 2e84 cb3c
000003c0: 629e dfbd 30fd 0d3e 2cfd 17be ba04 bebd
000003d0: 6390 27be 7b21 babc 7890 bfbd 91c8 653e
000003e0: 4a70 cabd 4643 47be fe57 2ebe 6ee9 01be
000003f0: 3f66 20bd 7bfc dd3d 2129 1cbd 6c64 e9bd

fc1.bias f4 [64]
0.016915234 -0.12755707 -0.15517953 0.008316501 0.10968448 0.040038366 -0.10815204 -0.21533225
-0.08834977 0.06987852 0.05383086 -0.09157935 0.13321927 -0.17173502 -0.13207752 0.014176738
-0.048159968 0.056098394 -0.1315593 -0.10450356 -0.13559046 0.10722461 -0.18809699 0.075312234
-0.13112769 -0.028969467 0.05819009 0.097442254 0.0772696 -0.05659368 -0.10526989 0.06356011
-0.09922454 -0.107939586 0.19421515 -0.050464492 -0.093070984 -0.056282673 -0.07001998 -0.08844182
-0.0058991686 0.13452922 0.06586944 -0.14828777 -0.13419262 0.030962056 0.15312153 -0.11295887
-0.13645948 -0.113910876 0.11261728 -0.20523116 0.13329142 0.016174028 0.14268272 0.06401406
-0.24270377 0.06914656 -0.05418314 0.0030700415 0.118019775 0.13305075 -0.22394969 -0.07459043
00000000: d191 8a3c 529e 02be 62e7 1ebe ef41 083c
00000010: 42a2 e03d 45ff 233d d17e ddbd 0f80 5cbe
00000020: b9f0 b4bd 781c 8f3d bf7d 5c3d f48d bbbd
00000030: a26a 083e 4edb 2fbe 543f 07be 8d45 683c
00000040: 6343 45bd 6ec7 653d 7bb7 06be f605 d6bd
00000050: 3ad8 0abe 9498 db3d 7f9c 40be 4d3d 9a3d
00000060: 5646 06be 6051 edbc bb58 6e3d ce8f c73d
00000070: 863f 9e3d c6ce 67bd bd97 d7bd ce2b 823d
00000080: 3c36 cbbd 6e0f ddbd 56e0 463e dbb3 4ebd
00000090: 009c bebd a988 66bd a366 8fbd fc20 b5bd
000000a0: d04d c1bb 07c2 093e 8fe6 863d c0d8 17be
000000b0: ca69 09be 23a4 fd3c e4cb 1c3e fb56 e7bd
000000c0: 09bc 0bbe 1b4a e9bd e3a3 e63d 1e28 52be
000000d0: 8c7d 083e 657f 843c 6b1b 123e ce19 833d
000000e0: 5687 78be b69c 8d3d 24ef 5dbd c032 493b
000000f0: 5ab4 f13d 753e 083e 1153 65be dec2 98bd

fc2.weight f4 [64, 9]
-0.09791127 0.14658488 0.049933415 -0.30145866 -0.24827072 -0.27566442 -0.059619423 -0.037101127
0.2706148 -0.10623839 -0.15091984 0.26612177 0.22412518 0.11422874 -0.065444246 -0.15938464
-0.113208264 0.0299321 -0.10395988 0.11664854 0.05130846 0.5252426 0.18797441 0.01889778
0.077371255 -0.05781884 0.29977223 0.06743615 0.12982525 -0.18260852 0.36724675 -0.2997401
0.0019444218 0.2845215 0.08569109 0.24328394 -0.24108809 0.35549104 0.39713266 0.37480614
0.23548453 -0.26946002 0.35896507 -0.18196775 -0.35818166 0.21484074 -0.33038327 -0.19914581
0.064919546 -0.17551133 -0.25540996 0.054719944 0.172047 -0.33605132 -0.10929537 0.21460448
-0.157082 -0.3155489 0.019769209 -0.15085556 0.05132589 -0.23962836 -0.035549946 0.2600802
0.012663546 -0.10365501 -0.18673809 -0.18071394 -0.32012746 -0.11853459 0.32034817 -0.07699279
0.15702464 0.26723212 -0.06551524 -0.2632225 -0.13644569 0.18495357 0.33940598 0.34706616
0.18846326 0.12099067 0.11794031 0.23951232 -0.1207855 -0.23979817 0.18941742 0.008054451
0.17757829 -0.04990809 -0.19403574 -0.30024216 -0.12410005 -0.23192544 -0.23566987 -0.041192316
0.32328895 -0.100911595 -0.31444913 -0.2004817 -0.32061824 0.057243753 0.2982594 -0.029409949
0.096151106 0.07725484 -0.23714617 0.21967584 -0.20670477 -0.29795676 0.3420711 0.29928285
0.112793945 0.019471675 -0.19973226 0.2492516 -0.26706013 -0.28546125 0.31604356 0.35948697
0.027872788 -0.19579497 0.012612386 0.123017 -0.07045406 0.09698127 -0.16280432 -0.17725326
-0.17996842 0.0031761217 -0.025642382 -0.017269777 -0.20222296 -0.12538132 0.010660408 -0.06712846
0.056356627 -0.35488266 -0.41507727 0.28726223 0.12228095 -0.16700365 -0.096675605 0.27429524
0.12199236 -0.18179762 0.15728438 0.06278318 0.10014868 -0.17441384 -0.097375736 -0.21450073
-0.21066485 0.18035986 0.27696225 0.014280315 -0.009745281 0.13745688 0.32867178 -0.20317002
-0.23539783 -0.26061884 -0.22050413 0.058060613 -0.20106848 -0.42907485 0.15142615 0.32219875
-0.24853782 0.314437 -0.19342975 -0.17143072 0.3838811 0.44524816 0.3167013 0.17629886
0.13493565 0.32333726 -0.37764594 0.241507 -0.090518 0.31153247 0.116035335 -0.30150723
0.26812038 -0.064065315 -0.10913142 0.14042412 0.018885057 -0.17498788 0.16990249 -0.47122294
0.08183975 0.12214521 -0.12189099 0.08811904 -0.08783107 0.30895758 0.24553062 -0.33704272
-0.2388968 0.008213092 0.2899806 0.07557731 -0.14665486 0.2737787 -0.10678454 0.31112966
0.17137414 -0.19288282 0.22182648 -0.17601015 0.21292791 0.32852057 -0.25031874 -0.043822948
-0.19605805 0.165398 0.12336852 0.14742495 0.3050717 0.0068728444 0.14129063 0.28073278
0.017032044 -0.07045599 0.097829595 -0.033136334 0.018844392 0.1266707 -0.099062644 0.3554815
0.0782018 -0.23350602 0.17771292 -0.29100567 0.09302868 -0.37137234 -0.11290839 -0.014509385
0.001183806 -0.15917891 -0.03946333 0.36390644 -0.004169799 0.15811738 -0.12819019 0.18205474
-0.077539615 0.21772274 -0.09034621 -0.15252437 0.23681846 0.2735001 0.2961971 0.08197814
00000000: b485 c8bd 591a 163e fb86 4c3d ca58 9abe
00000010: ae3a 7ebe e323 8dbe 7f33 74bd 5af7 17bd
00000020: 068e 8a3e 8393 d9bd bb8a 1abe 1d41 883e
00000030: 1281 653e c2f0 e93d a207 86bd ba35 23be
00000040: bcd9 e7bd 2a34 f53c ebe8 d4bd 6ee5 ee3d
00000050: d228 523d 4d76 063f 5d7c 403e 84cf 9a3c
00000060: d274 9e3d 73d3 6cbd bf7b 993e f71b 8a3d
00000070: e9f0 043e bafd 3abe c407 bc3e 8977 99be
00000080: f8db fe3a cdac 913e cf7e af3d 6d1f 793e
00000090: ccdf 76be ec02 b63e f954 cb3e 97e6 bf3e
000000a0: db22 713e aaf6 89be 45ca b73e c155 3abe
000000b0: 9663 b7be 36ff 5b3e ff27 a9be e1ec 4bbe
000000c0: 8af4 843d 3eb9 33be 18c5 82be 0522 603d
000000d0: 172d 303e eb0e acbe 40d6 dfbd 47c1 5b3e
000000e0: 1bda 20be a08f a1be 09f3 a13c e179 1abe
000000f0: 193b 523d 2361 75be d29c 11bd 3b29 853e
00000100: c37a 4f3c 1449 d4bd 4538 3fbe 130d 39be
00000110: bfe7 a3be 43c2 f2bd ad04 a43e 65ae 9dbd
00000120: 11cb 203e a6d2 883e db2c 86bd 19c5 86be
00000130: 6bb8 0bbe 7864 3d3e 9fc6 ad3e a8b2 b13e
00000140: 83fc 403e f5c9 f73d b08a f13d b842 753e
00000150: 635e f7bd a78d 75be a4f6 413e d1f6 033c
00000160: 15d7 353e 6d6c 4cbd 4eb1 46be 57b9 99be
00000170: 2b28 febd dd7d 6dbe 7153 71be 46b9 28bd
00000180: 2186 a53e bdaa cebd 7aff a0be 134b 4dbe
00000190: 1328 a4be 6d78 6a3d 75b5 983e 22ed f0bc
000001a0: dfea c43d c937 9e3d 72d6 72be b4f2 603e
000001b0: 6aaa 53be ca8d 98be f123 af3e 9a3b 993e
000001c0: 8300 e73d 1083 9f3c 9d86 4cbe d03b 7f3e
000001d0: 1bbc 88be fa27 92be 76d0 a13e ad0e b83e
000001e0: 7955 e43c 7a7e 48be 2ea4 4e3c 56f0 fb3d
000001f0: 384a 90bd 1e9e c63d 2db6 26be e181 35be
00000200: a449 38be 7b26 503b f90f d2bc 5979 8dbc
00000210: 8913 4fbe f663 00be fea8 2e3c a57a 89bd
00000220: 35d6 663d 2eb3 b5be 0285 d4be 0914 933e
00000230: 6f6e fa3d 0103 2bbe dcfd c5bd 6d70 8c3e
00000240: 21d7 f93d 2829 3abe 280f 213e 7894 803d
00000250: c01a cd3d 8b99 32be ee6c c7bd 14a6 5bbe
00000260: 87b8 57be 41b0 383e ffcd 8d3e fbf7 693c
00000270: acaa 1fbc 7fc1 0c3e ab47 a83e cd0b 50be
00000280: 210c 71be d56f 85be d6cb 61be f7d0 6d3d
00000290: e5e4 4dbe b3af dbbe 750f 1b3e 3cf7 a43e
000002a0: b380 7ebe e3fd a03e 7312 46be 898b 2fbe
000002b0: 108c c43e 91f7 e33e ac26 a23e b087 343e
000002c0: 922c 0a3e 768c a53e cf5a c1be 9c4d 773e
000002d0: 8061 b9bd 2f81 9f3e efa3 ed3d 285f 9abe
000002e0: 1347 893e ad34 83bd 4b80 dfbd 57cb 0f3e
000002f0: d6b4 9a3c 0630 33be ebfa 2d3e 2244 f1be
00000300: 999b a73d 4527 fa3d fca1 f9bd c177 b43d
00000310: c7e0 b3bd b02f 9e3e 616c 7b3e dd90 acbe
00000320: 5da1 74be 3490 063c 5678 943e 47c8 9a3d
00000330: b12c 16be b92c 8c3e dab1 dabd 634c 9f3e
00000340: b47c 2f3e 1383 45be 7b26 633e 013c 34be
00000350: c609 5a3e d933 a83e c729 80be b17f 33bd
00000360: 71c3 48be 185e 293e a2a8 fc3d 91f6 163e
00000370: 5c32 9c3e 9935 e13b 7eae 103e 35bc 8f3e
00000380: c986 8b3c 3b4b 90bd e25a c83d f7b9 07bd
00000390: 8e5f 9a3c f7b5 013e 5be1 cabd ac01 b63e
000003a0: 4428 a03d 341c 6fbe 60fa 353e b2fe 94be
000003b0: d285 be3d 8424 bebe 843c e7bd c6b8 6dbc
000003c0: f029 9b3a ccff 22be 4da4 21bd f251 ba3e
000003d0: cfa2 88bb 86e9 213e 4a44 03be 8f6c 3a3e
000003e0: 17cd 9ebd b6f2 5e3e 6f07 b9bd 592f 1cbe
000003f0: 8a80 723e 3508 8c3e 25a7 973e 28e4 a73d

fc2.bias f4 [64]
0.2461533 0.3346213 -0.24596502 0.19694588 0.1395083 0.24319603 -0.2899265 0.3200265
0.071359396 -0.07344236 0.099546626 -0.15227482 0.26469058 -0.25848797 0.13700873 0.22809763
0.07140144 0.07197401 -0.20233707 0.061539445 0.11714308 0.3094116 -0.1987446 0.2820361
-0.20426068 0.14728959 0.16105719 0.060546424 0.0581423 -0.14892139 0.3056365 -0.31834525
0.33500755 0.21163191 -0.2785376 -0.1652369 -0.18810117 0.209567 0.17428128 0.16839096
0.26637787 -0.051216595 0.197756 0.27065417 0.021884782 0.04973544 0.3262703 -0.17398772
-0.086391844 -0.3369597 0.24893188 -0.2555722 0.057320166 -0.14969109 -0.12217803 0.048120875
0.24437489 0.010258103 -0.029027512 0.279235 0.24086285 0.031632494 -0.22157627 -0.063323535
00000000: 9c0f 7c3e 7c53 ab3e 41de 7bbe 2eac 493e
00000010: 44db 0e3e 6108 793e 3f71 94be 83da a33e
00000020: e024 923d f368 96bd 1adf cb3d eeed 1bbe
00000030: 8685 873e 8958 84be 044c 0c3e 6d92 693e
00000040: eb3a 923d 1c67 933d 7331 4fbe c910 7c3d
00000050: b6e8 ef3d 326b 9e3e b483 4bbe 0967 903e
00000060: b629 51be 15d3 163e 2dec 243e 87ff 773d
00000070: 9f26 6e3d d97e 18be 637c 9c3e 26fe a2be
00000080: 1c86 ab3e 09b6 583e 7b9c 8ebe dd33 29be
00000090: 989d 40be bb98 563e cb76 323e ae6e 2c3e
000000a0: ae62 883e 7ec8 51bd 8d80 4a3e 2f93 8a3e
000000b0: b747 b33c 64b7 4b3d e70c a73e d629 32be
000000c0: 35ee b0bd fb85 acbe 00e8 7e3e 5cda 82be
000000d0: 8dc8 6a3d 9f48 19be 7a38 fabd 651a 453d
000000e0: 693d 7a3e 9a11 283c 1bcb edbc e4f7 8e3e
000000f0: c0a4 763e 1391 013d e4e4 62be c5af 81bd

embedding.weight f4 [2, 64]
-0.9208094 -1.33381 2.2737958 1.363308 1.215719 -0.6839448 1.2493008 -0.08651546
-0.51475954 -2.7017677 -0.12558305 0.5981256 0.68212354 1.0195731 2.3762195 -1.3757024
-0.93557763 -0.5558414 1.249991 -0.5934773 -1.2407302 0.5743155 0.40812662 -0.9684544
1.5400712 1.1908991 -0.6426301 -0.39469194 -0.19932868 1.0847633 0.047515374 0.52185225
-0.24480975 -0.7338843 1.9753582 -1.2447373 -2.1393929 1.3583204 -2.028122 0.011159214
-1.9663265 -1.2476732 0.77136034 0.1755113 -0.5561753 -0.29377875 1.0639157 0.4417077
-0.4190049 0.44787297 -1.6474546 0.3606577 -2.068716 -1.3122752 1.2289876 0.20523274
0.42211565 -1.5297613 -0.8600597 -0.061123867 -0.18204695 -2.4108124 -2.0688386 1.6238984
-0.459254 1.071279 -1.1636949 -1.6116923 -0.8157738 -0.65788645 0.8506852 -1.0075544
-0.16114822 0.8948934 -2.5635219 -2.0287173 0.5944219 1.2994555 -0.12499088 -0.28539672
0.2105513 -0.26737174 0.65235054 -1.646916 -0.22536445 -0.7496586 0.7347516 1.1314778
-0.12828685 1.6306043 -0.27411607 -0.25831708 -0.15411332 1.869826 1.7166386 0.1975617
0.07017515 -1.9396544 0.6936999 0.37121174 0.16605724 0.21357949 -0.2504329 0.44053587
-0.40424928 0.90519536 1.3484931 1.019344 1.480347 0.37748972 1.2426598 0.7780009
-1.8768358 -0.46793827 2.0879502 -2.551929 -1.8915358 1.8596485 -0.4428276 0.393433
0.8687406 0.7174207 -0.6297941 -0.4563139 -1.3057164 -1.0351604 1.6346006 0.096022725
00000000: 2aba 6bbf 49ba aabf df85 1140 e080 ae3f
00000010: ae9c 9b3f 0217 2fbf 17e9 9f3f 042f b1bd
00000020: 48c7 03bf c3e9 2cc0 d898 00be c21e 193f
00000030: a69f 2e3f 5f81 823f fb13 1840 0417 b0bf
00000040: 0482 6fbf 9f4b 0ebf b5ff 9f3f 21ee 17bf
00000050: 3fd0 9ebf 5706 133f f9f5 d03e a1ec 77bf
00000060: 0e21 c53f 626f 983f 6883 24bf 1015 cabe
00000070: d11c 4cbe 86d9 8a3f 7b9f 423d 1c98 053f
00000080: 68af 7abe d7df 3bbf 8ad8 fc3f 8d53 9fbf
00000090: d0eb 08c0 71dd ad3f c0cc 01c0 23d5 363c
000000a0: 96b0 fbbf c1b3 9fbf df77 453f 3cb9 333e
000000b0: 8161 0ebf 2b6a 96be 642e 883f 8327 e23e
000000c0: cf87 d6be 9b4f e53e cbdf d2bf 20a8 b83e
000000d0: d865 04c0 a2f8 a7bf 774f 9d3f 8828 523e
000000e0: 8b1f d83e 38cf c3bf df2c 5cbf 055d 7abd
000000f0: 846a 3abe c04a 1ac0 da67 04c0 e7db cf3f
00000100: 5723 ebbe ac1f 893f f4f3 94bf ef4b cebf
00000110: 8dd6 50bf 3f6b 28bf 81c6 593f 8bf7 80bf
00000120: 0a04 25be bc17 653f be10 24c0 81d6 01c0
00000130: 092c 183f 8f54 a63f 38fb ffbd 851f 92be
00000140: c39a 573e f3e4 88be 7200 273f 25ce d2bf
00000150: f0c5 66be a0e9 3fbf ae18 3c3f 44d4 903f
00000160: a15d 03be a4b7 d03f f158 8cbe 2342 84be
00000170: e2cf 1dbe 7556 ef3f d0ba db3f 9d4d 4a3e
00000180: fdb7 8f3d 9846 f8bf 5196 313f 770f be3e
00000190: e90a 2a3e 95b4 5a3e be38 80be eb8d e13e
000001a0: c3f9 cebe e2ba 673f 6c9b ac3f dd79 823f
000001b0: 037c bd3f 5546 c13e 7a0f 9f3f 112b 473f
000001c0: 283c f0bf 9b95 efbe faa0 0540 ce52 23c0
000001d0: d81d f2bf f608 ee3f 4dba e2be 0d70 c93e
000001e0: c965 5e3f e2a8 373f 303a 21bf faa1 e9be
000001f0: b721 a7bf 2380 84bf 983a d13f 90a7 c43d

adaLN_modulation.1.weight f4 [128, 64]
0.04922221 0.10971229 -0.08753317 -0.018619416 -0.07652034 0.096284136 0.083208874 0.08053615
0.04591366 -0.097237505 0.102878846 0.032074187 -0.062441573 0.038468376 -0.120107345 0.10927624
0.014818996 0.0034528475 0.12390194 0.018761031 0.06563636 -0.07158895 -0.030817388 0.028900934
-0.10138195 -0.037006184 0.09131431 0.07237413 0.11671361 -0.00028423258 0.04983988 0.09252042
-0.10352967 0.03388436 -0.029848406 -0.032779414 0.08451798 -0.05196915 -0.0372906 -0.075581364
-0.050639994 -0.03789741 0.09923666 0.055161454 0.046842333 -0.009026657 0.004848694 -0.06124236
-0.001910966 0.0606312 -0.063280575 0.027965534 -0.014806553 0.052705728 -0.005927325 -0.026202587
0.007548902 0.026812539 0.025194092 -0.10733219 -0.05553474 -0.08239167 -0.10658961 0.03379059
0.08998991 0.10286479 -0.05000185 -0.12985295 -0.050703563 0.09385814 -0.04122441 0.088553086
0.08655437 -0.10430776 -0.06802346 -0.0135849565 0.10720282 -0.10441135 -0.08675917 0.060928814
0.09436919 0.015797876 -0.0318863 0.073649526 0.018767672 -0.15712593 0.009438612 -0.13496335
0.052103538 -0.06277979 -0.0951668 0.050942946 0.08237911 0.017812848 0.017498858 0.09433836
0.07773182 -0.07247076 -0.052018724 -0.099763915 0.0070587383 0.055436537 -0.042751275 0.0039382144
-0.09366312 -0.04359288 0.10436628 -0.092283554 -0.010406605 0.047384232 -0.022912491 0.044782504
0.0028321245 0.085565835 -0.08406399 0.0006318517 -0.019411255 -0.13084471 -0.050008845 0.06762699
-0.13393965 -0.1100643 0.06424967 0.05874827 -0.034661073 -0.080071084 0.023236057 -0.026900891
-0.03784683 0.030420097 0.011275547 0.013694055 -0.05723969 0.029513499 0.0787851 -0.024483409
0.006548291 0.011173832 -0.09387221 -0.07437669 -0.067423254 0.09367485 0.10941748 0.114555
0.0050666207 0.075556815 -0.03754523 0.06513993 -0.04858105 0.03556205 0.07316066 0.07114413
0.04763986 0.040886972 -0.05362952 -0.06118702 -0.0943083 -0.09554119 0.003980394 0.011808748
-0.018717477 0.032245446 -0.0762319 -0.008383375 -0.055610992 -0.09940876 0.06605065 -0.098150015
-0.08185122 0.045956407 -0.06421889 0.117155395 -0.0669051 -0.097124934 -0.0141788935 -0.064262964
0.114445694 0.038210336 -0.08567791 0.09303956 -0.09299694 0.04751769 -0.011870058 0.02074243
0.0069413567 0.0062935175 -0.08415573 -0.106438436 -0.053670198 0.05816424 0.10706309 -0.03278755
-0.016920088 -0.103544466 0.024960794 -0.002238348 -0.005746387 0.07931531 -0.02292396 0.05655309
-0.057599165 0.04254765 0.044411693 0.104545 -0.0640374 0.039990768 0.08649831 -0.11959387
0.028197046 0.0189968 -0.030149877 -0.0961071 -0.011508633 -0.0671998 0.08997354 0.08090468
0.0806289 -0.07577663 0.07714162 0.056504432 0.024904918 -0.039094873 0.023549369 0.068297856
0.018692747 0.0030423375 0.024208859 -0.07745947 -0.037261363 0.06969745 -0.07800318 -0.09087347
-0.010702498 -0.040762857 -0.097205676 -0.06539497 -0.09503439 -0.080256745 0.0035217472 0.015965953
-0.08115018 -0.021259181 0.08244054 -0.052577775 -0.039076146 0.03771097 0.025322586 0.0999286
0.045867786 0.022881227 -0.022161355 -0.016778339 0.08303345 0.0040214304 -0.011933948 -0.06562316
00000000: 3a9d 493d d6b0 e03d 9744 b3bd bf87 98bc
00000010: b2b6 9cbd 9e30 c53d 6a69 aa3d 23f0 a43d
00000020: f60f 3c3d 7524 c7bd 25b2 d23d 3960 033d
00000030: bcc2 7fbd 0491 1d3d d7fa f5bd 39cc df3d
00000040: 60cb 723c 2b49 623b 4dc0 fd3d bcb0 993c
00000050: 5b6c 863d 3a9d 92bd bf74 fcbc a7c1 ec3c
00000060: 57a1 cfbd cc93 17bd ff02 bb3d e338 943d
00000070: 8c07 ef3d 0d05 95b9 e724 4c3d 597b bd3d
00000080: 5d07 d4bd 54ca 0a3d a584 f4bc b543 06bd
00000090: c317 ad3d 9add 54bd 07be 18bd 67ca 9abd
000000a0: e26b 4fbd 513a 1bbd 973c cb3d faf0 613d
000000b0: bfdd 3f3d 8be4 13bc cbe1 9e3b 45d9 7abd
000000c0: 6179 faba 6c58 783d 3f99 81bd fa17 e53c
000000d0: 2f97 72bc f6e1 573d 023a c2bb cfa6 d6bc
000000e0: c85c f73b f8a5 db3c d763 ce3c fbd0 dbbd
000000f0: 6578 63bd f7bc a8bd a74b dabd 0068 0a3d
00000100: a14c b83d c6aa d23d bdce 4cbd 2cf8 04be
00000110: 8aae 4fbd b238 c03d edda 28bd 525b b53d
00000120: 6b43 b13d 4f9f d5bd e24f 8bbd 7093 5ebc
00000130: 278d db3d 9ed5 d5bd cbae b1bd 7e90 793d
00000140: a244 c13d 8c6a 813c 359b 02bd 90d5 963d
00000150: a9be 993c 9fe5 20be 68a4 1a3c d533 0abe
00000160: 856a 553d b192 80bd d0e6 c2bd 8da9 503d
00000170: 61b6 a83d 40ec 913c c459 8f3c 7834 c13d
00000180: dc31 9f3d 8d6b 94bd 9611 55bd 0651 ccbd
00000190: fd4c e73b 6c11 633d f61b 2fbd 230c 813b
000001a0: 73d2 bfbd 738e 32bd fdbd d53d 29ff bcbd
000001b0: 7780 2abc f815 423d fab2 bbbc dc6d 373d
000001c0: 2a9b 393b 243d af3d be29 acbd daa2 253a
000001d0: 5a04 9fbc 28fc 05be 13d6 4cbd 0580 8a3d
000001e0: 7a27 09be 6469 e1bd 5595 833d 07a2 703d
000001f0: c5f8 0dbd 4ffc a3bd 8b59 be3c 425f dcbc
00000200: 4705 1bbd 9133 f93c 12bd 383c 085d 603c
00000210: 2a74 6abd 4bc6 f13c 155a a13d 6e91 c8bc
00000220: 0c93 d63b 7312 373c 1340 c0bd ce52 98bd
00000230: 3415 8abd 9ad8 bf3d 4616 e03d d09b ea3d
00000240: e505 a63b 88bd 9a3d 07c9 19bd 1568 853d
00000250: ecfc 46bd 83a9 113d 42d5 953d 03b4 913d
00000260: 0422 433d 1979 273d a1aa 5bbd 3e9f 7abd
00000270: b624 c1bd 19ab c3bd f76d 823b 7b79 413c
00000280: 6555 99bc cd13 043d 781f 9cbd 6c5a 09bc
00000290: 5ac8 63bd d296 cbbd 9045 873d e002 c9bd
000002a0: 9da1 a7bd c93c 3c3d 3285 83bd 2bef ef3d
000002b0: 8b05 89bd 70e9 c6bd 974e 68bc 4d9c 83bd
000002c0: 8162 ea3d 7182 1c3d e677 afbd 868b be3d
000002d0: 2e75 bebd e9a1 423d a27a 42bc 07ec a93c
000002e0: 5274 e33b da39 ce3b d759 acbd 65fc d9bd
000002f0: 48d5 5bbd a03d 6e3d e543 db3d 3d4c 06bd
00000300: ff9b 8abc 1f0f d4bd 947a cc3c 3fb1 12bb
00000310: 304c bcbb 1170 a23d 07cb bbbc 37a4 673d
00000320: 1aed 6bbd 7246 2e3d 09e9 353d b01b d63d
00000330: 0a26 83bd 5ccd 233d 0726 b13d a2ed f4bd
00000340: 7efd e63c 2d9f 9b3c e0fc f6bc cdd3 c4bd
00000350: b58e 3cbc 0ca0 89bd 0c44 b83d 5ab1 a53d
00000360: c420 a53d c730 9bbd 6dfc 9d3d 3171 673d
00000370: 6605 cc3c f221 20bd 9bea c03c bfdf 8b3d
00000380: 8821 993c f461 473b a851 c63c 12a3 9ebd
00000390: 5f9f 18bd 89bd 8e3d 22c0 9fbd df1b babd
000003a0: 8859 2fbc f4f6 26bd c513 c7bd cced 85bd
000003b0: 64a1 c2bd a65d a4bd 1dcd 663b 08cb 823c
000003c0: 1132 a6bd bc27 aebc 96d6 a83d cb5b 57bd
000003d0: 4f0e 20bd d176 1a3d 5071 cf3c 5ea7 cc3d
000003e0: dcdf 3b3d 6971 bb3c bb8b b5bc ba72 89bc
000003f0: 710d aa3d 34c6 833b 9b86 43bc 6f65 86bd

adaLN_modulation.1.bias f4 [128]
-0.07061177 0.048754163 -0.0067305593 0.021537295 -0.08974147 -0.11460231 -0.060417306 -0.034289382
-0.054587644 -0.044056565 0.059120387 0.12370456 0.09587202 0.026029557 -0.006754349 -0.10703683
0.12188104 -0.033838622 -0.10647725 -0.0063746297 0.047207925 -0.025324244 -0.013537863 -0.022213534
-0.11616465 -0.117700174 0.11846892 -0.087617874 0.060739115 -0.078305274 0.07050705 0.03716666
-0.10916856 -0.066791005 -0.093981035 0.0054846047 -0.052491244 0.070014924 0.0030230854 0.063508116
0.083333775 0.1157095 0.114362575 -0.0829437 -0.01040161 -0.040613197 0.08258642 0.10229072
0.07990266 -0.037668638 -0.12996991 0.040036924 0.052786063 -0.050646473 0.11440654 -0.034151703
-0.0068105604 -0.081162915 0.019621007 0.0035429983 -0.03524032 -0.06707892 -0.02591695 -0.0026932962
0.058972824 0.064067654 -0.052840296 0.072543584 -0.06898825 -0.08628283 0.10850536 -0.1028254
-0.13029304 -0.14044061 -0.015549808 -0.101055875 0.03825561 0.06250383 -0.051995665 0.044674072
0.0676037 0.062254045 0.015752625 0.06269 -0.011246241 0.09752982 -0.07614533 -0.028988756
-0.17156395 -0.15205625 -0.049291104 -0.13874161 -0.10968123 -0.027552057 0.036610357 -0.13058971
-0.06522738 0.01824783 0.126142 -0.007268842 -0.034531526 -0.05571095 -0.0088815205 0.044014793
0.0061221044 0.030268783 -0.04547824 -0.12508368 -0.005367266 -0.148526 -0.04233693 -0.08208111
-0.008975496 -0.026527116 -0.081637196 0.052067503 0.00496364 -0.08920887 0.029549595 0.019657435
0.057195447 0.12070557 0.082973436 -0.076984845 0.058836192 -0.036711957 -0.12885259 0.14059916
00000000: e79c 90bd 72b2 473d 068c dcbb fb6e b03c
00000010: 60ca b7bd 9eb4 eabd 2378 77bd 0673 0cbd
00000020: 4b97 5fbd a874 34bd 3828 723d d158 fd3d
00000030: 8d58 c43d f03b d53c 9653 ddbb 2036 dbbd
00000040: c49c f93d 5e9a 0abd bf10 dabd 45e2 d0bb
00000050: 195d 413d ca74 cfbc eacd 5dbc 28f9 b5bc
00000060: bbe7 edbd ca0c f1bd d59f f23d 0071 b3bd
00000070: 94c9 783d 845e a0bd 0066 903d 113c 183d
00000080: c493 dfbd b9c9 88bd 2179 c0bd 33b8 b33b
00000090: 0f01 57bd fc63 8f3d f51e 463b 8b10 823d
000000a0: e6aa aa3d 1af9 ec3d ed36 ea3d 63de a9bd
000000b0: 846b 2abc 065a 26bd 1223 a93d cc7d d13d
000000c0: 01a4 a33d 6e4a 1abd d516 05be c2fd 233d
000000d0: 3336 583d ad72 4fbd fa4d ea3d a8e2 0bbd
000000e0: 1f2b dfbb be38 a6bd 3cbc a03c a631 683b
000000f0: 2758 10bd ac60 89bd c94f d4bc 0382 30bb
00000100: 7d8d 713d e735 833d 116f 58bd bb91 943d
00000110: b649 8dbd 0db5 b0bd 0f38 de3d 2096 d2bd
00000120: 8a6b 05be aacf 0fbe 9fc4 7ebc 62f6 cebd
00000130: eab1 1c3d 0202 803d 68f9 54bd 29fc 363d
00000140: cf73 8a3d 19fe 7e3d a60b 813c 9d63 803d
00000150: 2742 38bc b7bd c73d 15f2 9bbd d479 edbc
00000160: 76ae 2fbe a2b4 1bbe 78e5 49bd 4812 0ebe
00000170: 8da0 e0bd dab4 e1bc bef4 153d 4fb9 05be
00000180: ef95 85bd 797c 953c 5e2b 013e 772f eebb
00000190: ee70 0dbd 2a31 64bd cc83 11bc db48 343d
000001a0: ef9b c83b 3df6 f73c 6447 3abd f015 00be
000001b0: e4df afbb 3317 18be 7d69 2dbd 241a a8bd
000001c0: f50d 13bc 654f d9bc 6731 a7bd bc44 553d
000001d0: 08a6 a23b 24b3 b6bd fe11 f23c a108 a13c
000001e0: c645 6a3d 7b34 f73d faed a93d 3baa 9dbd
000001f0: 38fe 703d 475f 16bd eff1 03be 3af9 0f3e

advantage.0.weight f4 [256, 64]
-0.0104954755 -0.116652116 0.06854125 0.02699631 0.12576702 -0.10975616 -0.057902727 -0.05704132
0.08535965 -0.05989788 -0.06331247 -0.041305628 -0.089488484 -0.03769793 -0.011082512 0.009769984
0.009870567 0.06321074 0.064365976 -0.10699084 0.13231207 0.08594511 -0.047163572 0.011804589
-0.029499026 0.029205142 -0.009436818 0.049377378 -0.11874232 0.026933191 -0.019395396 -0.07151995
0.10415991 0.014386665 -0.11567582 -0.04020061 0.07618999 -0.1450926 -0.06026363 0.09217964
0.1090609 0.064936474 0.1725951 -0.052948013 0.0075083124 0.009205021 -0.017985497 -0.10598388
0.07980725 0.015247514 -0.058706935 -0.013444377 0.07832262 0.14229588 0.023151401 -0.09845243
-0.09117627 0.054493655 0.11992113 -0.13235953 0.028329853 -0.07523506 -0.08718527 -0.13892412
-0.020644544 0.06471029 -0.102414586 -0.03330509 -0.08167518 0.1270587 -0.11335414 -0.08014892
0.07434126 -0.022165883 0.09164868 0.11944822 0.034773387 -0.0504524 -0.009954821 -0.006600878
0.080264494 0.091566086 0.11236937 0.11601351 0.034473702 -0.1100944 0.08271445 -0.09136049
0.037077084 0.10194708 -0.08196083 -0.054641854 0.09348417 -0.032557752 -0.056626443 0.026570583
-0.05201547 -0.09797797 0.041573696 -0.07900055 0.09600305 0.045914706 0.05997689 -0.04361982
-0.06326682 -0.10841117 -0.11652086 -0.08774307 -0.02999851 0.04595204 -0.029640963 0.03895255
-0.080922104 0.06308423 0.035907425 0.016361823 0.013164045 0.058709294 -0.07631079 0.080053344
0.03991557 -0.023040302 0.0012704894 -0.08695505 -0.052002702 0.046153475 -0.10042683 -0.13289963
0.0386949 0.009363738 0.106119685 -0.11636683 0.032265045 0.109673835 -0.0806378 0.048070796
-0.09167117 -0.1116959 0.104635656 -0.07964584 -0.1306183 -0.083406046 -0.117514946 0.10451139
-0.10290002 0.05042569 0.08108591 -0.1056053 0.048802868 -0.004648623 0.044163983 0.0112053845
-0.069133945 0.064211115 -0.026444865 0.019314855 0.10020649 0.13539313 0.050646067 -0.10800391
-0.041278888 0.0660634 -0.0071397778 -0.027025932 -0.0787139 -0.04688121 0.08947399 0.11253949
0.024876956 -0.04266545 -0.12096556 -0.103858456 -0.05445933 0.10593784 -0.1058807 0.05702841
0.055117443 -0.05890805 -0.04110214 -0.03372752 0.027086776 -0.06305625 -0.03737625 0.12881951
0.10672237 -0.06987253 -0.009950999 0.06382974 0.10016125 -0.092377305 -0.120853424 0.06645053
-0.06211962 0.10707874 -0.009737007 0.083588846 0.013099907 0.034325913 -0.11092109 0.11525457
0.0134415645 0.051752668 0.115340255 -0.036456086 -0.063529916 0.046578184 -0.11794554 -0.09119359
-0.025853742 -0.05006534 -0.10501639 -0.0630919 -0.085503235 0.0837426 0.05527989 -0.11234249
0.069210276 0.12788412 -0.03932132 -0.08428758 0.035869636 0.11116832 -0.13266824 0.005352399
-0.048316788 -0.089328 -0.04680412 0.0048712967 -0.014265449 -0.04755989 -0.08731899 0.09609222
-0.031108186 -0.0350111 0.02320386 -0.0621423 -0.096904665 -0.11825062 0.11834762 0.09651759
0.09134164 -0.07478751 0.010489783 -0.087861225 -0.038536258 0.113429755 0.07024329 -0.08286482
-0.011902967 -0.059624728 -0.09403117 -0.040188294 0.08520161 0.026895447 0.10925002 0.008792495
00000000: 37f5 2bbc 4ee7 eebd 5b5f 8c3d 5e27 dd3c
00000010: 12c9 003e d6c7 e0bd 692b 6dbd 29a4 69bd
00000020: 0ad1 ae3d 7b57 75bd f8a9 81bd 1730 29bd
00000030: bd45 b7bd 2569 1abd 6d93 35bc 4812 203c
00000040: 29b8 213c a274 813d 4fd2 833d 031e dbbd
00000050: d17c 073e fd03 b03d 972e 41bd 0968 413c
00000060: f1a7 f1bc 9f3f ef3c e29c 1abc ef3f 4a3d
00000070: 2c2f f3bd ffa2 dc3c 18e3 9ebc 0d79 92bd
00000080: ca51 d53d 0cb6 6b3c 72e7 ecbd 65a9 24bd
00000090: 7f09 9c3d 2893 14be ffd6 76bd aec8 bc3d
000000a0: 525b df3d 6afd 843d c5bc 303e 04e0 58bd
000000b0: 4a08 f63b a8d0 163c 5256 93bc 140e d9bd
000000c0: fc71 a33d b5d0 793c af76 70bd ce45 5cbc
000000d0: 9c67 a03d 03b6 113e 02a8 bd3c 6da1 c9bd
000000e0: a0ba babd bd34 5f3d 3699 f53d 4289 07be
000000f0: 0214 e83c d714 9abd 318e b2bd 2042 0ebe
00000100: bf1e a9bc d486 843d bdbe d1bd eb6a 08bd
00000110: 5145 a7bd ad1b 023e 3726 e8bd 1e25 a4bd
00000120: 3b40 983d 3a95 b5bc 4eb2 bb3d 45a1 f43d
00000130: 8a6e 0e3d 2da7 4ebd 8c19 23bc 2e4c d8bb
00000140: b661 a43d 0087 bb3d ea21 e63d 7e98 ed3d
00000150: 4c34 0d3d 2c79 e1bd 3266 a93d 351b bbbd
00000160: 24de 173d a1c9 d03d 14db a7bd 23d0 5fbd
00000170: a174 bf3d 475b 05bd 21f1 67bd 8daa d93c
00000180: 2c0e 55bd ada8 c8bd 2e49 2a3d 0acb a1bd
00000190: 3f9d c43d 0f11 3c3d 54aa 753d b2aa 32bd
000001a0: 0992 81bd ad06 debd 7da2 eebd a4b2 b3bd
000001b0: 6fbf f5bc 3538 3c3d 9bd1 f2bc b68c 1f3d
000001c0: 7dba a5bd 4e32 813d aa13 133d 3b09 863c
000001d0: 02ae 573c 2879 703d d548 9cbd 02f3 a33d
000001e0: 827e 233d 04bf bcbc 8d86 a63a 7d15 b2bd
000001f0: c900 55bd 6d0b 3d3d 95ac cdbd d716 08be
00000200: 8b7e 1e3d 5d6a 193c 4755 d93d bc51 eebd
00000210: 5a28 043d ad9c e03d 6e25 a5bd e2e5 443d
00000220: 18be bbbd d2c0 e4bd 384b d63d 5c1d a3bd
00000230: cec0 05be cad0 aabd adab f0bd 110a d63d
00000240: 3fbd d2bd 2b8b 4e3d 5f10 a63d 9747 d8bd
00000250: 84e5 473d 7a53 98bb 4be5 343d ca96 373c
00000260: 1996 8dbd 1e81 833d e7a2 d8bc 303a 9e3c
00000270: 0f39 cd3d 7fa4 0a3e 4072 4f3d 2731 ddbd
00000280: 0d14 29bd 3f4c 873d ccf4 e9bb 7d65 ddbc
00000290: c134 a1bd 8306 40bd 243e b73d 1b7b e63d
000002a0: c2ca cb3c f8c1 2ebd cbbc f7bd beb3 d4bd
000002b0: bf10 5fbd f0f5 d83d fbd7 d8bd 9f96 693d
000002c0: d4c2 613d 9149 71bd b85a 28bd de25 0abd
000002d0: 16e5 dd3c a323 81bd d717 19bd 43e9 033e
000002e0: 4291 da3d 5419 8fbd 8409 23bc 2bb9 823d
000002f0: 5721 cd3d 5030 bdbd 0082 f7bd 3717 883d
00000300: 2571 7ebd 194c db3d f887 1fbc a130 ab3d
00000310: fea0 563c 5499 0c3d 992a e3bd 970a ec3d
00000320: 023a 5c3c 9bfa 533d 8337 ec3d fa52 15bd
00000330: f91b 82bd c4c8 3e3d 6e8d f1bd b4c3 babd
00000340: 3acb d3bc 5011 4dbd d512 d7bd 5336 81bd
00000350: 521c afbd 3e81 ab3d 2a6d 623d d213 e6bd
00000360: 1ebe 8d3d 0ef4 023e 640f 21bd f79e acbd
00000370: 0aec 123d 37ac e33d 2fda 07be 2d63 af3b
00000380: d3e7 45bd 99f1 b6bd adb5 3fbd 669f 9f3b
00000390: a1b9 69bc 29ce 42bd 4cd4 b2bd ffcb c43d
000003a0: 98d6 febc cd67 0fbd 0516 be3c ed88 7ebd
000003b0: f475 c6bd 622d f2bd 3d60 f23d 04ab c53d
000003c0: 5311 bb3d 322a 99bd 57dd 2b3c 96f0 b3bd
000003d0: 32d8 1dbd dc4d e83d b7db 8f3d 08b5 a9bd
000003e0: a904 43bc 0f39 74bd 6a93 c0bd 7b9c 24bd
000003f0: 2f7e ae3d d753 dc3c 79be df3d 660e 103c

advantage.0.bias f4 [256]
-0.00175147 0.1000721 0.09047367 0.03946413 0.035193592 -0.14214237 -0.09633492 -0.11810749
0.0016243474 -0.04611718 0.10859189 -0.07726872 -0.046666227 0.023186687 0.106601 0.013858402
-0.13791059 0.084055886 -0.06460845 0.05982372 -0.10332524 0.10232609 -0.0379983 0.084763564
-0.0513035 0.034063518 -0.00353427 0.017703513 0.0966504 -0.04680459 -0.022755075 0.03976086
-0.08134852 0.051857077 -0.10012032 -0.103056855 0.083200194 -0.033449207 -0.012025272 0.10908496
-0.018093092 0.08484442 0.051880024 -0.035702463 -0.0026179631 -0.0775521 0.040878065 -0.08338743
0.018364167 -0.04679436 -0.07213571 0.037620645 0.05249364 0.08132864 -0.047050815 -0.088918984
0.07210707 -0.05900314 -0.08033821 -0.006401501 0.06236054 -0.13014777 0.00034259903 -0.022531766
-0.02374348 -0.041561678 0.025736377 -0.10235059 0.09884447 0.060604576 -0.054662332 -0.107296914
0.037765987 0.07398718 0.114264905 -0.13735554 0.005848632 -0.09232512 -0.10531963 -0.12959117
-0.007866239 0.04902501 0.099570364 -0.024290657 -0.09964892 0.024805736 0.038062945 0.103951044
-0.033295896 0.046323147 0.07470157 0.0831684 -0.0012026852 -0.04760885 -0.06282801 0.01952735
0.106689535 -0.038462326 -0.07793845 -0.03920124 0.05447851 0.046570044 0.05966848 0.083658084
-0.13986696 -0.10687612 -0.03549556 -0.06901038 -0.009417517 -0.066046186 0.0770109 0.0002693274
-0.004617162 -0.0046847654 -0.121456206 -0.051799983 -0.07759698 -0.04679235 -0.09891021 0.07661751
-0.018332532 0.08780965 -0.12455439 0.027434831 0.028945703 0.026081555 0.10138773 0.088865906
0.100925766 -0.066744044 0.042131487 -0.10352449 -0.0023777988 0.1047897 -0.020523923 0.023469413
0.08547896 -0.11627239 0.054380313 0.008162103 -0.10915194 -0.009087803 -0.0022084815 0.11550302
-0.037532024 0.084739044 0.09295178 0.08389259 -0.08073963 0.037925843 -0.13090624 -0.09048547
-0.027110288 0.06981639 0.089838296 -0.11520981 0.112155676 -0.0134385275 -0.05735276 0.054664418
0.039738867 0.10160042 -0.13833319 0.064850956 -0.10155722 0.017883303 0.025232637 -0.081601895
0.06381311 0.07403333 0.057727836 0.03626199 -0.08160297 -0.12999916 0.09830935 -0.039959762
-0.120022416 0.06330632 -0.020807268 -0.07009719 -0.045273196 -0.10023886 -0.012163472 -0.07939456
-0.033514638 -0.058505725 0.072253235 0.028692259 -0.13313061 -0.0024740992 -0.10886157 -0.0983368
-0.13039388 -0.1061583 0.07192326 0.05850127 0.0008231177 0.031189641 -0.08496269 0.04541076
-0.09031 0.0002193209 0.081291005 0.030362517 -0.0014592635 0.08668409 -0.004693136 -0.0132068265
0.022624165 0.039414242 0.00825295 -0.0043789577 0.059635974 0.084432244 -0.0029565275 -0.13321301
-0.0054699597 -0.02543723 -0.08077916 -0.09003012 -0.1080881 0.088782705 -0.015599507 0.048431188
0.0014447131 0.073117614 0.049449526 0.021331964 0.0777138 -0.008574321 0.10426173 -0.113932826
-0.0633569 -0.02972013 -0.12359049 -0.122386545 -0.058276337 0.03247171 -0.043753892 -0.12800008
0.016250415 0.020403823 -0.12964857 -0.09552842 -0.10802314 -0.019037759 0.09276151 -0.02763396
0.098883495 0.052602194 -0.09614713 -0.017119206 0.07796188 -0.11444337 0.025812175 0.05109245
00000000: 9591 e5ba 9af2 cc3d 424a b93d 24a5 213d
00000010: 2827 103d c58d 11be 3e4b c5bd 57e2 f1bd
00000020: 0ee8 d43a 5ee5 3cbd 6d65 de3d 103f 9ebd
00000030: 1625 3fbd 02f2 bd3c a051 da3d 5a0e 633c
00000040: 6f38 0dbe 7e25 ac3d 6f51 84bd b809 753d
00000050: 2f9c d3bd 5790 d13d 1ba4 1bbd 8598 ad3d
00000060: 9e23 52bd 3086 0b3d 369f 67bb f506 913c
00000070: a5f0 c53d 2bb6 3fbd da68 babc 49dc 223d
00000080: 0e9a a6bd 1668 543d e20b cdbd 790f d3bd
00000090: dd64 aa3d 0902 09bd a505 45bc ef67 df3d
000000a0: f737 94bc e9c2 ad3d 2680 543d bf3c 12bd
000000b0: 2292 2bbb a3d3 9ebd c26f 273d 07c7 aabd
000000c0: 7370 963c 71ab 3fbd e3bb 93bd 1b18 1a3d
000000d0: 9203 573d a18f a63d 5bb8 40bd 281b b6bd
000000e0: dfac 933d 47ad 71bd 5c88 a4bd afc3 d1bb
000000f0: c46d 7f3d 7545 05be dd9e b339 8a94 b8bc
00000100: b081 c2bc 943c 2abd 18d5 d23c 309d d1bd
00000110: f86e ca3d 813c 783d 9ce5 5fbd 7cbe dbbd
00000120: 82b0 1a3d 9786 973d b803 ea3d eea6 0cbe
00000130: e2a5 bf3b f414 bdbd d1b1 d7bd 8cb3 04be
00000140: 66e1 00bc 73ce 483d 8ceb cb3d 33fd c6bc
00000150: bc14 ccbd 6635 cb3c e4e7 1b3d 49e4 d43d
00000160: 4761 08bd 57bd 3d3d 23fd 983d 3254 aa3d
00000170: 6ba3 9dba 7f01 43bd f9ab 80bd d2f7 9f3c
00000180: 0b80 da3d ac8a 1dbd 329e 9fbd 7b91 20bd
00000190: dc24 5f3d 3bc0 3e3d f066 743d ee54 ab3d
000001a0: 4939 0fbe dee1 dabd cb63 11bd 5055 8dbd
000001b0: ee4b 1abc 3943 87bd e4b7 9d3d 8334 8d39
000001c0: 904b 97bb a982 99bb 08be f8bd 382c 54bd
000001d0: 2aeb 9ebd 56a9 3fbd 7091 cabd a4e9 9c3d
000001e0: 1b2e 96bc 8cd5 b33d 5f16 ffbd 03bf e03c
000001f0: 8a1f ed3c fca8 d53c 5fa4 cf3d 54ff b53d
00000200: 2bb2 ce3d 1ab1 88bd 1192 2c3d a604 d4bd
00000210: d8d4 1bbb fb9b d63d c921 a8bc ed42 c03c
00000220: 980f af3d 3820 eebd e4bd 5e3d 57ba 053c
00000230: 0d8b dfbd 02e5 14bc 2cbc 10bb d98c ec3d
00000240: 2ebb 19bd aa8b ad3d 815d be3d e1cf ab3d
00000250: d25a a5bd 2158 1b3d 490c 06be 7250 b9bd
00000260: 6516 debc e5fb 8e3d 24fd b73d 1ff3 ebbd
00000270: e0b1 e53d 452d 5cbc baea 6abd cce7 5f3d
00000280: 39c5 223d e213 d03d 37a7 0dbe 94d0 843d
00000290: 3bfd cfbd 0180 923c adb4 ce3c e51e a7bd
000002a0: 73b0 823d c99e 973d 0674 6c3d 7487 143d
000002b0: 751f a7bd 801e 05be 6a56 c93d d9ac 23bd
000002c0: 50ce f5bd bea6 813d 0174 aabc 1e8f 8fbd
000002d0: 6370 39bd 084a cdbd 4d49 47bc 9d99 a2bd
000002e0: a546 09bd b3a3 6fbd 81f9 933d 070c eb3c
000002f0: 6453 08be 7f24 22bb d1f2 debd ce64 c9bd
00000300: f985 05be 8669 d9bd 814c 933d 079f 6f3d
00000310: 7ec6 573a 6b81 ff3c eb00 aebd a200 3a3d
00000320: 73f4 b8bd 81f9 6539 e67b a63d d0ba f83c
00000330: c244 bfba 6e87 b13d e1c8 99bb 7261 58bc
00000340: 5056 b93c d470 213d 6237 073c 5c7d 8fbb
00000350: da44 743d d0ea ac3d 4dc2 41bb fe68 08be
00000360: 593d b3bb bd61 d0bc 8b6f a5bd b661 b8bd
00000370: 4b5d ddbd b5d3 b53d 1395 7fbc c85f 463d
00000380: 875c bd3a b0be 953d 968b 4a3d 5fc0 ae3c
00000390: 6a28 9f3d 4f7b 0cbc 2d87 d53d 9d55 e9bd
000003a0: 43c1 81bd a177 f3bc 031d fdbd cca5 fabd
000003b0: 2bb3 6ebd 0e01 053d 4837 33bd 7412 03be
000003c0: 971f 853c eb25 a73c 98c2 04be 67a4 c3bd
000003d0: 3c3b ddbd 13f5 9bbc bff9 bd3d 9d60 e2bc
000003e0: 6e83 ca3d 6675 573d c9e8 c4bd 943d 8cbc
000003f0: 7aaa 9f3d 4961 eabd 0e74 d33c 5146 513d

advantage.2.weight f4 [2, 256]
0.03661041 -0.004543467 0.026047237 0.04531324 -0.009474435 -0.00014768042 0.026094249 -0.013428406
-0.020014178 -0.01738583 -0.03699931 -0.03194358 0.0069857286 0.0075435787 -0.04080764 0.046018135
-0.00039195942 0.014338168 -0.012499782 -0.039441217 -0.03145077 0.0042490526 0.006138126 -0.03121934
0.0135474 -0.062551156 0.012696071 0.054174837 -0.029659986 -0.06739629 -0.030315913 0.009464011
0.023368089 -0.025074853 -0.005158926 0.0516173 -0.023725707 0.022687994 0.0063482975 -0.01794343
-0.026687145 0.015485653 -0.03402041 -0.023219133 -0.02959832 0.0080697015 0.03319802 0.010408828
0.033840552 0.04973611 -0.03829715 0.054993615 0.025541298 0.03252059 -0.014531727 0.048684787
0.015255948 -0.0012148347 -0.005059765 0.009017475 0.012978562 0.0445988 0.016153703 -0.02711268
-0.053235453 -0.005790903 -0.036427885 -0.03703582 0.044444412 -0.017655062 -0.036846153 -0.010598884
-0.06094851 -0.01731416 0.061486892 0.031480756 0.013176498 -0.023228837 0.060276642 0.020690072
0.01034662 0.045820117 0.023741182 -0.01907641 0.046086814 -0.0071294676 0.0035634015 -0.030378262
0.0018377455 -0.016910931 -0.022520967 -0.0272574 -0.00031887327 0.051790908 -0.013056064 0.027329618
0.028807504 -0.011810519 0.029786756 -0.037971918 -0.0243268 -0.026511308 -0.029584074 0.019041827
0.030558467 -0.050764754 -0.040831465 -0.013825503 -0.016412463 -0.01241468 -0.04355511 -0.021110876
0.0105579095 -0.010178944 -0.023400657 -0.0018345518 -0.008069849 0.0049140383 0.017208131 -0.011230515
0.011027486 0.009561351 0.06453892 -0.018988134 -0.046325207 0.0031195884 0.03260221 0.028979862
-2.0883015e-05 0.004377021 -0.041638568 -0.005219743 0.004159073 0.0334379 0.005968497 0.011934081
0.030111285 -0.011326531 0.038099412 0.044333883 0.016663613 -0.029794447 0.020925963 -0.032749664
0.039005186 0.010735834 0.007000915 -0.020744555 0.011828648 -0.004474583 0.008156076 0.04075935
-0.041137286 0.027275369 0.010735449 -0.05484873 -0.015082634 -0.005966023 0.07075467 -0.018488124
0.027106898 0.044488057 0.024133168 -0.027430745 -0.008250896 -0.011315526 -0.015467858 0.016712751
0.020966291 0.034630686 0.0068287533 0.008925077 -0.018774388 0.049832094 0.045820046 -0.029302718
0.017343814 -0.030637162 -0.014332312 -0.004447622 -0.045671944 -0.04200955 0.015635107 0.029054884
-0.021684285 0.010431893 -0.001183676 0.019779 0.030612689 -0.0011399935 -0.024171282 0.035086848
0.030783955 -0.01181102 0.026281666 0.022786412 -0.049705263 0.015367701 -0.02385695 -0.0040440387
-0.028927853 -0.033748865 -0.0055744257 -0.007513314 0.013357443 0.036723714 0.041624706 0.0066071036
-0.002070096 -0.024190828 0.0072226976 -0.032583624 -0.028421463 -0.00571474 0.011011469 -0.027397273
-0.05186729 -0.033427343 -0.00020868935 -0.043719426 -0.03813758 0.02312491 -0.02621129 0.042974453
0.037337188 0.01204355 0.025266001 -0.01058314 -0.040943224 0.03089759 -0.024847569 0.051900778
0.010853929 0.03245575 0.0115290405 0.03442757 -0.03550905 -0.02684167 -0.022740379 0.020638226
-0.022671387 0.010983614 0.014836455 0.04595089 0.043121617 0.022841627 0.0030696704 -0.05192849
0.02652669 0.046787933 -0.015537555 0.06820003 -0.039698917 -0.026280174 0.010969339 -0.01911002
00000000: ccf4 153d 5de1 94bb 0461 d53c 609a 393d
00000010: a93a 1bbc a9da 1ab9 9bc3 d53c d102 5cbc
00000020: c6f4 a3bc ba6c 8ebc 978c 17bd 45d7 02bd
00000030: 8ae8 e43b 2030 f73b e925 27bd 837d 3c3d
00000040: e77f cdb9 a3ea 6a3c e3cb 4cbc 1d8d 21bd
00000050: 86d2 00bd a33b 8b3b 5522 c93b b4bf ffbc
00000060: eaf5 5d3c d21a 80bd 2e03 503c 6fe6 5d3d
00000070: 80f9 f2bc 1107 8abd 1459 f8bc f00e 1b3c
00000080: 6f6e bf3c c769 cdbc 350c a9bb a96c 533d
00000090: 6a5c c2bc 2cdc b93c 6105 d03b 1afe 92bc
000000a0: 009f dabc 89b7 7d3c fc58 0bbd 0d36 bebc
000000b0: 2d78 f2bc c836 043c a6fa 073d ca89 2a3c
000000c0: 649c 0a3d 17b8 4b3d 79dd 1cbd fc40 613d
000000d0: fc3b d13c 4f34 053d 7b16 6ebc b369 473d
000000e0: 15f4 793c 173b 9fba 63cc a5bb 08be 133c
000000f0: 09a4 543c 3bad 363d c554 843c 691b debc
00000100: 6b0d 5abd 9dc1 bdbb 6835 15bd dfb2 17bd
00000110: 580b 363d 59a1 90bc feeb 16bd f1a6 2dbc
00000120: 25a5 79bd 6dd6 8dbc aed9 7b3d f7f1 003d
00000130: 3de2 573c 674a bebc a4e4 763d 3a7e a93c
00000140: df84 293c e0ad 3b3d de7c c23c 2246 9cbc
00000150: 87c5 3c3d 4f9e e9bb f587 693b d5db f8bc
00000160: 82e0 f03a cb88 8abc e47d b8bc e94a dfbc
00000170: 722e a7b9 b422 543d 1ae9 55bc 5de2 df3c
00000180: b7fd eb3c e880 41bc 5b03 f43c 7188 1bbd
00000190: ff48 c7bc 3e2e d9bc 4d5a f2bc 9bfd 9b3c
000001a0: c055 fa3c b4ee 4fbd e53e 27bd 5d84 62bc
000001b0: 6e73 86bc f166 4bbc d866 32bd b7f0 acbc
000001c0: 15fb 2c3c 96c5 26bc bcb2 bfbc 5875 f0ba
000001d0: 6637 04bc f105 a13b 11f8 8c3c 3200 38bc
000001e0: a1ac 343c 36a7 1c3c fb2c 843d 018d 9bbc
000001f0: 80bf 3dbd 0272 4c3b e589 053d 2d67 ed3c
00000200: ef2d afb7 1d6d 8f3b 348d 2abd 610a abbb
00000210: d548 883b 2ef6 083d 6293 c33b 2a87 433c
00000220: f1ab f63c ea92 39bc 210e 1c3d 7297 353d
00000230: 2182 883c 7c13 f4bc ed6c ab3c 8324 06bd
00000240: e7c3 1f3d 5ae5 2f3c ee67 e53b 7cf0 a9bc
00000250: f2cc 413c 869f 92bb 10a1 053c 47f3 263d
00000260: 927f 28bd 9870 df3c bde3 2f3c 10a9 60bd
00000270: 271d 77bc a17e c3bb d3e7 903d 6874 97bc
00000280: 490f de3c 1c39 363d ecb2 c53c 71b6 e0bc
00000290: c42e 07bc c264 39bc e66c 7dbc 2ee9 883c
000002a0: 80c1 ab3c e8d8 0d3d bcc3 df3b 7c3a 123c
000002b0: bfcc 99bc bd1c 4c3d cdad 3b3d 410c f0bc
000002c0: 9d14 8e3c c9fa fabc 13d2 6abc 5cbd 91bb
000002d0: 8112 3bbd 3512 2cbd 3215 803c 8204 ee3c
000002e0: 3ea3 b1bc 88ea 2a3c 9325 9bba 9207 a23c
000002f0: 76c7 fa3c d66b 95ba da02 c6bc 3ab7 0f3d
00000300: a22e fc3c 0283 41bc a64c d73c 92aa ba3c
00000310: bf97 4bbd cfc8 7b3c a76f c3bc db83 84bb
00000320: 1bfa ecbc 403c 0abd aca9 b6bb 3f32 f6bb
00000330: 2dd9 5a3c 9b6b 163d ab7e 2a3d 6780 d83b
00000340: 73aa 07bb d82b c6bc 61ac ec3b 6876 05bd
00000350: 21d4 e8bc b742 bbbb 7369 343c 3f70 e0bc
00000360: cc72 54bd 1ceb 08bd 9fd3 5ab9 2413 33bd
00000370: 2736 1cbd 7470 bd3c 0fb9 d6bc fb05 303d
00000380: e1ee 183d 4f52 453c a5fa ce3c e864 2dbc
00000390: 15b4 27bd f11c fd3c 218d cbbc e995 543d
000003a0: aed4 313c 52f0 043d 4de4 3c3c ec03 0d3d
000003b0: f071 11bd 10e3 dbbc 084a babc 7f11 a93c
000003c0: 58b9 b9bc 9ef4 333c 9a14 733c 0037 3c3d
000003d0: 4ba0 303d 5d1e bb3c 862c 493b f8b2 54bd
000003e0: 804e d93c b4a4 3f3d 3b91 7ebc 75ac 8b3d
000003f0: 559b 22bd 8549 d7bc beb8 333c 9e8c 9cbc

advantage.2.bias f4 [2]
-0.025227515 0.024906436
00000000: efa9 cebc 9508 cc3c
