result/low_level/ETHUSDT/best_model/vol/2/best_model.pkl (torch, 187425 bytes, 14 tensors)

fc1.weight f4 [64, 36]
0	0x3e351843	0.17685036
1	0xbe487bf1	-0.1957853
2	0xbd853f23	-0.06506183
3	0xbee6c82a	-0.45074588
4	0xbefe012b	-0.49610266
5	0xbec95b5f	-0.39327523
6	0xbe0fded6	-0.14049849
7	0xbe96795e	-0.2938947
8	0xbe9f592f	-0.3112273
9	0xbede265b	-0.43388638
10	0xbea61b2f	-0.32442614
11	0x3dad030b	0.08447846
12	0x3e0308f9	0.12796392
13	0xbf68843b	-0.9082677
14	0xbf9105f5	-1.1329943
15	0xbf67a6a4	-0.9048865
16	0x3dc47ed6	0.095945045
17	0x3db98646	0.09058814
18	0xbeddea85	-0.43342987
19	0x3d6279aa	0.05529181
20	0xbcdcea19	-0.026967095
21	0xbcb22047	-0.021743907
22	0xbe19beaf	-0.15014146
23	0x3dd2393d	0.102648236
24	0xbe04f895	-0.12985452
25	0x3d0cccd0	0.034375012
26	0xbdc94077	-0.09826749
27	0x3c902d79	0.017599808
28	0xbe6c36a3	-0.23067717
29	0x3dabf414	0.083961636
30	0xbe2f1044	-0.17096049
31	0x3e1ed261	0.1550994
32	0xbe599922	-0.21249822
33	0xbe2e35a5	-0.17012651
34	0x3d288465	0.041141886
35	0xbe19a6b7	-0.15005003
36	0x3e1cbcf1	0.1530645
37	0xbf157fe4	-0.5839827
38	0xbf5be087	-0.85889477
39	0xbf38a47e	-0.72125995
40	0xbf3b5f93	-0.7319271
41	0xbf72f145	-0.948994
42	0xbea22c63	-0.3167449
43	0xbf286dc9	-0.6579252
44	0xbf53cc10	-0.8273325
45	0xbf85d873	-1.045668
46	0xbf75bc32	-0.9599029
47	0x3e0d3b60	0.13792181
48	0x3ca3f214	0.020012893
49	0xbf415099	-0.7551361
50	0xbf1c7e87	-0.61130565
51	0xbf6ed1ae	-0.93288696
52	0x3cb99dd3	0.022658264
53	0xbce85710	-0.028361827
54	0xbcee8ce2	-0.029119913
55	0x3d29f0df	0.04148948
56	0x3c7ffbeb	0.015624027
57	0x3d718330	0.058963
58	0x3dfacd0d	0.122461416
59	0xbdc1c1d1	-0.09460796
60	0x3e1fddfd	0.15612026
61	0x3d0ca98f	0.03434139
62	0x3e2bd73c	0.16781324
63	0x3e386ad6	0.18009505
64	0xbe0eeaec	-0.13956803
65	0x3daaacd6	0.08333747
66	0x3d6e95a5	0.05824818
67	0xbd52d154	-0.051469162
68	0x3ae88a2b	0.0017741373
69	0xbd567712	-0.052359648
70	0x3c2f51e8	0.01070068
71	0x3e050a1b	0.12992136
72	0x3d8be4dd	0.068307616
73	0x3dc26b18	0.09493083
74	0xbe01a58a	-0.12660804
75	0x3d5f1130	0.05445975
76	0xbe479ad4	-0.19492656
77	0x3e14d5ea	0.14534727
78	0xbbce616f	-0.006298236
79	0xbdd3b45c	-0.10337135
80	0x3bfe514e	0.007761157
81	0x3d908c43	0.07058003
82	0xbeab5ef2	-0.33470875
83	0xbe90d95a	-0.28290826
84	0xbe3aee80	-0.18255043
85	0xbd2bd51b	-0.04195128
86	0xbb9df1fb	-0.004820106
87	0xbd9e79d1	-0.077380784
88	0xbdf72e34	-0.120693594
89	0xbd96cae9	-0.07362921
90	0x3ddc8690	0.10767853
91	0xbd9641e0	-0.073367834
92	0x3d69d1a8	0.05708471
93	0x3c1adb39	0.009451681
94	0xbdc74ce6	-0.09731464
95	0xbd826da1	-0.06368566
96	0xbd92a61d	-0.0716059
97	0xbdc5262d	-0.09626422
98	0xbdc77b0d	-0.09740267
99	0x3db15c1f	0.08660149
100	0xbdb22c1e	-0.08699821
101	0xbeb5a2e2	-0.35475832
102	0x3e65897d	0.22415729
103	0x3da32128	0.079653084
104	0x3e8b2e14	0.27183592
105	0xbe15960e	-0.14608023
106	0x3d8eac49	0.069664545
107	0xbeac2724	-0.33623612
108	0xbe064ad8	-0.13114488
109	0xbd861bd2	-0.06548275
110	0xbf00dc6d	-0.50336343
111	0xbf15927a	-0.5842663
112	0xbeda8303	-0.4267808
113	0xbe45d179	-0.19318189
114	0xbdfce096	-0.12347524
115	0xbf11024f	-0.5664415
116	0xbef32945	-0.47492424
117	0xbf239f2f	-0.6391477
118	0xbf03906d	-0.5139225
119	0xbe260cd6	-0.16215834
120	0xbe8a9ae0	-0.27071285
121	0xbe1832c9	-0.14863123
122	0xbe6995a9	-0.22810997
123	0xbe07aa17	-0.13248478
124	0x3d15d969	0.03658429
125	0x3e27a500	0.16371536
126	0x3c1b26aa	0.009469667
127	0xbd99c93f	-0.07509088
128	0xbd42493c	-0.047433123
129	0x3cddc960	0.027073562
130	0xbe5935ee	-0.21211979
131	0xbe09a12a	-0.13440385
132	0x3c2df523	0.010617527
133	0x3dcf854b	0.101328455
134	0x3d5a4cc9	0.053295884
135	0x3e0c60c0	0.13708782
136	0x3e14604b	0.14489858
137	0x3df7f8b4	0.12107983
138	0x3e453604	0.19258887
139	0x3bdc7e69	0.0067289365
140	0x3e9af804	0.30267346
141	0xbd2370da	-0.039902546
142	0x3e50bc6a	0.20384374
143	0xbd103555	-0.03520711
144	0xbda87271	-0.08224953
145	0xbcf67a6c	-0.030087672
146	0x3c84d58e	0.016215112
147	0xbdb9513d	-0.09048698
148	0xbeca167a	-0.39470273
149	0xbef1d27d	-0.47230902
150	0x3c664f2f	0.014056965
151	0xbed08925	-0.40729633
152	0xbda01e7a	-0.07818313
153	0xbe3e3f7c	-0.18578905
154	0xbe2d8061	-0.16943504
155	0x3dcd30fd	0.100191094
156	0x3e06ad54	0.13152057
157	0x3e830594	0.25590193
158	0xbdeaa8e4	-0.114579946
159	0xbdb83012	-0.08993544
160	0xbe05730a	-0.13032165
161	0x3dbac57f	0.09119701
162	0xbe09d669	-0.13460697
163	0x3c76524e	0.015034271
164	0x3d84413a	0.064577535
165	0x3dcbb868	0.09947282
166	0x3e25a681	0.16176797
167	0x3dacad27	0.08431464
168	0xbbde5bb2	-0.0067858333
169	0x3d49757d	0.04918431
170	0x3e46f1da	0.19428197
171	0xbd7275a7	-0.059194233
172	0x3e48b18a	0.19598976
173	0x3d6398ba	0.055565573
174	0x3e991799	0.29900816
175	0xbdf68401	-0.120368965
176	0x3e79e774	0.24404699
177	0x3c9ee829	0.019397812
178	0xbdded39a	-0.108802035
179	0x3b6d1428	0.0036175344
180	0x3d7105e7	0.05884352
181	0x3e690296	0.22754893
182	0xbe773688	-0.24141896
183	0xbdc92d43	-0.09823086
184	0xbcf977ff	-0.030452726
185	0xbd8e9bee	-0.06963335
186	0x3db8f5b2	0.09031238
187	0x3e04b1e5	0.12958486
188	0xbe040e54	-0.12896091
189	0xbdc7c8fc	-0.097551316
190	0xbdcec13c	-0.1009545
191	0xbe60b0d5	-0.21942456
192	0xbe70fbd5	-0.23533566
193	0x3cb91d14	0.022596873
194	0xbc76794b	-0.015043567
195	0x3d8fef75	0.07028095
196	0x3dbdcd3b	0.0926766
197	0x3dacbdbb	0.08434626
198	0xbe57a9a1	-0.21060802
199	0xbda48603	-0.08033373
200	0xbdad03f4	-0.084480196
201	0xbd723178	-0.05912921
202	0xbdcb0ec1	-0.099149235
203	0xbd999b21	-0.075002916
204	0xbd435d5b	-0.047696453
205	0xbe10da04	-0.14145666
206	0xbe4d3d7e	-0.20042989
207	0xbcbcf6f5	-0.023066977
208	0xbe6f9a55	-0.23398717
209	0x3e313a1b	0.17307322
210	0xbe825dc3	-0.2546216
211	0xbe0595e4	-0.1304546
212	0xbdec8be4	-0.115501195
213	0x3d30a7e0	0.043128848
214	0x3c7c96b1	0.015416787
215	0xbd2986ad	-0.041388202
216	0x3d7f2c59	0.062298153
217	0xbe4e52ff	-0.20148848
218	0xbd75487e	-0.059883587
219	0xbec84b90	-0.3912015
220	0xbec37416	-0.38174504
221	0xbe268358	-0.16261041
222	0xbd249b80	-0.04018736
223	0xbe184fca	-0.14874187
224	0xbe60ace2	-0.2194095
225	0xbe03f542	-0.12886527
226	0xbe948024	-0.29004014
227	0xbde49120	-0.11160493
228	0xbd506d47	-0.050885465
229	0xbf2f2558	-0.6841636
230	0xbf13d167	-0.577414
231	0xbf00e632	-0.5035125
232	0x3e00f0b2	0.12591818
233	0xbd98bf45	-0.07458357
234	0xbe49ee7d	-0.19719882
235	0xbd048251	-0.032350842
236	0x3ca0497e	0.019566294
237	0xbc10488e	-0.008806361
238	0x3d950d1f	0.07277893
239	0x3e21f16a	0.15814748
240	0x3cf2a6ad	0.029620493
241	0x3e91ca06	0.28474444
242	0xbc2fa255	-0.010719855
243	0xbd8d1f26	-0.06890707
244	0xbdfde503	-0.12397196
245	0xbe1ca109	-0.15295805
246	0xbe07fdec	-0.13280457
247	0x3e1ab3b9	0.15107621
248	0xbe622cb9	-0.22087373
249	0xbe232397	-0.15931545
250	0xbe1b59e2	-0.15171006
251	0xbe4571b3	-0.19281654
252	0xbcd8eaeb	-0.026479205
253	0xbd6ea0bf	-0.05825877
254	0xbe32c333	-0.17457275
255	0xbd32cd1e	-0.043652646

fc1.bias f4 [64]
0	0xbea29f99	-0.31762388
1	0xbf5b365a	-0.8562981
2	0xbe1e3703	-0.15450673
3	0xbeb34054	-0.35010016
4	0xbe02ab50	-0.12760663
5	0x3e123df1	0.14281441
6	0xbe6d8a3b	-0.23197262
7	0xbea90ac7	-0.33016035
8	0xbeebd017	-0.46057197
9	0xbdeda0a9	-0.11602909
10	0x3eb84baf	0.35995242
11	0xbe87ac1a	-0.2649849
12	0x3ecea103	0.40357217
13	0x3e165c1d	0.14683576
14	0xbf004239	-0.5010105
15	0xbef88d0a	-0.48545104
16	0x3f01c4e4	0.50691056
17	0xbd3da20f	-0.04629713
18	0xbf2381d4	-0.63869977
19	0x3e38a1bf	0.18030451
20	0x3cf49fb7	0.029861314
21	0xbe55f841	-0.20895483
22	0xbeb9a024	-0.3625499
23	0xbe2f0182	-0.17090419
24	0xbeed6980	-0.46369553
25	0xbe903e14	-0.28172362
26	0x3ee71a66	0.45137328
27	0x3efb2a78	0.4905584
28	0xbe39c34b	-0.18140905
29	0xbe64866f	-0.22316907
30	0x3d9f054f	0.077646844
31	0x3c541566	0.012944555
32	0xbe82dd32	-0.25559384
33	0xbe9a423a	-0.30128652
34	0x3f0cde1e	0.55026424
35	0xbe8cb22b	-0.2747968
36	0xbed18d0c	-0.40927923
37	0xbec363ba	-0.38162023
38	0xbea0ab34	-0.31380618
39	0x3de15275	0.110020556
40	0xbe7ea521	-0.24867679
41	0x3d351c6f	0.04421657
42	0xb9c724bb	-0.00037983604
43	0xbf111ec0	-0.56687546
44	0xbf209d75	-0.6274026
45	0xbef8381f	-0.48480317
46	0xbe0be1f1	-0.13660409
47	0xbe96c418	-0.29446483
48	0xbe8b2686	-0.2717783
49	0xbecdc663	-0.4019042
50	0x3ee7cfff	0.45275876
51	0xbf5fe56c	-0.87459445
52	0x3d782efa	0.060591675
53	0xbe891644	-0.267748
54	0xbe6f0198	-0.23340452
55	0xbec5d934	-0.38642275
56	0xbf1f2cf3	-0.6217796
57	0x3ecc54f6	0.3990857
58	0xbe6ee6d2	-0.23330238
59	0x3da23728	0.079206765
60	0xbe823ebb	-0.25438485
61	0x3f00b936	0.5028261
62	0xbe78d2db	-0.24299185
63	0x3eea501f	0.45764253

fc2.weight f4 [64, 9]
0	0xbd463941	-0.048394445
1	0x3e45c365	0.19312818
2	0x3e506edd	0.20354791
3	0xbe5c62fa	-0.21522132
4	0xbe4cc232	-0.19995955
5	0xbe68ea1a	-0.22745553
6	0xbd6dda6c	-0.05806963
7	0x3b201b99	0.0024430512
8	0x3e9149be	0.28376573
9	0xbe00d96d	-0.12582941
10	0xbe2df65d	-0.16988511
11	0x3f1eb219	0.61990505
12	0x3f32ef58	0.6989646
13	0x3dc2de0b	0.095150076
14	0xbdad941d	-0.08475516
15	0xbe415bc5	-0.18882664
16	0xbe2a47e3	-0.16628985
17	0x3d8b91b9	0.06814904
18	0x3aa72734	0.0012752772
19	0x3e5ec296	0.21753916
20	0xbce76fa9	-0.028251486
21	0x3ec593d2	0.3858934
22	0x3e952e44	0.2913686
23	0x3dfb38e7	0.12266713
24	0xbdb29e0c	-0.08721551
25	0x3e003398	0.12519681
26	0x3eb68e91	0.35655645
27	0x3c9e565a	0.019328285
28	0x3dac8b5f	0.084250204
29	0xbe853d37	-0.26023266
30	0x3e3c55e6	0.18392143
31	0xbeb190f5	-0.34680906
32	0xbd3434ad	-0.043995548
33	0x3e91c315	0.28469148
34	0x3cc51bbf	0.024061082
35	0x3e90e528	0.28299832
36	0xbe805618	-0.25065684
37	0x3eb045f6	0.34428376
38	0x3e64cf4f	0.22344707
39	0x3eda5bc0	0.42648125
40	0x3e670df1	0.22563912
41	0xbe8e815f	-0.27833077
42	0x3ea72c9f	0.3265123
43	0xbe2cffa4	-0.16894394
44	0xbebefcbc	-0.37302196
45	0x3e258741	0.16164877
46	0xbec5fda3	-0.38670072
47	0x3d91d9e5	0.07121638
48	0x3d18b626	0.037283085
49	0xbe6bd0c0	-0.2302885
50	0xbe9f024b	-0.31056437
51	0x3d56751d	0.05235778
52	0x3e4b5e9b	0.19860308
53	0xbf50987d	-0.8148268
54	0xbdcddadd	-0.100515105
55	0x3e6520a8	0.22375739
56	0xbed74eff	-0.42052457
57	0xbf50e3e3	-0.8159773
58	0x3ceadf57	0.02867095
59	0xbe11ddb2	-0.14244726
60	0x3d8e0f15	0.069364704
61	0xbe8bce14	-0.27305663
62	0xbd4caf8b	-0.0499721
63	0x3e659448	0.22419846
64	0xbcc5822f	-0.024109928
65	0xbe1856b1	-0.1487682
66	0xbf119405	-0.56866485
67	0xbe5ea32d	-0.21741934
68	0xbeb77927	-0.3583462
69	0xbe47170f	-0.1944239
70	0x3ed5d78e	0.41766018
71	0xbe4d8e56	-0.20073828
72	0x3e901813	0.28143367
73	0x3ec91572	0.39274174
74	0x3e996b4d	0.29964676
75	0xbdeeb3ce	-0.11655389
76	0xbc3cf189	-0.011532196
77	0x3e9e9c09	0.3097842
78	0x3eb67614	0.3563696
79	0x3ec06527	0.37577173
80	0x3e50fcf6	0.20408997
81	0x3daed264	0.085362226
82	0x3da42be5	0.08016185
83	0x3f4ef807	0.8084721
84	0x3ed1d012	0.40979058
85	0xbe8d7f84	-0.2763635
86	0x3e1b8942	0.15189078
87	0xbdd2bc0b	-0.102897726
88	0x3e919f9d	0.28442088
89	0xbd689a3e	-0.05678772
90	0xbead33ff	-0.33828732
91	0xbee60e40	-0.44932747
92	0x3dec26b3	0.11530819
93	0xbd8222fb	-0.06354328
94	0xbec3d4eb	-0.3824838
95	0xbe427ab9	-0.18992127
96	0x3ecde1b5	0.40211263
97	0xbe7ca466	-0.24672088
98	0xbe25c387	-0.16187869
99	0xbe75ad66	-0.23991928
100	0xbeba4a66	-0.36384887
101	0x3eafc90b	0.3433307
102	0x3f3b0b49	0.73064095
103	0xbd91017a	-0.0708036
104	0x3d62be95	0.055357534
105	0x3d8f9344	0.070105106
106	0xbe6a9c3f	-0.22911166
107	0x3e8fc76d	0.28081837
108	0xbe8013b8	-0.25015044
109	0xbeae9e1a	-0.34104997
110	0x3f10fc56	0.56635034
111	0x3f528557	0.8223471
112	0x3d8f5ea7	0.070004754
113	0xbcb88493	-0.022524154
114	0xbe91da11	-0.28486684
115	0x3e74147b	0.23835938
116	0xbe6d27ac	-0.23159665
117	0xbe98cd83	-0.29844293
118	0x3e9c4faa	0.3052953
119	0x3e89da32	0.26924282
120	0x3dbc26f2	0.09187116
121	0xbe54aef7	-0.20769869
122	0x39dff468	0.0004271597
123	0x3dfcc214	0.12341705
124	0xbddd9d72	-0.10821046
125	0x3e427bab	0.18992488
126	0xbe7a8d61	-0.24467994
127	0xbe82fb1d	-0.2558221
128	0xbefefb09	-0.498009
129	0xbced225f	-0.028947053
130	0xbdd8923e	-0.105747685
131	0xbdc5b4c6	-0.096536204
132	0xbe74fc2d	-0.23924322
133	0xbe286b0a	-0.16447082
134	0x3b9f352e	0.0048586344
135	0xbaebca3f	-0.0017989351
136	0x3dfc22ce	0.12311326
137	0xbeddc1a4	-0.433118
138	0xbefd1bad	-0.49435177
139	0x3eb4e6b2	0.35332257
140	0x3e41baa0	0.18918848
141	0xbe354624	-0.17702538
142	0xbd956766	-0.07295112
143	0x3ebcdc40	0.36886787
144	0x3de17130	0.11007917
145	0xbe4ab5a6	-0.19795856
146	0x3f05b6d4	0.522321
147	0x3ea4d45d	0.3219327
148	0x3db064d4	0.086129814
149	0xbe41f18b	-0.18939798
150	0xbdb1a408	-0.086738646
151	0xbe9a24bc	-0.3010615
152	0xbebbf572	-0.36710697
153	0x3e8d5d2a	0.2761014
154	0x3ebe4565	0.3716232
155	0x3f0e1486	0.55500066
156	0x3f33b096	0.70191324
157	0x3e6e12e6	0.23249397
158	0x3ed96eb1	0.42467263
159	0xbd354bee	-0.044261865
160	0xbeb95015	-0.3619391
161	0xbeb541c3	-0.35401735
162	0xbe6b2467	-0.22963105
163	0x3d41f141	0.04734922
164	0xbe50928f	-0.20368408
165	0xbef7f0f5	-0.48426023
166	0x3e109641	0.14119817
167	0x3e9f2cbe	0.31088823
168	0xbe83022a	-0.2558759
169	0x3ea91ed8	0.33031344
170	0xbf01542b	-0.50519055
171	0xbdf12bc6	-0.11775927
172	0x3edfbd32	0.43699032
173	0x3edc32c0	0.4300747
174	0x3f151ff1	0.58251864
175	0x3e6b6584	0.22987944
176	0x3e41cd7a	0.1892604
177	0x3e794ccb	0.243457
178	0xbea5d9be	-0.32392687
179	0x3ec03a35	0.37544408
180	0xbcdae8d7	-0.026722355
181	0x3ebfe561	0.3747969
182	0x3ef62613	0.48075923
183	0xbdb7aaf7	-0.08968156
184	0x3ea9db8e	0.3317532
185	0xb940ab94	-0.00018374465
186	0xbc5ea83b	-0.013589914
187	0x3db25a1a	0.08708592
188	0x3d9d688d	0.07685957
189	0xbe5735cd	-0.21016617
190	0x3e0d778e	0.13815138
191	0xbeb213a5	-0.34780613
192	0x3eb4d616	0.35319585
193	0x3db5a81b	0.08869954
194	0xbe1f640d	-0.1556551
195	0x3d76adbc	0.06022428
196	0xbde06be5	-0.10958079
197	0x3ea8754f	0.32902
198	0x3ec1eb38	0.3787477
199	0xbe512aca	-0.20426479
200	0xbde4522d	-0.11148486
201	0xbd0f5c46	-0.03500011
202	0x3ed8831d	0.42287531
203	0x3e541642	0.20711616
204	0xbea547f0	-0.32281446
205	0x3ef793b7	0.48354885
206	0xbe5f5708	-0.21810544
207	0x3e8f72a6	0.28017157
208	0x3e0fff5a	0.14062253
209	0xbe59d29f	-0.21271752
210	0xbccc9b3c	-0.024976365
211	0xbe53e7b6	-0.2069386
212	0x3e3a0a68	0.18168032
213	0x3ee1c219	0.44093397
214	0xbec57c35	-0.38571325
215	0x3c84ba6e	0.016202178
216	0xbdd8619b	-0.10565492
217	0x3e8252b9	0.25453737
218	0x3f36f437	0.7146639
219	0x3ee11cb3	0.43967208
220	0x3eca3347	0.39492247
221	0x3dc4a5a4	0.09601906
222	0x3db14486	0.08655648
223	0x3ecbf814	0.39837706
224	0x3d92e1d7	0.07171982
225	0xbd48af06	-0.04899504
226	0x3df1b02d	0.11801181
227	0x3f361a15	0.7113355
228	0x3f546fea	0.8298327
229	0x3e173aaa	0.14768472
230	0xbd9fc4cc	-0.07801208
231	0x3ebed02d	0.372682
232	0x3d3f6c9d	0.04673444
233	0xbf0ec3a1	-0.55767256
234	0x3e37bbd4	0.17942744
235	0xbe9566fe	-0.2918014
236	0x3f0ef2b5	0.5583909
237	0xbe89526c	-0.26820695
238	0xbde609a1	-0.11232305
239	0xbc73d3c7	-0.014882035
240	0x3da92f66	0.08260994
241	0xbe749f1a	-0.23888817
242	0xbe92f22d	-0.2870039
243	0x3eb3bab3	0.35103378
244	0xbc80e585	-0.015734443
245	0x3e046f26	0.12933025
246	0xbe989766	-0.29803008
247	0x3e2ddb1b	0.16978113
248	0xbdb7e63e	-0.08979462
249	0x3ebf92b1	0.37416604
250	0xbe889e89	-0.26683453
251	0xbedc3822	-0.43011576
252	0x3e91e877	0.2849767
253	0x3ea48884	0.32135403
254	0x3eaffc46	0.34372157
255	0x3db4d8c8	0.0883041

fc2.bias f4 [64]
0	0x3e713948	0.23557007
1	0x3eaab9bd	0.33344832
2	0xbe52bc23	-0.20579581
3	0x3e8fa7af	0.2805762
4	0x3e2907f7	0.16506945
5	0x3e87e7e0	0.26544094
6	0xbe85163d	-0.2599353
7	0x3ed95dbe	0.42454332
8	0x3c04242a	0.008065263
9	0xbde257eb	-0.11051925
10	0x3ddea45a	0.10871191
11	0xbe14443b	-0.14479153
12	0x3ea2a205	0.31764236
13	0xbe5454dd	-0.20735498
14	0x3e353ca4	0.17698914
15	0x3e5eac36	0.21745381
16	0x3d9da511	0.076974995
17	0xbd187663	-0.037222277
18	0xbe1781fa	-0.14795676
19	0x3d808ba8	0.06276637
20	0x3d9b2689	0.075757094
21	0x3eb32036	0.34985512
22	0xbe5a33f1	-0.21308877
23	0x3ea21189	0.31654003
24	0xbe50d3ef	-0.20393346
25	0x3e4a4396	0.19752344
26	0x3e4e4488	0.2014333
27	0x3dc1b1f3	0.09457769
28	0x3da7ff68	0.08203012
29	0xbdf6b8b5	-0.12046949
30	0x3eb72561	0.35770705
31	0xbe9966d9	-0.2996128
32	0x3ebfdadc	0.37471664
33	0x3e921e51	0.28538755
34	0xbe6258b3	-0.22104149
35	0xbe6e87ba	-0.23293963
36	0xbe04da01	-0.12973787
37	0x3e86789c	0.26263893
38	0x3e21a370	0.15785003
39	0x3e61beee	0.2204549
40	0x3e3e0078	0.18554866
41	0xbd90ad27	-0.07064276
42	0x3e812428	0.25222898
43	0x3e85e61c	0.26152122
44	0x3d3652e9	0.044512663
45	0x3dac4298	0.08411139
46	0x3ebd73e8	0.37002492
47	0xbe4026ce	-0.18764803
48	0xbba0a1f7	-0.00490212
49	0xbec537f0	-0.3851924
50	0x3ea0445a	0.31302148
51	0xbe8b922c	-0.27259958
52	0x3e35ceed	0.17754717
53	0xbe6a7e22	-0.22899678
54	0xbdd2b669	-0.10288698
55	0x3daeda0d	0.08537684
56	0x3ea6086f	0.3242831
57	0x3a6ca994	0.00090279547
58	0xbb46f731	-0.003035974
59	0x3ec66426	0.38748282
60	0x3e613125	0.21991403
61	0x3d59fd69	0.053220186
62	0xbe6328ac	-0.22183484
63	0xbc5644ca	-0.013077924

embedding.weight f4 [2, 64]
0	0xbf60998f	-0.8773431
1	0xbf9e5a0a	-1.2371228
2	0x40106e65	2.256738
3	0x3fb3d7d3	1.4050239
4	0x3f99617f	1.1982878
5	0xbf2e09a4	-0.6798346
6	0x3f9a9d85	1.2079321
7	0xbd900f32	-0.07034148
8	0xbf17cd82	-0.59297955
9	0xc02857c0	-2.6303558
10	0xbe8cdfa4	-0.27514374
11	0x3f0f7f37	0.5605349
12	0x3f3511e6	0.70730436
13	0x3f864e19	1.0492584
14	0x4018ba44	2.3863688
15	0xbfa9ae6b	-1.3256353
16	0xbf5cb4e5	-0.86213523
17	0xbf2a283d	-0.6646765
18	0x3f9d7fd2	1.2304633
19	0xbf2bdda1	-0.67135054
20	0xbfa7ba29	-1.3103687
21	0x3f1003d7	0.5625586
22	0x3ec1f332	0.37880856
23	0xbf6b12a1	-0.918253
24	0x3fbb9a15	1.4656397
25	0x3f9cd9f9	1.225402
26	0xbf14d189	-0.58132225
27	0xbec1e6e4	-0.37871468
28	0xbe672e0a	-0.22576156
29	0x3f941b1f	1.1570777
30	0x3d1e5798	0.038657755
31	0x3ef3443f	0.47513005
32	0xbe551b80	-0.20811272
33	0xbf495f27	-0.78660816
34	0x3ffca1ee	1.9736917
35	0xbfa1f681	-1.2653352
36	0xbff9f7de	-1.9528768
37	0x3fa7feb4	1.3124604
38	0xbffe6a5a	-1.9876206
39	0x3d61c353	0.055117916
40	0xbff78d07	-1.9339913
41	0xbf9e3abe	-1.2361677
42	0x3f51c639	0.8194309
43	0x3e3f18ef	0.18661855
44	0xbf00ff7b	-0.5038983
45	0xbe90eb2c	-0.28304422
46	0x3f8c8d8c	1.0980697
47	0x3ed73170	0.42029905
48	0xbec73ede	-0.3891515
49	0x3ea06199	0.3132446
50	0xbfc83e28	-1.5643969
51	0x3e9f646d	0.31131306
52	0xc00521c7	-2.0801866
53	0xbfaa1633	-1.3288025
54	0x3f940326	1.1563461
55	0x3e519e51	0.20470549
56	0x3ef2c264	0.47413933
57	0xbfc32429	-1.524541
58	0xbf67a365	-0.90483695
59	0xbda92a6e	-0.08260046
60	0xbe9beba7	-0.30453226
61	0xc0242669	-2.5648444
62	0xc004f0bd	-2.0771935
63	0x3fcd9b6b	1.6063055
64	0xbefb89f8	-0.491287
65	0x3f86d743	1.0534443
66	0xbf84d669	-1.0377933
67	0xbfb0d86f	-1.381605
68	0xbf3c8761	-0.7364407
69	0xbf240e9a	-0.6408478
70	0x3f66302e	0.89917266
71	0xbf65d3d6	-0.8977636
72	0xbe3f3ff4	-0.1867674
73	0x3f5a2c27	0.8522362
74	0xc0153f17	-2.3319757
75	0xbff81110	-1.9380207
76	0x3f23400b	0.63769597
77	0x3fac625f	1.346752
78	0xbdabc539	-0.083872266
79	0xbea12154	-0.3147074
80	0x3e48fd7c	0.19627947
81	0xbea9a7d1	-0.33135846
82	0x3f3d2628	0.73886347
83	0xbfcac328	-1.5840807
84	0xbe80cbf3	-0.251556
85	0xbf2e24f7	-0.68025154
86	0x3f3b8677	0.7325205
87	0x3f9408ed	1.1565224
88	0xbd63d2f6	-0.05562111
89	0x3fd6d8d4	1.6784921
90	0xbe83e936	-0.25763863
91	0xbe6e4dd0	-0.2327187
92	0xbde21a88	-0.11040217
93	0x3fedf9d6	1.8591869
94	0x3fe406d4	1.7814584
95	0x3e82e849	0.25567845
96	0x3dc79e27	0.09746962
97	0xbfe30899	-1.7736999
98	0x3f4a63f9	0.79058796
99	0x3e9b528d	0.3033642
100	0x3e4fb184	0.2028256
101	0x3ea986d6	0.33110684
102	0xbe8c0308	-0.27346063
103	0x3ef30992	0.4746824
104	0xbefcee7d	-0.49400702
105	0x3f63c780	0.8897629
106	0x3fb1b34d	1.3882843
107	0x3f7fdb75	0.9994424
108	0x3fbe3931	1.4861203
109	0x3ed3661f	0.4128885
110	0x3fa36744	1.2765889
111	0x3f44eaac	0.7692058
112	0xbfe35304	-1.7759709
113	0xbee2bef9	-0.44286326
114	0x400912a4	2.1417627
115	0xc01b8627	-2.430063
116	0xbfdf0412	-1.7423117
117	0x3fe4cbae	1.7874658
118	0xbeb0c229	-0.34523132
119	0x3ee03e83	0.43797693
120	0x3f70c9f0	0.9405813
121	0x3f34947e	0.7053908
122	0xbf142463	-0.5786802
123	0xbe9926be	-0.2991237
124	0xbf9b3c13	-1.2127708
125	0xbf7b1bfb	-0.9808957
126	0x3fd153f0	1.6353741
127	0x3e29865b	0.16555159

adaLN_modulation.1.weight f4 [128, 64]
0	0x3c2d0772	0.010560857
1	0x3da4d191	0.08047784
2	0xbd8477cb	-0.06468161
3	0x3cea18c6	0.028576266
4	0xbcda97ab	-0.026683649
5	0x3e226e11	0.158623
6	0x3d9872ef	0.07443797
7	0x3e126e6a	0.14299932
8	0x3d16df2c	0.036833927
9	0xbdac36ff	-0.08408927
10	0x3db5267e	0.088452324
11	0x3d97035c	0.073736876
12	0xbcc5aa29	-0.02412899
13	0x3ca99ce0	0.020704687
14	0xbdc9f422	-0.09861018
15	0x3e0012ff	0.12507246
16	0x3d1e46fa	0.038641907
17	0x3c1fd7d0	0.009756044
18	0x3e3d4343	0.1848269
19	0xbd0a16a3	-0.033712994
20	0x3d213335	0.039355475
21	0xbd535211	-0.051591936
22	0xbc345d4d	-0.011008573
23	0x3d1d87e1	0.038459662
24	0xbdcf90a3	-0.10135009
25	0x3c576e39	0.013148838
26	0x3d76dd42	0.0602696
27	0x3df1c233	0.11804619
28	0x3db8f945	0.090319194
29	0x3b0dac3f	0.002161756
30	0x3d556de5	0.052106757
31	0x3d603ac6	0.05474355
32	0xbce421af	-0.027848093
33	0xbd0e29f0	-0.034707963
34	0xbcc22b5e	-0.02370232
35	0xbd7cf2e5	-0.06175508
36	0x3c744684	0.01490939
37	0xbd4b69b0	-0.04966134
38	0xbdbd34c7	-0.09238582
39	0xbda7d83d	-0.08195541
40	0xbd5448e2	-0.05182732
41	0xbc9df87d	-0.019283528
42	0x3dfdaf28	0.12386924
43	0x3d9f27bb	0.0777125
44	0x3d95b253	0.07309403
45	0x3c81ec5d	0.015859777
46	0x3d206f1c	0.039168462
47	0xbd185db3	-0.037198734
48	0x3bd924d8	0.0066267066
49	0x3d93b8a6	0.07212953
50	0xbdb2731a	-0.0871336
51	0x3d9f9dde	0.07793783
52	0x3d545f53	0.05184872
53	0x3c966b4c	0.01836171
54	0x3c03d819	0.008047127
55	0xbd349b69	-0.044093523
56	0x3cffe5aa	0.031237442
57	0x3ccad94f	0.024761824
58	0xbcc3d3f1	-0.023904772
59	0xbcbf59ac	-0.023358189
60	0xbbcac9ce	-0.006188608
61	0xbdbaabd0	-0.09114802
62	0xbd8816cf	-0.066449754
63	0x3d9a78f6	0.07542603
64	0xbbbd91da	-0.005785209
65	0x3de83046	0.113373324
66	0xbd68039a	-0.05664406
67	0xbe035836	-0.12826619
68	0xbd6d188d	-0.05788474
69	0x3e3d820c	0.1850664
70	0xbd8d248d	-0.06891737
71	0x3dba2d33	0.09090652
72	0x3e11e0dd	0.14245935
73	0xbcf1830a	-0.02948143
74	0xbdc2be23	-0.09508922
75	0xbdabd488	-0.083901465
76	0x3e03963f	0.12850283
77	0xbddedaba	-0.108815625
78	0xbdab8504	-0.0837498
79	0x3e3914de	0.18074366
80	0x3e0d4924	0.13797432
81	0xbd2707b1	-0.04077882
82	0xbc2073a8	-0.0097932
83	0x3dc5e26e	0.09662329
84	0x3d12f515	0.03587826
85	0xbe2acd54	-0.16679889
86	0xbbc0d104	-0.0058842916
87	0xbe21ecc3	-0.15812974
88	0x3d5c3af8	0.053767174
89	0xbd37cad1	-0.044871155
90	0xbdcfe8c7	-0.10151821
91	0xbc1107f8	-0.008851998
92	0x3d638f7d	0.055556763
93	0x3ca8e907	0.020618929
94	0x3d5fbafb	0.054621678
95	0x3df7f8c1	0.12107993
96	0x3df0d97d	0.117602326
97	0xbe59a57e	-0.21254537
98	0xbdaa5233	-0.083164595
99	0x3c1bdb59	0.009512746
100	0xbda2d50e	-0.07950793
101	0x3dbc116d	0.09183011
102	0xbda98927	-0.08278113
103	0xbc260a6a	-0.010134319
104	0xbdaa9030	-0.08328283
105	0x3ce6d39a	0.028177071
106	0x3df9f803	0.122055076
107	0xbe052397	-0.13001858
108	0x3c810896	0.015751164
109	0x3db13f79	0.086546846
110	0x3a8707f7	0.0010302056
111	0x3d5f657a	0.054540135
112	0xbdaf8186	-0.085696265
113	0x3d8a4dcc	0.0675312
114	0xbdf52231	-0.11969412
115	0x3c279bc1	0.010230006
116	0xbd8f5520	-0.06998658
117	0xbe287d34	-0.16454011
118	0xbda5c7a6	-0.080947205
119	0x3de0466b	0.10950931
120	0xbe0468ac	-0.12930554
121	0xbde4f0dc	-0.11178753
122	0x3e090ef5	0.13384612
123	0x3d5c1301	0.05372906
124	0xbdcfe2e6	-0.10150699
125	0xbe02337a	-0.12714949
126	0x3cfb4dfe	0.030676838
127	0xbd320339	-0.043460105
128	0xbd09697a	-0.033547856
129	0x3cc9c242	0.024628762
130	0x3c0ad0be	0.00847262
131	0x3cad9379	0.021188485
132	0xbd0d217c	-0.03445576
133	0x3d90dc43	0.070732616
134	0x3d34f8ec	0.044182703
135	0xbcf8a644	-0.03035272
136	0xbbfa0f51	-0.0076312204
137	0x3a00c8d9	0.0004912741
138	0xbe0552b7	-0.13019834
139	0xbd747e5e	-0.059690826
140	0xbd61ff61	-0.05517519
141	0x3d9b6cb5	0.075890936
142	0x3da2b15c	0.07943985
143	0x3e0002c8	0.12501061
144	0x3d00c192	0.031434603
145	0x3d8f7f7a	0.07006736
146	0xbda51af8	-0.080617845
147	0x3e385e20	0.18004656
148	0xbd0bad98	-0.0341011
149	0x3d7c66cc	0.061621472
150	0x3d54f464	0.05199088
151	0x3d8f09b4	0.069842726
152	0x3d1fe5a4	0.03903736
153	0x3cb1003e	0.02160656
154	0xbcffaf3c	-0.031211488
155	0xbc3cf1e4	-0.011532281
156	0xbdc3da63	-0.09563138
157	0xbdca80e1	-0.09887863
158	0xbc728f49	-0.01480467
159	0xbbaa09c3	-0.005189152
160	0x3bc0bd94	0.0058819745
161	0x3d817b07	0.06322294
162	0xbdacbe81	-0.08434773
163	0x3ccdd838	0.025127515
164	0xbcc58522	-0.024111334
165	0xbe09c10b	-0.13452546
166	0x3e08da19	0.13364448
167	0xbde775d4	-0.11301771
168	0xbda6e59c	-0.08149263
169	0x3c8104e6	0.015749406
170	0xbdbf8405	-0.093513526
171	0x3de0fa6b	0.109852634
172	0xbdb5cc13	-0.08876815
173	0xbe16ce48	-0.14727128
174	0xbd6bb025	-0.05754103
175	0xbd8e383e	-0.06944321
176	0x3d923b49	0.07140214
177	0x3ce0c0d6	0.027435701
178	0xbdc86940	-0.097857
179	0x3df2a2ae	0.11847435
180	0xbcf88006	-0.030334484
181	0x3d017ea1	0.031614903
182	0xbceb4b7d	-0.028722519
183	0x3c8b259f	0.016985713
184	0xbb35ffb9	-0.002777083
185	0x3bd49fe7	0.0064887884
186	0xbd895cbb	-0.0670714
187	0xbddd98d1	-0.10820163
188	0xbd00d266	-0.03145065
189	0x3d89aa26	0.06721906
190	0x3d8122cd	0.06305466
191	0xbd07f59a	-0.03319321
192	0x3d18de6c	0.037321493
193	0xbe036f5a	-0.12835446
194	0xbcaa3916	-0.020779174
195	0xbd791b66	-0.060817145
196	0xbd89ff43	-0.067381404
197	0x3e3076a9	0.17232765
198	0xbc2bbf9a	-0.010482693
199	0x3de8c549	0.11365754
200	0xbb663fb8	-0.0035133194
201	0x3cc82621	0.024432244
202	0x3e2d75e0	0.16939497
203	0x3d4c501c	0.049881086
204	0xbdc92263	-0.09821012
205	0x3c200911	0.009767787
206	0x3d9053df	0.07047247
207	0xbca54d7b	-0.020178547
208	0x3cecd93c	0.02891218
209	0x3c8b0de1	0.016974391
210	0xbd13f0a4	-0.036118165
211	0xbde73dc5	-0.112910785
212	0x3d03b57a	0.03215549
213	0xbe0089c8	-0.1255256
214	0x3dd7708a	0.10519512
215	0x3d95e3f6	0.07318871
216	0x3d6fe0b0	0.058563888
217	0xbde1b935	-0.110216536
218	0x3e2b320e	0.16718313
219	0x3d8d90fa	0.06912418
220	0x3d28e76e	0.041236334
221	0xbd69d6b3	-0.05708952
222	0x3aa19388	0.0012327293
223	0x3da6eb15	0.08150307
224	0xbd4ac3da	-0.049503185
225	0x3e3617cd	0.17782517
226	0xbbac50af	-0.0052586417
227	0xbd5859d7	-0.052820053
228	0x3ca164f5	0.01970146
229	0x3d150693	0.036383223
230	0xbd6bd277	-0.05757376
231	0xbdcb9719	-0.09940929
232	0x3c9856cf	0.018596081
233	0xbc84a08a	-0.016189832
234	0xbdff92f4	-0.12479201
235	0xbd7954b1	-0.060871784
236	0xbe004db7	-0.12529646
237	0xbd811d0d	-0.06304369
238	0xbd04635d	-0.032321323
239	0x3d418ac5	0.04725148
240	0x3d45d224	0.04829611
241	0xbd0dc534	-0.034611896
242	0x3daa76c4	0.08323434
243	0x3bd15c04	0.006389143
244	0x3bfe630d	0.0077632726
245	0x3d5775aa	0.052602448
246	0xbd551e7b	-0.05203102
247	0x3dbd8fc1	0.092559345
248	0x3c79682d	0.015222591
249	0xb9a1adf4	-0.00030837918
250	0xbc7340f3	-0.014847028
251	0xbc01ed8a	-0.007930169
252	0x3d97f1d4	0.07419172
253	0x3ddf2421	0.10895563
254	0xbd52a62e	-0.051428013
255	0xbd9e0958	-0.07716626

adaLN_modulation.1.bias f4 [128]
0	0xbd6c9ccb	-0.057766717
1	0x3d6417c1	0.055686716
2	0xbd2a07ef	-0.041511472
3	0xbc820496	-0.015871327
4	0xbe1cce23	-0.1531301
5	0xbdaf8f2e	-0.08572231
6	0xbd8dbdfd	-0.06921003
7	0x3c5ede15	0.013602753
8	0xbdb5246c	-0.088448375
9	0xbc336e7a	-0.010951633
10	0x3dd2a085	0.10284523
11	0x3e0a35db	0.13497107
12	0x3e079175	0.13239081
13	0x3c278108	0.010223635
14	0x3b541e23	0.0032366596
15	0xbe1285ae	-0.14308807
16	0x3e053ef0	0.1301229
17	0xbcd128ee	-0.025532212
18	0xbe286b3c	-0.16447157
19	0x3d3ec465	0.046574015
20	0x3d14ac69	0.036297236
21	0xbce13af7	-0.027493937
22	0xbd33ed18	-0.043927282
23	0xbb33f6a6	-0.0027460246
24	0xbe128f85	-0.14312561
25	0xbdf738de	-0.120713934
26	0x3dd35fd4	0.10321012
27	0xbdd629f9	-0.104572244
28	0x3d8b3acc	0.06798324
29	0xbdc9ddb9	-0.09856743
30	0x3e01eb0d	0.12687321
31	0x3cd370ec	0.025810681
32	0xbe08f070	-0.1337297
33	0xbb9f9b8a	-0.0048708366
34	0xbdf612b1	-0.12015284
35	0x3cec9baa	0.02888282
36	0xbd2850e5	-0.041092772
37	0x3d6cf389	0.05784944
38	0xbcbad59b	-0.022806933
39	0x3cb892f7	0.022531016
40	0x3da4bbaf	0.0804361
41	0x3df054a1	0.11734892
42	0x3e31bc37	0.17356955
43	0xbde0822a	-0.10962327
44	0xbc1ce47d	-0.00957596
45	0xbc0a75e8	-0.008450963
46	0x3d9a29b9	0.07527489
47	0x3df672ff	0.120336525
48	0x3d1e5cab	0.038662594
49	0xbd9b6b8e	-0.07588874
50	0xbe02675d	-0.12734742
51	0x3d381bab	0.04494826
52	0x3cc43a67	0.02395363
53	0xbd924680	-0.07142353
54	0x3dca92d6	0.09891288
55	0xbd0e3563	-0.034718882
56	0x3c859a5f	0.016308961
57	0xbd406d32	-0.046979137
58	0x3d0a56d7	0.033774223
59	0x3c90ef9d	0.017692382
60	0xbd166d75	-0.03672548
61	0xbd12b445	-0.03581645
62	0x3c39b16f	0.011333807
63	0x3d09e935	0.03366967
64	0x3e1c7929	0.15280594
65	0x3e05a545	0.13051327
66	0xbcf6da84	-0.030133493
67	0x3e0339b9	0.12814988
68	0xbcb063d3	-0.021531975
69	0xbcde310a	-0.027122993
70	0x3dee49e0	0.11635184
71	0x3ce5efdc	0.028068475
72	0xbdce8251	-0.1008345
73	0xbdf371d7	-0.118869476
74	0x3d9270a0	0.07150388
75	0xbd9d58dd	-0.07682965
76	0x3cbd5e53	0.023116266
77	0x3dd20c24	0.10256222
78	0xbc1ae9c3	-0.009455147
79	0x3da66a55	0.0812575
80	0x3e89d781	0.2692223
81	0x3d6eef19	0.05833349
82	0x3d84a994	0.06477657
83	0x3dd5c2eb	0.10437568
84	0xbc27c67c	-0.010240193
85	0x3e04f0b4	0.12982446
86	0xbd446313	-0.047946047
87	0xbb80e657	-0.0039337086
88	0xbe117bb2	-0.14207342
89	0xbe041eb0	-0.12902331
90	0x3d94aa09	0.07258994
91	0xbd1d67d5	-0.0384291
92	0xbde54260	-0.11194301
93	0x3d5c6398	0.053805918
94	0x3db8e896	0.09028737
95	0xbcc0f09f	-0.023552237
96	0xbd84b9d0	-0.064807534
97	0x3d644490	0.05572945
98	0x3e5c80fc	0.21533579
99	0x3d02334c	0.0317872
100	0xbd21bb50	-0.039485276
101	0xbc82c05b	-0.015960863
102	0x3be2e9d5	0.0069248476
103	0x3dae3c93	0.08507647
104	0x3d59d1b0	0.05317849
105	0x3db41a23	0.08794048
106	0xbdd4e416	-0.103950664
107	0xbdd5ccc8	-0.104394495
108	0x3d821d8d	0.063532926
109	0xbd32ba8c	-0.043634936
110	0xbb62095b	-0.003449044
111	0xbdc12c7e	-0.09432314
112	0xbd74349a	-0.059620477
113	0x3c2f45e7	0.010697818
114	0x3e3c7385	0.18403442
115	0x3db7a9f3	0.08967962
116	0x3ce7ba4f	0.028287081
117	0xbd059fc2	-0.03262306
118	0x3d31055b	0.043217998
119	0x399a4fe2	0.00029432686
120	0x3e29d4ab	0.16585033
121	0x3e6b8b8d	0.23002453
122	0x3e118dcd	0.14214249
123	0xbd81cc18	-0.06337756
124	0x3dc52b3d	0.09627388
125	0x3d09f002	0.033676155
126	0xbdd176ee	-0.10227762
127	0x3e4c5049	0.19952501

advantage.0.weight f4 [256, 64]
0	0xbc3a4fed	-0.011371595
1	0xbe1edcd5	-0.15513928
2	0x3e404a91	0.18778445
3	0x3d88d7a5	0.06681756
4	0x3e00cc6d	0.12577982
5	0xbe43730d	-0.19086857
6	0xbdf19132	-0.11795272
7	0xbc804617	-0.015658421
8	0x3dce0af2	0.100606814
9	0xbc3bb894	-0.011457581
10	0xbe3e5305	-0.18586357
11	0xbde42b93	-0.111411236
12	0xbdae7888	-0.08519083
13	0xbd4eda4f	-0.050501164
14	0xbddff6e8	-0.109357655
15	0x3d1b51c3	0.03791977
16	0xb8b1f6a5	-8.485959e-05
17	0x3e35da97	0.17759167
18	0x3e021b85	0.1270581
19	0xbe010dfc	-0.12602991
20	0x3e6b7f9f	0.22997902
21	0x3e822eed	0.25426427
22	0xbde294aa	-0.11063512
23	0x3d6330e0	0.055466533
24	0x3d799648	0.060934335
25	0x3d456b77	0.04819819
26	0x3cb47d47	0.022032393
27	0x3d837280	0.064183235
28	0xbdd1a716	-0.10236947
29	0x3de6dcf8	0.11272615
30	0xbc9ae5a6	-0.018908333
31	0xbc7791fa	-0.015110487
32	0x3d96385b	0.07334968
33	0xbe02d938	-0.12778175
34	0xbd719a1d	-0.058984865
35	0x3cc3bfff	0.023895262
36	0x3e0d0b4e	0.13773844
37	0xbe24273e	-0.16030595
38	0xbd0e7778	-0.034781903
39	0x3d8cdcd3	0.068780564
40	0x3ddb3dff	0.10705184
41	0xbb56f701	-0.0032801034
42	0x3a3c57bb	0.0007184704
43	0xbe329652	-0.17440155
44	0xbd66ac0a	-0.056316413
45	0x3cd2959e	0.025706109
46	0xbd1f02c2	-0.03882099
47	0xbe28ada3	-0.16472487
48	0x3e76f708	0.24117672
49	0x3c5cc875	0.013475527
50	0xbc9b7847	-0.018978251
51	0xbc91303e	-0.017723199
52	0x3d53dbf0	0.05172342
53	0x3e6e6a33	0.232827
54	0x3c9b80e3	0.018982356
55	0xbe163799	-0.14669646
56	0xbd084f1e	-0.033278577
57	0x3e952cf2	0.29135853
58	0x3da84c15	0.082176365
59	0xbcd5fe84	-0.02612234
60	0x3d163b24	0.036677495
61	0x3bde83b4	0.0067906026
62	0x3b7dbfcc	0.0038719056
63	0xbd525122	-0.051346906
64	0xbd9a98b4	-0.07548657
65	0xbda11456	-0.07865207
66	0xbdf2bc0f	-0.118522756
67	0xbc358e7e	-0.011081336
68	0xbd925009	-0.07144172
69	0x3d890288	0.06689936
70	0xbd5cb10a	-0.053879775
71	0xbdcde45e	-0.10053323
72	0x3e388d00	0.18022537
73	0xbe1faeb7	-0.15593992
74	0x3dd4f863	0.103989385
75	0x3e0ce54e	0.13759348
76	0x3c436f46	0.011928385
77	0xbd500204	-0.050783172
78	0x3c37eaed	0.011225444
79	0x3c936446	0.01799215
80	0x3dc080d0	0.09399569
81	0x3dd5c350	0.104376435
82	0x3e439699	0.19100417
83	0x3d67cc57	0.056591358
84	0x3b64c7b9	0.0034909083
85	0xbda3221a	-0.07965489
86	0x3e0961ae	0.13416168
87	0xbdfd4bd0	-0.12367976
88	0x3d18aa1e	0.03727161
89	0x3e66ef15	0.2255214
90	0xbe0cd544	-0.1375323
91	0xbd7cf227	-0.061754372
92	0x3de4fe0f	0.1118127
93	0x3dccdbb7	0.10002845
94	0xbdb932bf	-0.09042882
95	0x3c9333a3	0.017968958
96	0xbd0deb14	-0.034648016
97	0xbe035a5e	-0.12827441
98	0xbba3e01a	-0.00500108
99	0xbde4f4d4	-0.1117951
100	0x3d96dda2	0.07366492
101	0x3d2e3052	0.04252655
102	0x3d66778f	0.056266364
103	0xbd1cd12f	-0.03828543
104	0xbda5421d	-0.08069251
105	0xbd0423a1	-0.03226054
106	0xbdfe629b	-0.12421151
107	0xbdbe030a	-0.092779234
108	0xbbe5b873	-0.0070105135
109	0x3d68a6c7	0.056799676
110	0xbc3bb2b4	-0.01145618
111	0x3cfc0e3b	0.030768504
112	0xbcda3b2f	-0.026639549
113	0x3df3301f	0.11874413
114	0xbd5eb6c3	-0.054373514
115	0xbd277b54	-0.0408891
116	0x3cbdf67a	0.023188818
117	0x3deef1a7	0.11667185
118	0xbdb2275f	-0.08698916
119	0x3df9f643	0.12205174
120	0x3d2184c3	0.039433252
121	0xbdfd74dd	-0.123758055
122	0xbc86bc74	-0.016447283
123	0xbe0b6072	-0.1361101
124	0xbdbecfab	-0.09316953
125	0x3bc5f13f	0.0060407217
126	0xbe03ef5a	-0.12884274
127	0xbe2098d4	-0.156833
128	0x3d18f755	0.03734525
129	0x3c86628c	0.016404413
130	0x3da201d1	0.07910503
131	0xbe19e733	-0.15029602
132	0x3d8011e3	0.062534116
133	0x3e034af4	0.12821561
134	0xbdb43bf7	-0.088005
135	0x3dd55844	0.10417226
136	0xbda0e119	-0.07855434
137	0xbdda5917	-0.10661524
138	0x3de939b1	0.11387957
139	0xbd9c675f	-0.07636904
140	0xbe26cad6	-0.16288313
141	0xbd9856d8	-0.07438439
142	0xbd976567	-0.07392388
143	0x3e2b2b89	0.16715826
144	0xbdaa956b	-0.083292805
145	0x3def3d9a	0.116816714
146	0x3d16e759	0.036841724
147	0xbe0d6346	-0.13807401
148	0x3bf544ec	0.007485023
149	0x3d37c716	0.044867598
150	0x3d52e8ed	0.051491667
151	0xbd078bfd	-0.033092488
152	0xbd95c676	-0.07313244
153	0x3d83d076	0.06436245
154	0x3d9338f7	0.071885996
155	0x3cf77cec	0.030210935
156	0x3e4a865d	0.19777818
157	0x3dae8302	0.085210815
158	0x3d8bac09	0.068199225
159	0xbd9b5ccc	-0.07586059
160	0xbd9f10b9	-0.077668615
161	0x3d9f3fb7	0.077758245
162	0xbcd34619	-0.025790261
163	0xbdc11b66	-0.09429054
164	0xbe1e9ee9	-0.15490307
165	0xbd8cd3cb	-0.06876334
166	0x3db84a8f	0.08998596
167	0x3dc9954e	0.09842931
168	0x3ca79afb	0.020459643
169	0xbc2a2eaa	-0.010387102
170	0xbdb84a7f	-0.08998584
171	0xbdd4a36b	-0.10382732
172	0xbda94a12	-0.08266081
173	0x3dbb167c	0.09135148
174	0xbde86090	-0.11346543
175	0x3db1adaf	0.08675706
176	0x3e0cb238	0.1373986
177	0xbd8f948a	-0.070107535
178	0x3ac489fd	0.0014994737
179	0xbe00d8c3	-0.12582688
180	0x3d4bec6b	0.049786013
181	0xbd5889d4	-0.05286582
182	0x3b7ad0be	0.0038271393
183	0x3e337660	0.17525625
184	0x3df5d96c	0.120043606
185	0xbdc5e58f	-0.096629255
186	0xba8cfbd6	-0.0010756205
187	0x3d1c690f	0.03818613
188	0x3dee09a2	0.11622931
189	0xbde121dd	-0.10992787
190	0xbe142363	-0.14466624
191	0xbc8dbeef	-0.017302958
192	0xbc958046	-0.018249642
193	0x3d9cabba	0.07649942
194	0xbc3eaa03	-0.011637214
195	0x3dc64c13	0.09682479
196	0x3d570601	0.05249596
197	0x3d6a2965	0.057168383
198	0xbdc797c2	-0.097457424
199	0x3e4b6d70	0.19865966
200	0x3dbe6a66	0.09297638
201	0x3c6ffa20	0.014647037
202	0x3c937b9c	0.018003277
203	0xbdb28d22	-0.08718325
204	0xbdc7da39	-0.097584195
205	0xbc122ef9	-0.008922332
206	0xbdaba6bd	-0.08381412
207	0xbdab801a	-0.08374043
208	0xbde90fcd	-0.11379967
209	0xbcfa44c4	-0.030550368
210	0xbddfb575	-0.10923282
211	0xbdd5d90a	-0.104417875
212	0xbd533677	-0.051565614
213	0x3d95e5be	0.073192105
214	0x3e1524d9	0.14564838
215	0xbdf22ad1	-0.11824573
216	0x3dd3c4ff	0.103403084
217	0x3e3ab205	0.18231972
218	0xbddd9e98	-0.10821265
219	0xbe02b8a5	-0.12765749
220	0x3d3665f3	0.04453082
221	0x3ded51cc	0.11587867
222	0xbe4289e5	-0.18997915
223	0xbd7483d4	-0.059696034
224	0x3ca9fd69	0.020750718
225	0xbdd64a29	-0.10463364
226	0xbbf8d55d	-0.0075937943
227	0x3b94c3ca	0.0045399414
228	0xbcc516a4	-0.024058647
229	0x3c900a09	0.01758291
230	0xbd031e77	-0.032011475
231	0x3db59e6a	0.08868106
232	0xbd43320f	-0.04765516
233	0xbdfd269e	-0.12360881
234	0x3d6ff834	0.058586314
235	0x3cbbad99	0.022909926
236	0xbd990b10	-0.07472813
237	0xbe138a9f	-0.14408349
238	0x3d8427ba	0.0645289
239	0x3c1d8de4	0.009616349
240	0x3dd7f7a6	0.10545282
241	0xbd5a2a1f	-0.053262826
242	0xbd2be7d5	-0.04196914
243	0xbd992b59	-0.07478971
244	0x3d0a6b1d	0.033793557
245	0x3e0becc4	0.13664538
246	0x3de10627	0.109875016
247	0xbe035c41	-0.12828161
248	0xbda77894	-0.08177295
249	0xbd9f29b6	-0.077716276
250	0xbddb7602	-0.107158676
251	0xbd20f2ed	-0.039294172
252	0x3d73b269	0.059496317
253	0x3c9f654f	0.019457487
254	0x3da0190b	0.078172766
255	0x3c6cc625	0.014451538

advantage.0.bias f4 [256]
0	0x3ca1580a	0.0196953
1	0x3d9a8306	0.07544522
2	0x3d9fd541	0.07804347
3	0x3c951817	0.018199963
4	0x3c3a4b73	0.011370528
5	0xbe2b2cfa	-0.16716376
6	0xbdf3f8f0	-0.119127154
7	0xbde64937	-0.112444334
8	0xbd290742	-0.041266687
9	0xbdce87d4	-0.10084501
10	0x3d9fa457	0.07795017
11	0xbdd88b41	-0.105734356
12	0xbbf2e065	-0.007412004
13	0x3d23307b	0.039841156
14	0x3dd29c2b	0.10283693
15	0xbbe063d2	-0.006847837
16	0xbe370f2a	-0.17876878
17	0x3d686970	0.056741178
18	0xbdaed953	-0.08537545
19	0x3bc35b46	0.0059618084
20	0xbe031e7e	-0.128046
21	0x3dcbcc87	0.0995112
22	0xbd054ef9	-0.032546017
23	0x3d225547	0.039632108
24	0xbd8b4ce0	-0.06801772
25	0x3c5ba9ae	0.013407154
26	0xbc7cd57f	-0.015431761
27	0x3bb3311c	0.005468501
28	0x3d21d5d8	0.039510578
29	0xbd19b6f3	-0.03752799
30	0xbd9dacce	-0.076989755
31	0x3d44f022	0.04808057
32	0xbd758dde	-0.05994975
33	0x3c097bfd	0.0083913775
34	0xbdf6a1dd	-0.12042592
35	0xbd57af76	-0.052657567
36	0x3d43160b	0.047628444
37	0xbd406bc5	-0.046977777
38	0x3a3d2c57	0.0007216385
39	0x3d5853a2	0.052814133
40	0xbd11ee6d	-0.03562777
41	0x3d952655	0.07282702
42	0x3d7b6c7f	0.061382767
43	0xbcb8600f	-0.022506742
44	0xbd6087a4	-0.054816857
45	0xbe17fcb8	-0.14842498
46	0x3d2b388c	0.041801974
47	0xbdb49f75	-0.088194765
48	0x3c43618e	0.011925114
49	0xbd29c104	-0.04144384
50	0xbdd04f98	-0.10171431
51	0x3d928a35	0.07155267
52	0x3d83302f	0.06405675
53	0x3d87fcd7	0.06640022
54	0xbe03670b	-0.12832277
55	0xbde273fd	-0.11057279
56	0x3da0b349	0.07846696
57	0xbda37734	-0.079817206
58	0xbdcddd89	-0.1005202
59	0x3bdee16c	0.0068017747
60	0x3c6bf5c2	0.014401855
61	0xbe0ae968	-0.135656
62	0x3a0561da	0.00050881284
63	0xbbf313a1	-0.0074181114
64	0xbd1575fd	-0.036489476
65	0xbdbed17b	-0.09317299
66	0xbd29ea4e	-0.041483216
67	0xbe045929	-0.12924637
68	0x3dae4546	0.085093066
69	0x3d1e0e61	0.03858793
70	0xbd785768	-0.060630232
71	0xbe2cd4e2	-0.16878083
72	0xba46368e	-0.000756123
73	0x3d19a84d	0.03751402
74	0x3dfeeecc	0.12447891
75	0xbe6856e6	-0.22689399
76	0xbb645c11	-0.0034844915
77	0xbdc7bffd	-0.09753416
78	0xbdff851a	-0.12476559
79	0xbe4dbb27	-0.20090924
80	0x3c71cc04	0.014758114
81	0x3c5523ec	0.013009053
82	0x3dd00f85	0.1015921
83	0xbd8a23a7	-0.067450814
84	0xbdc1eadf	-0.09468626
85	0x3af1ad4b	0.0018438486
86	0x3b32ca64	0.0027281279
87	0x3db01b4b	0.08598956
88	0xbd4cdaa7	-0.05001321
89	0xbc5fa493	-0.013650077
90	0x3cfcd892	0.030864988
91	0x3c148a13	0.009066123
92	0xbc727587	-0.0147985285
93	0xbd94a1e0	-0.07257438
94	0xbd8694c7	-0.06571346
95	0x3c0c57d8	0.008565865
96	0x3da2a38f	0.079413526
97	0xbd132451	-0.035923306
98	0xbddf1751	-0.10893119
99	0xbd57f7ce	-0.05272656
100	0x3ceaec55	0.028677145
101	0x3d0047d6	0.031318508
102	0xbbc1a04b	-0.005909001
103	0x3ce09d3c	0.027418725
104	0xbe25bd57	-0.16185509
105	0xbe1bdac5	-0.15220173
106	0xbdc9effb	-0.09860226
107	0xbda54883	-0.08070471
108	0xbd35fcb6	-0.044430457
109	0xbdac2fd4	-0.0840756
110	0x3d72f0e0	0.059311748
111	0xbd6ee697	-0.058325376
112	0xbd2f818e	-0.042848162
113	0xbd90d534	-0.07071915
114	0xbe27325f	-0.16327809
115	0xbce04a39	-0.027379142
116	0xbd7ff7b7	-0.0624921
117	0xbd4ce9a4	-0.050027505
118	0xbdeed653	-0.11661973
119	0x3d67cee8	0.056593806
120	0xbd453c4c	-0.048153207
121	0x3d67525d	0.056475032
122	0xbe0c88de	-0.13724086
123	0x39b4a179	0.00034452582
124	0x3ca54036	0.02017222
125	0x3c022630	0.007943675
126	0x3dc457f5	0.09587089
127	0x3cc18f13	0.023627793
128	0x3d8245b1	0.06360949
129	0xbcfdf736	-0.031001668
130	0x3c2bc253	0.010483342
131	0xbde455ba	-0.111491635
132	0x3b926f64	0.004468845
133	0x3ddcb57e	0.107768044
134	0x3c4e1d76	0.012580266
135	0x399e4dcd	0.00030194074
136	0x3dbd1364	0.09232214
137	0xbe30576e	-0.17220852
138	0x3c5ac52e	0.013352675
139	0xbc6df61c	-0.014524009
140	0xbdd188ef	-0.10231196
141	0xbcab7586	-0.020930063
142	0x3d041e95	0.032255728
143	0x3d86e103	0.06585886
144	0xbd83794f	-0.06419622
145	0x3c73f8e1	0.01489088
146	0x3d85c359	0.065314
147	0x3d986dc8	0.07442814
148	0xbd8a97ba	-0.06767221
149	0x3baa7036	0.005201365
150	0xbe5e44e9	-0.21705975
151	0xbdccda95	-0.10002629
152	0xbd56cdd6	-0.052442394
153	0x3d8dc764	0.06922796
154	0x3ddcc659	0.10780019
155	0xbdee6229	-0.11639816
156	0x3dd3e632	0.10346641
157	0xbe266e25	-0.16252954
158	0xbd33157b	-0.043721657
159	0x3d1684e8	0.036747843
160	0x3d94f046	0.07272391
161	0x3dc392ca	0.09549482
162	0xbe16ebc5	-0.14738376
163	0x3d07f4cd	0.033192445
164	0xbde78d7b	-0.11306282
165	0xbca955f9	-0.020670878
166	0xbc88f0a5	-0.01671631
167	0xbd378bb2	-0.04481096
168	0x3d5b1372	0.05348534
169	0x3d4b16ba	0.04958222
170	0x3d3ecec9	0.046583924
171	0xbc9ff071	-0.019523831
172	0xbdd61f80	-0.10455227
173	0xbe115be2	-0.14195207
174	0x3d9e13c2	0.07718612
175	0xbde34632	-0.11097373
176	0xbe11f817	-0.14254795
177	0x3d64261d	0.05570041
178	0xbd17e321	-0.03708184
179	0xbdb19e53	-0.08672776
180	0xbdbf2737	-0.093336515
181	0xbe254920	-0.16141176
182	0xbcd2f5b8	-0.025751933
183	0xbd6b6541	-0.05746961
184	0xbcb3affd	-0.021934504
185	0xbd3dc27e	-0.04632806
186	0x3d92e063	0.071717046
187	0x3d3352ef	0.043780264
188	0xbdb1d337	-0.08682864
189	0xbd27245d	-0.040806163
190	0xbe0089ac	-0.12552518
191	0xbdd2897b	-0.102801286
192	0xbdf6d24a	-0.12051828
193	0xbe0d48fb	-0.13797371
194	0x3d26f5b8	0.04076168
195	0x3d1f60b3	0.03891058
196	0x3bd74543	0.006569536
197	0x3cb369c6	0.021901023
198	0xbddbe215	-0.10736481
199	0xbd467133	-0.0484478
200	0xbdedcd07	-0.116113715
201	0xbcc3c0bb	-0.023895612
202	0x3d2c01ee	0.041994028
203	0x3cb00356	0.021485966
204	0xbba8e1e9	-0.0051538837
205	0x3dd7f75f	0.10545229
206	0x3cfef4fe	0.03112268
207	0xbb08b05b	-0.002085707
208	0x3c96017c	0.018311255
209	0x3ce8c602	0.02841473
210	0x3ab44721	0.0013754108
211	0xbcbee33b	-0.023301711
212	0x3d63be9f	0.055601712
213	0x3d58ee76	0.05296179
214	0xbcf52877	-0.029926522
215	0xbe24d94c	-0.16098517
216	0xbd598cc6	-0.053112768
217	0xbd6a5e1e	-0.057218663
218	0xbddf02f0	-0.10889232
219	0xbda59b62	-0.080862775
220	0xbdeff5e2	-0.1171682
221	0x3d81bf25	0.06335286
222	0xbd2361bb	-0.039888125
223	0x3d7af232	0.06126613
224	0xbccae7a3	-0.024768656
225	0x3d67dd21	0.05660737
226	0x3c6a7386	0.0143097695
227	0xbd1c2df6	-0.03812977
228	0x3d952fed	0.07284532
229	0xbcff0e32	-0.031134699
230	0x3d80805a	0.06274481
231	0xbdf56bb0	-0.119834304
232	0xbdaf2d0f	-0.08553516
233	0x3abd128a	0.0014425081
234	0xbe1069f3	-0.14102916
235	0xbdd23390	-0.10263741
236	0xbdc16ef9	-0.094449945
237	0xbd7af7f1	-0.06127161
238	0xbd568c0b	-0.05237965
239	0xbded217c	-0.11578652
240	0x3c37069f	0.011171012
241	0xbc051682	-0.008123042
242	0xbddfd44f	-0.109291665
243	0xbe163cf0	-0.14671683
244	0xbd97f4a9	-0.07419712
245	0xbcc4d6d9	-0.024028229
246	0x3d8caa98	0.06868476
247	0xbdd9f027	-0.106415085
248	0x3dd2f0f4	0.102998644
249	0x3d6bf4d5	0.057606537
250	0xbe1e8c81	-0.15483285
251	0x3c6705ba	0.014100486
252	0x3d77f3b2	0.06053514
253	0xbe089b57	-0.13340507
254	0x3b182caf	0.0023219993
255	0x3d39da99	0.045374487
