result/low_level/ETHUSDT/best_model/slope/1/best_model.pkl (torch, 187425 bytes, 14 tensors)

fc1.weight f4 [64, 36]
0	0x3e45d98d	0.1932127
1	0x3e7eaddd	0.24871011
2	0x3e816102	0.25269324
3	0x3d8f1de9	0.06988127
4	0xbd591483	-0.052998077
5	0x3d54987f	0.051903244
6	0x3dcfd2f5	0.10147659
7	0x3dcaf5d9	0.09910173
8	0xbc843c86	-0.016142141
9	0xbd347862	-0.04406012
10	0x3d8aa134	0.06769028
11	0x3da29d46	0.07940154
12	0x3de644ff	0.11243629
13	0xbea74265	-0.32667843
14	0xbe729225	-0.23688562
15	0xbe13855f	-0.14406346
16	0x3d80c3b0	0.062873244
17	0x3e172a6e	0.1476228
18	0x3da37f2e	0.07983242
19	0xbd1065cd	-0.035253335
20	0xbd32b2f9	-0.043627713
21	0xbbc99f50	-0.0061530247
22	0xbde4880a	-0.1115876
23	0x3e12c91e	0.14334533
24	0xbdc0663e	-0.09394501
25	0x3d83b5f7	0.064311914
26	0xbd744484	-0.059635654
27	0xbe1fe744	-0.15615565
28	0xbdeda592	-0.11603846
29	0x3e982366	0.29714507
30	0xbe566b27	-0.20939313
31	0x3da4fae7	0.08055668
32	0xbe33ab8c	-0.17545909
33	0x3c84631d	0.016160542
34	0xbdb7b568	-0.08970147
35	0x3e36ab66	0.17838821
36	0x3e230f64	0.1592384
37	0xbeb2110c	-0.3477863
38	0xbebf057e	-0.37308878
39	0xbe2b1739	-0.16708077
40	0xbec72df6	-0.38902253
41	0xbecd9edb	-0.4016026
42	0xbdfbbbbb	-0.12291666
43	0xbee005b2	-0.43754345
44	0xbe4d93d5	-0.20075925
45	0xbec52dfd	-0.3851165
46	0xbec2fbf7	-0.3808286
47	0x3e2ab9df	0.16672467
48	0x3d622774	0.055213407
49	0xbe6392fe	-0.22224042
50	0xbe041b3b	-0.12901013
51	0xbe9f10d2	-0.3106752
52	0xbc20101c	-0.009769466
53	0x3cf7bb78	0.03024076
54	0xbe71ca55	-0.2361234
55	0x3d8221cb	0.06354102
56	0x3a0f2bd6	0.0005461549
57	0x3d9c2478	0.07624143
58	0x3db86c57	0.09005039
59	0xbdff87f9	-0.124771066
60	0x3e062222	0.13098958
61	0x3c2f9de6	0.010718798
62	0x3e0d06ef	0.13772176
63	0x3d233aed	0.039851118
64	0xbe04c040	-0.12963963
65	0xbe53c901	-0.20682146
66	0xbd6beafe	-0.057597153
67	0xbe878aaa	-0.2647298
68	0x3e196878	0.14981258
69	0x3d8ab484	0.06772712
70	0x3d1d84de	0.03845679
71	0x3d8953bf	0.067054264
72	0x3da64563	0.08118703
73	0xbcbbb7c7	-0.02291478
74	0xbdabe1d3	-0.08392682
75	0x3df36a9d	0.11885569
76	0xbe0f625d	-0.14002366
77	0x3db2e20b	0.087345205
78	0xbd1a9db3	-0.03774805
79	0xbd9ac679	-0.07557387
80	0xbd2a6d0c	-0.0416079
81	0x3c4e8ef6	0.012607327
82	0xbe6dc02e	-0.23217842
83	0xbe5eb023	-0.21746878
84	0xbdf96492	-0.121773854
85	0xbe4cbd19	-0.1999401
86	0x3d0e77fa	0.034782387
87	0xbe58379e	-0.21114966
88	0xbdde73b3	-0.108619116
89	0xbd77b777	-0.0604777
90	0xbd386ec8	-0.045027524
91	0xbd055ac6	-0.03255727
92	0x3dbaff08	0.091306746
93	0xbcb588e1	-0.022159996
94	0x3d53dd05	0.051724453
95	0x3dc26605	0.09492115
96	0x3d7b7ef3	0.061400365
97	0x3ca52797	0.02016048
98	0x3d3356a2	0.04378379
99	0x3df30862	0.11866833
100	0xbe0308af	-0.12796281
101	0xbe77d34f	-0.24201702
102	0x3e442d56	0.1915792
103	0xbd8caf9e	-0.06869434
104	0x3e3a8d62	0.18217996
105	0xbe2c4296	-0.16822276
106	0x3da4718f	0.08029472
107	0xbe12e65a	-0.14345685
108	0xbe0b34e1	-0.1359439
109	0x3e0f926d	0.14020701
110	0xbd197819	-0.03746805
111	0xbe041f5d	-0.12902589
112	0xbd874ab1	-0.06606043
113	0x3d862fc7	0.065520816
114	0x3e097154	0.13422137
115	0xbdfc1e7c	-0.12310502
116	0xbd1daa57	-0.038492527
117	0xbdc0f84a	-0.094223574
118	0xbdb84428	-0.08997375
119	0x3e80109c	0.25012672
120	0x3e10bb21	0.14133884
121	0x3deff11b	0.11715909
122	0x3e293ced	0.16527148
123	0x3e5fd2f4	0.21857816
124	0x3bcb8abc	0.006211607
125	0x3e494afc	0.1965751
126	0xbe6df335	-0.23237307
127	0xbe20cbbb	-0.15702717
128	0xbd8d3801	-0.068954475
129	0x3d8bd322	0.0682738
130	0xbdcc64d5	-0.0998017
131	0xbca3ad07	-0.019979967
132	0x3dfd4a29	0.123676606
133	0x3e5a913a	0.21344462
134	0x3e2b8f22	0.1675382
135	0xbc10718a	-0.008816132
136	0xbd91a7c8	-0.0711208
137	0x3c5e3444	0.013562266
138	0xbd2e914a	-0.042619027
139	0x3d04e769	0.032447252
140	0xbe99772b	-0.2997373
141	0x3d9cc59b	0.07654878
142	0xbd8c0c2b	-0.06838258
143	0xbd90c4d8	-0.07068795
144	0xbe10294e	-0.14078256
145	0x3e0c9cef	0.1373174
146	0x3ea8ea30	0.3299117
147	0x3e1c3e3b	0.15258114
148	0x3dd074f3	0.10178556
149	0x3da7980b	0.08183297
150	0x3dd9ef3a	0.10641332
151	0x3d2c3d6a	0.042050757
152	0x3e9d8f3a	0.30773336
153	0x3e899574	0.26871836
154	0x3ed4637b	0.41482148
155	0x3dee33df	0.116309874
156	0x3e179cd2	0.14805916
157	0x3e3c8147	0.1840869
158	0x3df1165f	0.11771845
159	0x3d918bfd	0.07106779
160	0xbe04d446	-0.12971601
161	0xbc8fcecb	-0.017554661
162	0xbe79d5b1	-0.24397923
163	0xbd12d3a8	-0.035846382
164	0x3d45aa91	0.048258368
165	0x3dff2db6	0.124598905
166	0x3dc23a2e	0.09483753
167	0x3c84b7e8	0.016200975
168	0xbd81165a	-0.06303091
169	0xbb2b7bba	-0.0026166276
170	0x3e07dbb1	0.132674
171	0xbdc13938	-0.09434742
172	0xbda0d927	-0.078539185
173	0x3cc22cfb	0.023703089
174	0x3e5aa833	0.21353225
175	0x3d947801	0.072494514
176	0x3dd3dd47	0.1034494
177	0x3e53a5b4	0.2066868
178	0xbe0e9aef	-0.1392629
179	0xbd40a4be	-0.04703211
180	0x3daaea03	0.083454154
181	0x3e2eb1f8	0.17060077
182	0x3d6fbbf8	0.05852887
183	0x3d66501f	0.056228753
184	0x3e18929a	0.14899674
185	0x3df4aee9	0.11947424
186	0xbd451aed	-0.04812138
187	0x3ea2ee38	0.3182237
188	0x3de9f853	0.11424317
189	0x3d98f4b3	0.07468548
190	0x3dfc45f3	0.12318029
191	0xbe494977	-0.19656931
192	0xbe566444	-0.20936686
193	0xbd4a5037	-0.049392905
194	0x3da957c2	0.082686916
195	0x3e317ceb	0.17332809
196	0x3dcdf5c5	0.100566424
197	0x3dffb648	0.12485939
198	0x3d05afab	0.032638233
199	0xbe08eca4	-0.13371521
200	0xbde3cb71	-0.11122788
201	0xbd00ff42	-0.031493433
202	0xbcecfcb2	-0.028929088
203	0xb85b44dd	-5.2277803e-05
204	0x3c144480	0.009049535
205	0xbdb4e347	-0.08832412
206	0xbe0bc6e2	-0.13650087
207	0xbdf7268e	-0.120679006
208	0xbd2f2df8	-0.04276845
209	0x3dd53d3b	0.104120694
210	0xbe52fd1f	-0.2060437
211	0xbd1f335c	-0.03886734
212	0xbd584e49	-0.052809034
213	0xbd72d6c7	-0.05928686
214	0xbdf0fb68	-0.11766702
215	0xbe51b60d	-0.20479603
216	0x3dbc8edc	0.09206936
217	0xbd23ef23	-0.04002298
218	0x3e2bbeec	0.1677205
219	0xbc661cad	-0.014044923
220	0xbd93c843	-0.07215931
221	0x3d99c792	0.07508768
222	0x3d82da87	0.06389337
223	0x3e4b7012	0.1986697
224	0x3d5f661b	0.054540735
225	0x3e27e95b	0.16397612
226	0xbd8e5ec5	-0.069516696
227	0xbdfd9d64	-0.123835355
228	0xbd8cb3ce	-0.068702325
229	0xbdf2f7d7	-0.11863678
230	0x3d38dff6	0.04513546
231	0x3d011440	0.031513453
232	0x3e362145	0.17786129
233	0xbd8b1183	-0.067904495
234	0xbc8e0ced	-0.017340148
235	0x3c2f00bd	0.010681328
236	0x3ce3cf53	0.02780882
237	0xbc9b3e15	-0.018950501
238	0xbcde7dda	-0.02715962
239	0x3d76ba31	0.06023616
240	0xbd8eb54a	-0.06968172
241	0x3e352d39	0.17693032
242	0xbde2713d	-0.11056755
243	0xbe1f0a2d	-0.15531226
244	0x3b42130c	0.0029613404
245	0xbe48ce34	-0.1960991
246	0xbd4e668d	-0.05039077
247	0x3e30804b	0.1723644
248	0x3d1fa7e9	0.03897849
249	0x3dfe8fe7	0.12429791
250	0xbe202654	-0.15639621
251	0xbdd05f47	-0.10174423
252	0xbc1e445d	-0.009659854
253	0x3e8948fa	0.2681349
254	0xbcb5ba3d	-0.022183532
255	0xbe074201	-0.13208772

fc1.bias f4 [64]
0	0x3dc3ac6a	0.0955437
1	0xbee1f123	-0.44129285
2	0xbe3b0173	-0.18262272
3	0xbc2e79b2	-0.010649132
4	0x3e5a5406	0.21321115
5	0x3e71f113	0.23627119
6	0x3c85767f	0.016291855
7	0xbe1f7832	-0.15573195
8	0xbd1eb46a	-0.038746275
9	0x3e400ac6	0.1875411
10	0x3e313622	0.17305806
11	0xbdefeda9	-0.11715252
12	0x3e58a9c8	0.21158516
13	0xbdae94d9	-0.08524484
14	0xbe8d98ad	-0.27655545
15	0xbe3d9c45	-0.18516643
16	0xbe08c50a	-0.13356414
17	0x3d942f00	0.07235527
18	0xbe6bb9d9	-0.23020114
19	0xbe02a06e	-0.12756512
20	0xbd67ee8f	-0.05662399
21	0x3e68d348	0.22736847
22	0x3aed91a7	0.0018125073
23	0x3cf080e4	0.029358335
24	0xbe67cec1	-0.22637464
25	0xbca554c7	-0.020182027
26	0x3b6660d8	0.0035152938
27	0x3e0873bb	0.13325398
28	0xbcbda264	-0.023148723
29	0xbdd6d168	-0.1048916
30	0xba768740	-0.0009404309
31	0xbe613392	-0.21992329
32	0xbdac1e7e	-0.084042534
33	0xbc85ca41	-0.016331794
34	0x3dfcfd35	0.12352983
35	0x3dea393e	0.11436699
36	0x3ca1929f	0.019723235
37	0xbdba4fb7	-0.09097236
38	0xbdefe931	-0.117143996
39	0x3d520c4f	0.05128127
40	0xbc623eba	-0.0138089005
41	0xbd839f68	-0.06426889
42	0x3e1f04c7	0.15529166
43	0xbd88d5e1	-0.06681419
44	0xbd9f8e25	-0.07790784
45	0xbe0811ae	-0.13287994
46	0xbd3ddc59	-0.046352718
47	0xbdfa191c	-0.122118205
48	0xbe119ab4	-0.14219171
49	0xbe7cdfbc	-0.24694723
50	0x3e6856d7	0.22689377
51	0xbeb0344f	-0.34414908
52	0x3e0dbfca	0.13842693
53	0x3da1f7a8	0.07908565
54	0x3d13d5c4	0.036092535
55	0xbc90871c	-0.01764255
56	0xbdf77a6b	-0.12083896
57	0xbd6a4d96	-0.057202898
58	0xbe954ca5	-0.29160038
59	0xbdcf66cd	-0.101270296
60	0xbc147ebb	-0.009063418
61	0x3e6661c7	0.22498237
62	0xbd8f3414	-0.06992355
63	0x3d9cc2ef	0.07654368

fc2.weight f4 [64, 9]
0	0xbdcf8d78	-0.10134405
1	0x3e1194a4	0.14216858
2	0x3d239d93	0.039945196
3	0xbe5b3711	-0.21407725
4	0xbe811579	-0.25211695
5	0xbe8edbcf	-0.27902076
6	0xbe181240	-0.14850712
7	0x3dcefc71	0.10106743
8	0x3e84160a	0.25798064
9	0xbe02f9d3	-0.12790613
10	0xbe2fc1be	-0.1716375
11	0x3eb9d422	0.36294657
12	0x3edc164f	0.4298577
13	0x3dbe2522	0.09284426
14	0xbdb4260a	-0.08796318
15	0xbe46480c	-0.19363421
16	0xbe085cd1	-0.13316657
17	0x3d932013	0.07183852
18	0xbbed80ec	-0.0072480347
19	0x3e591dfd	0.21202846
20	0x3e33462c	0.17507237
21	0x3f16f380	0.589653
22	0x3e917fd7	0.28417847
23	0x3debb3e0	0.11508918
24	0x3ccae320	0.024766505
25	0x3d12a09e	0.035797708
26	0x3e83e50b	0.25760683
27	0x3c31dbdb	0.01085564
28	0x3d96e159	0.073672004
29	0xbeba4348	-0.36379457
30	0x3e0c2d96	0.13689265
31	0xbeb64f36	-0.35607308
32	0xbd5e7b45	-0.054316778
33	0x3e89f9ae	0.26948303
34	0x3cb394b4	0.021921493
35	0x3e8281c2	0.25489622
36	0xbe95302c	-0.29138315
37	0x3e9c1f1a	0.3049248
38	0x3ee15c5a	0.4401577
39	0x3eeb5f4d	0.45971146
40	0x3e3d9732	0.18514708
41	0xbea39ca0	-0.31955433
42	0x3ec346d5	0.38139978
43	0xbe6c306d	-0.23065348
44	0xbea417bd	-0.3204936
45	0x3df06134	0.1173729
46	0xbeda97fe	-0.42694086
47	0x3cb142f4	0.021638371
48	0x3e65b09d	0.22430654
49	0xbe8b915d	-0.2725934
50	0xbeb469df	-0.35237023
51	0x3da6ff8a	0.08154209
52	0x3dbe4906	0.09291272
53	0xbe8966c3	-0.26836213
54	0xbdf8559d	-0.121257044
55	0x3e5099f3	0.20371227
56	0xbe83308f	-0.25622985
57	0xbf01f33b	-0.50761765
58	0x3c0b3a7f	0.008497833
59	0xbe26e54f	-0.16298412
60	0x3d7dd7a2	0.06197322
61	0xbe82986c	-0.25506914
62	0xbd6de19b	-0.058076482
63	0x3e4acb90	0.19804215
64	0xbd4f322a	-0.05058495
65	0xbdc70bcd	-0.09719048
66	0xbda35fb1	-0.07977236
67	0xbe792436	-0.2433022
68	0xbec3e3d9	-0.3825977
69	0xbe016c3b	-0.12638943
70	0x3eb32362	0.34987932
71	0xbe14b35e	-0.14521548
72	0x3e756237	0.23963247
73	0x3eb34e8f	0.35020873
74	0x3da3b3f7	0.0799331
75	0x3ddd50c6	0.10806422
76	0xbd5c1f1e	-0.053740613
77	0x3e8900fe	0.2675857
78	0x3eb5aa87	0.35481665
79	0x3eb9698e	0.36213344
80	0x3e2dab83	0.16959958
81	0x3da97cb4	0.08275738
82	0x3da16505	0.07880596
83	0x3f298d57	0.6623129
84	0x3e852818	0.26007152
85	0xbe8ec78d	-0.2788662
86	0x3e199ef9	0.1500205
87	0x3c148d41	0.009066881
88	0x3e58e8a3	0.21182494
89	0xbdf1acc7	-0.11800533
90	0xbe8ba03b	-0.27270684
91	0xbec1921e	-0.3780679
92	0xbe839258	-0.2569759
93	0xbed2cfa3	-0.4117404
94	0xbea0b65c	-0.3138913
95	0xbdf542c3	-0.119756244
96	0x3ee19cb3	0.44064865
97	0xbe6d7242	-0.23188117
98	0xbdb9ed11	-0.0907842
99	0xbe7112aa	-0.23542276
100	0xbeb62535	-0.35575262
101	0x3ddeb21e	0.10873817
102	0x3e828232	0.25489956
103	0xbd842417	-0.06452196
104	0x3d7b1f39	0.061309073
105	0x3d2dc729	0.042426262
106	0xbe5f3f42	-0.21801475
107	0x3e82392a	0.25434238
108	0xbe527ce2	-0.20555452
109	0xbe981906	-0.2970659
110	0x3ee4ad18	0.4466331
111	0x3f2d0ec4	0.67600656
112	0x3de8c20a	0.11365135
113	0x3cac0dd4	0.021002688
114	0xbeaf18dc	-0.34198654
115	0x3e97d574	0.2965504
116	0xbebd20ca	-0.3693908
117	0xbea876ee	-0.32903236
118	0x3e8bf380	0.27334213
119	0x3edb8667	0.42875978
120	0x3d8555dc	0.06510517
121	0xbe74daa0	-0.23911524
122	0xbd02b55f	-0.03191125
123	0x3e2fa86e	0.17154095
124	0xbe1ceabf	-0.15323924
125	0x3dd8d095	0.10586659
126	0xbe58d7ed	-0.21176119
127	0xbe6775f0	-0.22603583
128	0xbe26fa77	-0.16306482
129	0x3d89c50c	0.06727037
130	0xbd981370	-0.074255824
131	0xbd87ac9b	-0.06624719
132	0xbe8dd9df	-0.27705285
133	0xbdf0ba8d	-0.11754332
134	0xbb595619	-0.003316289
135	0xbd14652c	-0.036229298
136	0x3db3eafc	0.08785054
137	0xbef34568	-0.4751389
138	0xbeb698f6	-0.35663575
139	0x3ea32638	0.31865096
140	0x3e1e432d	0.15455313
141	0xbe3db07c	-0.18524355
142	0xbd8c32e2	-0.068456426
143	0x3e82d8cd	0.2555603
144	0x3dfeb6c1	0.12437201
145	0xbe36e71b	-0.17861597
146	0x3e04b378	0.12959087
147	0x3e4009b9	0.18753709
148	0x3dd2a93c	0.10286185
149	0xbe2fd9ff	-0.17173003
150	0xbd80d44a	-0.06290491
151	0xbe99b54e	-0.30021137
152	0xbe4b9b04	-0.19883353
153	0x3e56528f	0.20929931
154	0x3e9c9f08	0.3059008
155	0x3dbefe32	0.09325828
156	0x3e626f6d	0.22112818
157	0x3e2a4bfe	0.16630551
158	0x3eb7494b	0.35798106
159	0xbe7dcbcc	-0.24784774
160	0xbe7f6a60	-0.24942923
161	0xbec631ec	-0.38709962
162	0xbe7163a9	-0.23573174
163	0x3d36220a	0.044466056
164	0xbee92753	-0.45537814
165	0xbf22598d	-0.63417894
166	0x3e0c6ea3	0.1371408
167	0x3e9d8e8d	0.3077282
168	0xbe52bc4c	-0.20579642
169	0x3e813dad	0.25242367
170	0xbe4be69b	-0.19912188
171	0xbe40aec8	-0.18816674
172	0x3ebc38dd	0.36762133
173	0x3e642af1	0.22282006
174	0x3e161e8c	0.1466009
175	0x3e23ac65	0.15983732
176	0x3df3123a	0.11868711
177	0x3e5a090a	0.2129251
178	0xbeb47958	-0.35248828
179	0x3e81968f	0.2531018
180	0xbe0b8272	-0.1362398
181	0x3e8797f9	0.26483133
182	0x3ed61956	0.41816205
183	0x3ded2451	0.115791924
184	0x3e62f635	0.22164233
185	0xbde2399e	-0.11046146
186	0xbd912429	-0.07086975
187	0x3d8b83cd	0.068122484
188	0x3c8d5a7d	0.017255062
189	0xbe2371aa	-0.15961328
190	0x3e3fa170	0.18713927
191	0xbf060c14	-0.5236218
192	0x3e30d51f	0.17268799
193	0x3e0da3f4	0.13832074
194	0xbddac8e1	-0.10682846
195	0x3e159d63	0.1461082
196	0xbe37bde6	-0.17943534
197	0x3eb4b6c0	0.35295677
198	0x3e865faa	0.2624486
199	0xbea3bbcf	-0.31979224
200	0xbe93d0f2	-0.2887035
201	0x3e3e7e1e	0.18602797
202	0x3e9d1058	0.30676532
203	0x3dbe4c88	0.09291941
204	0xbe345fa3	-0.17614608
205	0x3eb27bd1	0.3486009
206	0xbdfc8130	-0.12329328
207	0x3e8ecb5e	0.27889532
208	0x3e0f42a5	0.13990267
209	0xbe8aafae	-0.27087158
210	0x3e8d81e0	0.2763815
211	0xbe54b24a	-0.20771137
212	0x3e392d6e	0.18083736
213	0x3ea6c46c	0.32571733
214	0xbe9f865b	-0.31157193
215	0x3c1b86fe	0.009492634
216	0xbe01192a	-0.12607256
217	0x3e713ecc	0.23559111
218	0x3eb45c06	0.35226458
219	0x3eac70ba	0.33679754
220	0x3ec01fa7	0.3752415
221	0x3d9cf5dd	0.07664082
222	0x3e142809	0.14468397
223	0x3e9cd385	0.30630127
224	0x3d5803d1	0.052738015
225	0xbd9ab30e	-0.07553683
226	0x3dbfeaaa	0.093709305
227	0xbe086462	-0.13319543
228	0xbe2f9878	-0.17148006
229	0x3df9df72	0.12200822
230	0xbdd40351	-0.10352195
231	0x3ec06ebc	0.37584484
232	0x3d5898e0	0.052880168
233	0xbe985de1	-0.29759124
234	0x3e292d54	0.16521198
235	0xbe9b6468	-0.3035004
236	0x3ead99b9	0.33906344
237	0xbc702aee	-0.014658673
238	0xbe007858	-0.12545907
239	0xbce01779	-0.027354943
240	0xbc50fdbc	-0.0127558075
241	0xbe2d7827	-0.16940366
242	0xbdbab43f	-0.091164105
243	0x3eb27a7a	0.34859067
244	0xbc9c9c70	-0.019117564
245	0xbd979328	-0.07401115
246	0xbee43b23	-0.44576368
247	0x3e2b2869	0.16714634
248	0xbdbc2e41	-0.0918851
249	0x3e8f4c22	0.27987772
250	0xbe0827e6	-0.1329647
251	0xbd075f4a	-0.03304986
252	0x3e718c0b	0.23588578
253	0x3e8b9f51	0.27269986
254	0x3ded5948	0.11589295
255	0xbe434cf8	-0.1907233

fc2.bias f4 [64]
0	0x3e815c4f	0.25265738
1	0x3ea0afe8	0.31384206
2	0xbe7327dd	-0.23745675
3	0x3e578295	0.21045907
4	0x3e290869	0.16507114
5	0x3e6e10a0	0.2324853
6	0xbe84bec7	-0.25926802
7	0x3eb4856f	0.35258052
8	0x3d8f2789	0.069899626
9	0xbd4ca495	-0.049961645
10	0x3e4a27fb	0.19741814
11	0xbe1b620f	-0.15174125
12	0x3e8315ea	0.25602657
13	0xbe77a25e	-0.24183032
14	0x3e099611	0.13436152
15	0x3e889ce3	0.26682195
16	0x3dabab5c	0.083822936
17	0x3dab1291	0.08353151
18	0xbe23580c	-0.15951556
19	0x3d2fa2db	0.04287992
20	0x3e173abb	0.14768498
21	0x3ea85039	0.32873705
22	0xbe35b531	-0.177449
23	0x3e98910f	0.2979817
24	0xbe33e399	-0.1756729
25	0x3e2132af	0.1574199
26	0x3e432139	0.19055642
27	0x3db082d2	0.08618702
28	0x3dd618d9	0.10453958
29	0xbe293988	-0.16525853
30	0x3ea84795	0.32867113
31	0xbe999dc7	-0.30003187
32	0x3eb0bd96	0.34519643
33	0x3e8bce63	0.27305898
34	0xbe8f71f8	-0.2801664
35	0xbe18ee2e	-0.14934608
36	0xbe266b83	-0.1625195
37	0x3e4db807	0.20089732
38	0x3e36440b	0.17799394
39	0x3e46331b	0.19355433
40	0x3e9a7c0e	0.3017277
41	0xbd320fc8	-0.04347208
42	0x3e4f0f09	0.20220579
43	0x3e8babb3	0.27279434
44	0x3d268703	0.0406561
45	0x3d8ac4f6	0.067758486
46	0x3eaffbba	0.3437174
47	0xbe376f99	-0.17913665
48	0xbc983c83	-0.018583542
49	0xbe9db693	-0.30803356
50	0x3e954828	0.29156613
51	0xbe870e34	-0.26378024
52	0x3db5af36	0.088713095
53	0xbe0b6c77	-0.13615595
54	0xbe0e25bc	-0.13881582
55	0x3d923c86	0.0714045
56	0x3e92f737	0.28704235
57	0x3d5af671	0.05345768
58	0x3c1bddb0	0.009513304
59	0x3e8d4c75	0.27597395
60	0x3e74974b	0.23885839
61	0x3d1d5905	0.038414974
62	0xbe661418	-0.22468603
63	0xbd30e002	-0.04318238

embedding.weight f4 [2, 64]
0	0xbf703466	-0.93829954
1	0xbfae8bf1	-1.3636457
2	0x4011e6be	2.2797084
3	0x3faf7ed5	1.3710581
4	0x3f9c29c1	1.2200242
5	0xbf3bf3e1	-0.73419005
6	0x3fa09b0e	1.2547319
7	0xbda9dfbe	-0.082946286
8	0xbef67343	-0.48134813
9	0xc02bc17b	-2.683684
10	0xbd87cfd6	-0.066314384
11	0x3f168a68	0.5880494
12	0x3f2a0a95	0.66422397
13	0x3f81abb7	1.0130528
14	0x40169925	2.3530972
15	0xbfaf0d26	-1.3675888
16	0xbf6fc0b1	-0.936534
17	0xbf0e68ff	-0.5562896
18	0x3fa23bda	1.2674515
19	0xbf1c5b32	-0.61076653
20	0xbfa8292d	-1.3137566
21	0x3f12f178	0.573997
22	0x3ec54ac0	0.38533592
23	0xbf76b074	-0.96362996
24	0x3fc6d157	1.5532635
25	0x3f97d278	1.1861105
26	0xbf1fe7ab	-0.6246287
27	0xbed15bc5	-0.40890327
28	0xbe26617b	-0.16248123
29	0x3f8b6c88	1.0892496
30	0x3d1e329d	0.038622487
31	0x3f073526	0.52815473
32	0xbe824164	-0.25440514
33	0xbf368742	-0.7130014
34	0x3ffce7e4	1.9758267
35	0xbfa2c453	-1.2716163
36	0xc00d0283	-2.2032783
37	0x3facb1fb	1.3491815
38	0xc003152c	-2.0481672
39	0x3ca62441	0.02028096
40	0xbffbe0f7	-1.9678029
41	0xbfa2e22a	-1.272527
42	0x3f490b08	0.7853246
43	0x3e25c82f	0.16189645
44	0xbf1026f6	-0.5630945
45	0xbea31b98	-0.3185699
46	0x3f86b0d6	1.0522716
47	0x3ebf330d	0.37343636
48	0xbea84192	-0.32862526
49	0x3ed462e2	0.41481692
50	0xbfcc3334	-1.5953126
51	0x3eb92a0f	0.361649
52	0xc005b58f	-2.0892065
53	0xbfa43362	-1.2828181
54	0x3f9a18f0	1.203886
55	0x3e63405c	0.2219252
56	0x3eeca398	0.46218562
57	0xbfb0b44e	-1.3805025
58	0xbf4e78ed	-0.8065327
59	0xbdb4e4fc	-0.08832738
60	0xbe58d4aa	-0.21174875
61	0xc0207040	-2.5068512
62	0xc005a3af	-2.0881155
63	0x3fd3720e	1.6519182
64	0xbee5b9a0	-0.44868183
65	0x3f86a1d1	1.0518132
66	0xbf954b91	-1.1663686
67	0xbfcaf141	-1.5854875
68	0xbf4a242d	-0.7896145
69	0xbf2a64b6	-0.6655992
70	0x3f616534	0.8804505
71	0xbf779eee	-0.9672688
72	0xbe391c77	-0.18077265
73	0x3f6a5cad	0.9154766
74	0xc01dee8e	-2.4676852
75	0xc00058f8	-2.0054302
76	0x3f17a17e	0.5923079
77	0x3faa06b4	1.3283296
78	0xbddb5de4	-0.107112676
79	0xbe7ec722	-0.2488065
80	0x3e61fd34	0.22069246
81	0xbe81ae2c	-0.25328195
82	0x3f349a16	0.70547616
83	0xbfd3ca99	-1.6546203
84	0xbe34c67c	-0.17653841
85	0xbf36f9be	-0.71474826
86	0x3f46aee5	0.7761062
87	0x3f930c4e	1.148813
88	0xbde3320d	-0.11093531
89	0x3fd2bf07	1.6464547
90	0xbe818f0e	-0.25304455
91	0xbe67332c	-0.22578114
92	0xbdfce795	-0.12348858
93	0x3feccd1e	1.8500097
94	0x3fe01bfa	1.7508538
95	0x3e61cd3a	0.22050944
96	0x3db0f18f	0.08639824
97	0xbfefcf75	-1.8735186
98	0x3f31e5b7	0.6949114
99	0x3ec9e492	0.39432198
100	0x3e4b8f08	0.19878781
101	0x3e58e3b0	0.21180606
102	0xbe804bd6	-0.25057858
103	0x3eed94ef	0.4640269
104	0xbebc7b76	-0.36812943
105	0x3f6b6ce5	0.91963035
106	0x3fab9efb	1.3407892
107	0x3f82cc37	1.0218571
108	0x3fc00945	1.5002829
109	0x3ecd83a5	0.401395
110	0x3fa2d539	1.272132
111	0x3f4f2aef	0.80924886
112	0xbffa2d97	-1.9545163
113	0xbed1a03b	-0.4094256
114	0x4007f036	2.1240363
115	0xc0260bf4	-2.5944796
116	0xbfec3e5f	-1.8456534
117	0x3feef02b	1.8667043
118	0xbee6dd43	-0.45090684
119	0x3ed20254	0.410174
120	0x3f64c5fd	0.89364606
121	0x3f3f98fe	0.7484282
122	0xbf1e8e58	-0.6193595
123	0xbedd27c4	-0.431944
124	0xbfa34223	-1.2754558
125	0xbf80891f	-1.0041846
126	0x3fd117db	1.6335405
127	0x3da64bc7	0.08119922

adaLN_modulation.1.weight f4 [128, 64]
0	0x3ce339b1	0.02773747
1	0x3dffca66	0.12489776
2	0xbd808417	-0.06275194
3	0xbacd5392	-0.0015665165
4	0xbd7090c9	-0.058731828
5	0x3d7bc84d	0.06147032
6	0x3de02034	0.10943642
7	0x3db3f3e8	0.08786756
8	0x3d077641	0.03307176
9	0xbde25331	-0.11051024
10	0x3db3ecf6	0.08785431
11	0x3d060323	0.032717835
12	0xbda89b22	-0.08232714
13	0x3d6150fc	0.055008873
14	0xbdd3321c	-0.10312292
15	0x3dc23618	0.09482974
16	0x3d8b4d42	0.06801845
17	0x3c235645	0.009969299
18	0x3e2021fd	0.15637966
19	0xbc3f054c	-0.011658978
20	0xbb037fe1	-0.0020065235
21	0xbd85463f	-0.06507539
22	0xbd305a00	-0.04305458
23	0x3d58e589	0.052953277
24	0xbdd11b56	-0.10210292
25	0xbbd44b29	-0.0064786864
26	0x3d9f5cb5	0.07781354
27	0x3d4b016f	0.049561914
28	0x3dd0c418	0.10193652
29	0x3c8f8d6c	0.01752349
30	0x3d346da3	0.04404987
31	0x3d8abc8d	0.067742445
32	0xbd34c7c0	-0.04413581
33	0x3ca75b7c	0.020429365
34	0xbc02298f	-0.007944479
35	0xbd4cdda7	-0.05001607
36	0x3d9e61ea	0.077335194
37	0xbcb8ddfa	-0.022566784
38	0xbd2011e7	-0.039079573
39	0xbd96f3af	-0.07370698
40	0xbdfba200	-0.122867584
41	0xbd547429	-0.05186859
42	0x3df949e4	0.12172297
43	0x3dd64a41	0.104633816
44	0x3d78b613	0.060720515
45	0xbcf8f78c	-0.030391477
46	0x3cdad39a	0.026712228
47	0xbd4e75c6	-0.050405286
48	0xbbda12f2	-0.0066550905
49	0x3d96a04a	0.073547915
50	0xbd3a0422	-0.045414098
51	0xbc35dd2e	-0.011100097
52	0xbca39df1	-0.019972773
53	0x3d99eb12	0.07515539
54	0xbcb53df4	-0.022124268
55	0xbd44067e	-0.047857754
56	0x3cabd8b8	0.020977363
57	0x3d421acd	0.04738884
58	0x3ca81682	0.020518545
59	0xbddf5339	-0.10904545
60	0xbd839c2f	-0.06426274
61	0xbe0cd1eb	-0.13751952
62	0xbde7083d	-0.11280868
63	0x3d73b889	0.05950216
64	0x3e1c380b	0.15255754
65	0x3dc7214f	0.0972315
66	0xbd640521	-0.055668954
67	0xbdf7c85c	-0.120987624
68	0xbd91ab16	-0.0711271
69	0x3e124f1b	0.14287989
70	0xbd7b0d37	-0.0612919
71	0x3e26cec1	0.16289808
72	0x3df569a9	0.11983044
73	0xbde8eef8	-0.11373705
74	0xbde4dd30	-0.11175001
75	0xbd1b0175	-0.037843186
76	0x3e1e5656	0.15462622
77	0xbdc89a08	-0.09795004
78	0xbda0427b	-0.0782518
79	0x3d76cbeb	0.060253065
80	0x3d2fca81	0.042917732
81	0x3da216fd	0.07914541
82	0xbda85164	-0.08218649
83	0x3e0f96d6	0.14022383
84	0x3d0797ff	0.03310394
85	0xbe0342ab	-0.128184
86	0xbb47757f	-0.0030435023
87	0xbdf68771	-0.12037552
88	0x3d7034a2	0.058643945
89	0xbd9b3dd2	-0.07580151
90	0xbdffc1a4	-0.12488106
91	0x3e07c13d	0.13257308
92	0x3dca8202	0.09888078
93	0x3cdc178e	0.0268667
94	0x3c608cd3	0.01370545
95	0x3dd397cc	0.10331687
96	0x3d2d5930	0.042321384
97	0xbddc4027	-0.107544236
98	0xbd7531ed	-0.059862066
99	0xbddc8d9d	-0.10769198
100	0x3d470c34	0.048595622
101	0x3cc74de1	0.024329128
102	0xbbb65c6f	-0.005565218
103	0x3c96cc14	0.018407859
104	0xbd31966c	-0.043356344
105	0xbc82809b	-0.015930464
106	0x3df0558b	0.11735066
107	0xbdf5d870	-0.12004173
108	0xbc899307	-0.01679374
109	0x3d43620b	0.047700923
110	0xbd3001b1	-0.042970363
111	0x3d84c3e9	0.064826794
112	0x3d494fa0	0.049148202
113	0x3e24f3b6	0.16108593
114	0xbd989763	-0.0745075
115	0x3c27ea6b	0.010248761
116	0xbd09ff62	-0.033690818
117	0xbe1152b1	-0.141917
118	0xbd37a3d0	-0.04483396
119	0x3decf029	0.115692444
120	0xbe06e083	-0.13171582
121	0xbdce3bf0	-0.10070026
122	0x3db7974e	0.08964406
123	0x3d5c3e80	0.053770542
124	0xbbd2d1de	-0.0064337095
125	0x3d050345	0.03247382
126	0x3c00e328	0.007866658
127	0xbd598be0	-0.05311191
128	0xbd17c33c	-0.037051424
129	0x3c6270ed	0.013820869
130	0x3c4d6ce9	0.012538173
131	0x3ca347c0	0.019931674
132	0xbd80ec48	-0.06295067
133	0x3bfb5ec7	0.0076712104
134	0x3d48216f	0.04886001
135	0xbd21ab6d	-0.039470125
136	0xbc88af70	-0.016685218
137	0xbb62a0bf	-0.0034580675
138	0xbdf124f7	-0.117746286
139	0xbd99e7c0	-0.07514906
140	0xbd64c3d5	-0.055850822
141	0x3dbca683	0.09211447
142	0x3dc584de	0.09644483
143	0x3d6e333d	0.058154333
144	0xba8c57cb	-0.0010707317
145	0x3d7e91b8	0.062150687
146	0xbddb4565	-0.10706595
147	0x3dc630de	0.096772894
148	0xbcd43e7d	-0.025908703
149	0x3cdc2e5b	0.026877573
150	0x3d54d16d	0.051957536
151	0x3d597bde	0.053096645
152	0x3d837ea2	0.06420638
153	0x3cae3ba9	0.021268683
154	0xbd1e40f0	-0.038636148
155	0xbdd9dde5	-0.10638026
156	0xbdbfafc6	-0.09359698
157	0xbdcb34bb	-0.09922167
158	0xbb0d323c	-0.0021544835
159	0x3cf68261	0.030091466
160	0xbbdafbc7	-0.006682846
161	0x3cab53b2	0.020913932
162	0xbd9287ed	-0.07154832
163	0xbc236d7e	-0.009974835
164	0xbc8abc2d	-0.016935432
165	0xbdb3fea1	-0.08788801
166	0x3d12047f	0.03564882
167	0xbdc1253e	-0.094309315
168	0xbda68717	-0.08131235
169	0x3cb0f6c1	0.021602036
170	0xbd78ef07	-0.06077483
171	0x3db7fb3e	0.089834675
172	0xbd997938	-0.07493824
173	0xbd6e4ebc	-0.058180556
174	0xbcf0a6ff	-0.029376505
175	0xbd8b9e09	-0.06817252
176	0x3e0551cb	0.13019483
177	0x3ca8fe84	0.020629175
178	0xbdcf49e4	-0.101215154
179	0x3dcaa486	0.098946616
180	0xbe0798ae	-0.13241836
181	0x3d2c9164	0.042130843
182	0xbc123b53	-0.008925277
183	0x3be6bce8	0.0070415623
184	0xbc88db75	-0.016706208
185	0xbcd4ed32	-0.02599201
186	0xbd92a5fa	-0.07160564
187	0xbdc9ef7a	-0.0986013
188	0xbd7986f2	-0.06091971
189	0x3cd86bf2	0.02641866
190	0x3db5fbf9	0.088859506
191	0xbd72ecb3	-0.059307765
192	0xbc6dbacb	-0.014509867
193	0xbde485d5	-0.11158339
194	0x3cc86c3c	0.024465673
195	0xba877cef	-0.0010336916
196	0xbd0c7aaf	-0.034296688
197	0x3e015f50	0.12634015
198	0xbce0e3e1	-0.027452411
199	0x3dbd8a35	0.092548765
200	0xbdaf96f5	-0.08573715
201	0x3d19ae78	0.037519902
202	0x3d6e1545	0.058125753
203	0x3da5e6c7	0.08100658
204	0xbcb6a683	-0.022296196
205	0x3cc4fcf2	0.024046395
206	0x3dbed7b7	0.09318488
207	0xbe013166	-0.126165
208	0x3c8e7b49	0.017392771
209	0x3cf2318c	0.029564641
210	0xbcb164e3	-0.021654552
211	0xbddc18e0	-0.10746932
212	0xbc16cf6b	-0.009204726
213	0xbdbe251d	-0.092844225
214	0x3dec59fd	0.115406014
215	0x3d68e53f	0.05685925
216	0x3da7deab	0.081967674
217	0xbd999f83	-0.075011276
218	0x3dac9394	0.08426586
219	0x3c5e09bd	0.0135521265
220	0x3d33a1a7	0.043855336
221	0xbcb02bd1	-0.021505268
222	0x3ca886a1	0.020572009
223	0xbc5d7092	-0.013515608
224	0xbc512edc	-0.01276752
225	0x3d0fb4f0	0.035084665
226	0x3c90e7e7	0.017688705
227	0xbdd46191	-0.10370172
228	0xbc38933d	-0.011265573
229	0x3d888cd3	0.06667485
230	0xbdf9dd0d	-0.12200365
231	0xbdb75910	-0.08952534
232	0xbce0b17f	-0.027428387
233	0xbd73352d	-0.059376884
234	0xbdb115c2	-0.08646728
235	0xbd825818	-0.06364459
236	0xbdd2b69b	-0.102887355
237	0xbdcf7971	-0.10130585
238	0x3c98fd3c	0.018675439
239	0x3d4c9971	0.04995102
240	0xbe0c10a5	-0.13678224
241	0xbd03fbe1	-0.032222632
242	0x3db83e25	0.08996228
243	0xbd8550ff	-0.065095894
244	0xbd78716c	-0.060655043
245	0x3d529549	0.0514119
246	0xbc1f371a	-0.009717727
247	0x3d434f2c	0.047682926
248	0x3cd5b855	0.026088873
249	0x3a0ccc3e	0.00053710106
250	0xbd11d4e3	-0.035603415
251	0x3d5e0e1f	0.054212686
252	0x3d951e40	0.0728116
253	0x3d3489f3	0.04407687
254	0x3b9a6d7b	0.004712758
255	0xbd99c719	-0.07508678

adaLN_modulation.1.bias f4 [128]
0	0xbd3d435e	-0.046206824
1	0x3d1a75a3	0.037709843
2	0xbcac82fa	-0.021058548
3	0x3c883c26	0.016630244
4	0xbdee8941	-0.11647273
5	0xbdab2753	-0.0835711
6	0xbd618209	-0.05505565
7	0xbd25816f	-0.04040664
8	0xbd881a38	-0.06645626
9	0xbca2a775	-0.01985524
10	0x3d7a9c8b	0.061184447
11	0x3df9e91b	0.122026645
12	0x3df7bad1	0.12096179
13	0x3cc5c607	0.024142278
14	0xbcbf4a4a	-0.023350853
15	0xbdf9b123	-0.12191989
16	0x3dea7ccb	0.114495836
17	0xbd0addce	-0.033902936
18	0xbe19a0f6	-0.15002808
19	0xbbc0c1a1	-0.0058824574
20	0x3d1ebb83	0.038753044
21	0xbbb09b57	-0.0053896117
22	0xbd0c4409	-0.03424457
23	0xbbe89d22	-0.00709881
24	0xbdf4f548	-0.11960846
25	0xbe07bee2	-0.1325641
26	0x3df32036	0.11871378
27	0xbdbb2a4a	-0.091389254
28	0x3d62fbf3	0.05541606
29	0xbdbc8d04	-0.09206584
30	0x3db697fa	0.08915706
31	0x3d3fd51c	0.046834096
32	0xbdf9a606	-0.121898696
33	0xbd6cfaad	-0.05785625
34	0xbdcd10cd	-0.1001297
35	0x3c851daf	0.016249506
36	0xbd1f5bbe	-0.03890585
37	0x3dc2bb8a	0.095084265
38	0xbb7657eb	-0.0037589024
39	0x3dab0a50	0.08351576
40	0x3decfb67	0.11571389
41	0x3ddc962f	0.10770833
42	0x3dd8c845	0.105850734
43	0xbdaf2525	-0.08552007
44	0xbc89543a	-0.016763795
45	0xbd5288f3	-0.051400136
46	0x3d6b51bd	0.057451
47	0x3db3827d	0.08765123
48	0x3d982971	0.07429779
49	0xbd83a448	-0.064278185
50	0xbdf77281	-0.12082387
51	0x3d34b118	0.044114202
52	0x3d3a1862	0.04543341
53	0xbd9b2079	-0.07574553
54	0x3dd79d31	0.10528029
55	0xbcf27822	-0.0295983
56	0x3bfa0e32	0.0076310867
57	0xbdcbd88a	-0.09953411
58	0x3c11fe5f	0.008910744
59	0x3c859a85	0.016309032
60	0xbd195ce9	-0.03744212
61	0xbd4a326c	-0.049364492
62	0x3aaae802	0.0013039114
63	0x3ce9e219	0.028550195
64	0x3dd53b7d	0.10411737
65	0x3dc5b2bf	0.09653234
66	0xbd4f3b33	-0.050593566
67	0x3dca0c28	0.098656
68	0xbd784bc6	-0.06061914
69	0xbd2b52cc	-0.041827008
70	0x3e19ae1a	0.1500782
71	0xbda8ff57	-0.08251827
72	0xbe0cf84c	-0.13766593
73	0xbdf5bfe7	-0.11999493
74	0x3c00db58	0.007864796
75	0xbda75d7f	-0.0817213
76	0x3d61c2f7	0.055117574
77	0x3df40d60	0.119166136
78	0x3c84f0fd	0.016228193
79	0x3d744d6d	0.05964415
80	0x3d4fdefd	0.050749768
81	0x3d8d9dd2	0.069148675
82	0x3d3f4c6d	0.046703745
83	0x3dca1bc4	0.09868577
84	0x3b853213	0.004064807
85	0x3de84538	0.113413274
86	0xbd5dfc95	-0.05419596
87	0x3ceaa65f	0.028643785
88	0xbe0ee019	-0.13952674
89	0xbe094bbf	-0.13407801
90	0xbd810958	-0.0630061
91	0xbdb280fa	-0.087160066
92	0xbde80bf3	-0.11330404
93	0xbd4b65d2	-0.04965765
94	0x3c31dd66	0.010856008
95	0xbd85f674	-0.06541148
96	0xbd18d291	-0.037310187
97	0x3d28acb5	0.04118033
98	0x3e1f1c66	0.15538177
99	0xbcbeef8d	-0.023307586
100	0xbc04858e	-0.008088483
101	0xbe014bc4	-0.12626559
102	0x3cf896ec	0.030345403
103	0x3d6e9bc4	0.05825402
104	0x3d49829c	0.049196824
105	0x3d83e3ef	0.06439959
106	0xbcb2af0b	-0.021811983
107	0xbddf67d5	-0.10908476
108	0x3cec4a97	0.028844161
109	0xbda64386	-0.08118348
110	0xbd0c8db6	-0.034314834
111	0xbd510977	-0.051034417
112	0xbd0326fc	-0.0320196
113	0x3c35bd55	0.011092504
114	0xbd3d6889	-0.04624227
115	0x3d824140	0.06360102
116	0x3c14cf7b	0.00908267
117	0xbd5fa94f	-0.054604825
118	0x3d396999	0.04526672
119	0x3cb87523	0.022516793
120	0x3d9bad2d	0.0760139
121	0x3dacd96c	0.084399074
122	0x3df4495b	0.11928054
123	0xbdec595a	-0.1154048
124	0x3d8f43da	0.069953635
125	0xbbc4b118	-0.0060025565
126	0xbde0ac91	-0.109704144
127	0x3e0d8114	0.1381877

advantage.0.weight f4 [256, 64]
0	0x3d245b45	0.040126104
1	0xbdf2f0ee	-0.1186236
2	0x3d3a427a	0.045473553
3	0x3d90b02e	0.070648536
4	0x3df8bde5	0.121455945
5	0xbe0e930f	-0.13923286
6	0x3c27c5a9	0.010239997
7	0xbd462dea	-0.04838363
8	0x3daf2fc2	0.08554031
9	0xbc7b6368	-0.0153435245
10	0xbdfd4f55	-0.12368647
11	0xbe1c394d	-0.15256234
12	0xbdb2c586	-0.08729081
13	0xbd81b63e	-0.06333588
14	0xbd6c2f6d	-0.057662416
15	0xbcdd7f6a	-0.027038295
16	0xbd4847d6	-0.048896633
17	0x3d85b55d	0.06528733
18	0x3d0e15ca	0.03468875
19	0xbdf5cdf6	-0.120021746
20	0x3df9c024	0.12194851
21	0x3de4c7a6	0.111708924
22	0xbd8bba52	-0.06822647
23	0x3cd72fb0	0.026267856
24	0xbc8f51b0	-0.017495006
25	0x3c9ea0be	0.019363757
26	0xbd5154d4	-0.05110629
27	0x3d6e7a04	0.058221832
28	0xbdbfe436	-0.093697
29	0x3d5b583e	0.05355095
30	0xbdd642c8	-0.10461956
31	0x3c4f234c	0.012642693
32	0x3e0316a7	0.1280161
33	0xbc991112	-0.018684898
34	0xbddabc91	-0.106804974
35	0xbcda108f	-0.026619224
36	0x3e091f31	0.13390805
37	0x3ccfafdf	0.025352417
38	0xbd8ba3da	-0.068183616
39	0x3d97af7f	0.0740652
40	0x3e031cdb	0.12803976
41	0x3d0e50e0	0.034745097
42	0x3df7dfbb	0.1210322
43	0xbdb01334	-0.08597413
44	0xbbf709e2	-0.00753902
45	0xbd391ba1	-0.045192365
46	0xbcfdb377	-0.030969365
47	0xbdb9486a	-0.09047015
48	0x3dfd2eba	0.12362428
49	0xbc3ba29e	-0.011452345
50	0xbd7cc32d	-0.06170957
51	0xbb963584	-0.0045840163
52	0x3dc0e7b0	0.09419191
53	0x3d96ea88	0.07368952
54	0x3c9e6442	0.019334916
55	0xbdf9cb6e	-0.12197004
56	0xbda26a83	-0.07930472
57	0x3e4a1e2b	0.1973807
58	0x3db93154	0.09042612
59	0xbe259f30	-0.16174006
60	0x3d270039	0.040771697
61	0xbc59c401	-0.01329136
62	0xbdb2439b	-0.08704301
63	0xbd830161	-0.063967474
64	0x3c2ee537	0.010674766
65	0x3d40ef61	0.04710329
66	0xbda98b53	-0.08278527
67	0xbd8711ff	-0.06595229
68	0xbdf2c972	-0.11854829
69	0x3dee4ef9	0.116361566
70	0xbdd8385d	-0.105576254
71	0xbe13e026	-0.14440975
72	0x3d9adb3c	0.07561347
73	0xbd68a86e	-0.056801252
74	0x3dc86999	0.09785766
75	0x3dc837b7	0.09776252
76	0x3d4bdcbe	0.049771063
77	0xbd5c9238	-0.053850383
78	0xbcd245d0	-0.025668055
79	0xbb60aea4	-0.0034283781
80	0x3de1c9bb	0.11024805
81	0x3da6ce39	0.081448026
82	0x3e0a274a	0.1349155
83	0x3df0bf77	0.11755269
84	0x3d664533	0.056218337
85	0xbe1bb876	-0.15207085
86	0x3dc53c3b	0.09630629
87	0xbdcea13c	-0.10089347
88	0x3d2f8449	0.042850766
89	0x3de40590	0.111338735
90	0xbd45fe36	-0.048338138
91	0xbdac05ec	-0.08399567
92	0x3db03219	0.08603305
93	0xbcfb6358	-0.03068702
94	0xbd35659b	-0.04428635
95	0x3cdf1e53	0.02723614
96	0xbdb37468	-0.08762437
97	0xbde180b6	-0.11010878
98	0x3cde24f3	0.027117228
99	0xbdfcb396	-0.12338941
100	0x3dd54a4b	0.10414561
101	0x3c915092	0.017738614
102	0x3da4b970	0.08043182
103	0xbd3726b9	-0.044714663
104	0xbdb7db3a	-0.08977361
105	0xbdd4827f	-0.10376453
106	0xbde608d9	-0.11232156
107	0xbd4c420c	-0.049867675
108	0xbc8cbab1	-0.017178865
109	0x3d9e62a7	0.0773366
110	0xbcf57d99	-0.029967116
111	0x3d45f737	0.048331466
112	0xbdecf80e	-0.1157075
113	0x3d9a9ff8	0.07550043
114	0x3c7e10fa	0.015506977
115	0x3c5d0983	0.013491037
116	0x3ad469e2	0.0016205872
117	0x3cfb9243	0.030709391
118	0xbd8d6164	-0.069033414
119	0x3d2f2f58	0.04276976
120	0x3cc6dfe5	0.024276683
121	0xbd9cb61c	-0.07651922
122	0x3d1bd65f	0.038046237
123	0xbdc96a67	-0.09834748
124	0xbd487756	-0.048941933
125	0x3c674b8e	0.014117135
126	0xbdc59418	-0.09647387
127	0xbdca5894	-0.09880176
128	0x3d2e2d24	0.04252352
129	0x3c59a696	0.013284346
130	0x3dd25ad0	0.10271227
131	0xbdbfab4f	-0.093588464
132	0x3d3250ae	0.043533973
133	0x3defb18c	0.11703786
134	0xbdc4351d	-0.09580443
135	0x3cc2b4b1	0.023767801
136	0xbdbd8d96	-0.09255521
137	0xbdc170b5	-0.09445325
138	0x3e0d64c2	0.13807967
139	0xbd705df2	-0.058683343
140	0xbdcbf0c9	-0.099580355
141	0xbcee8857	-0.029117746
142	0xbe158812	-0.14602688
143	0x3dcb2579	0.09919257
144	0xbdd77932	-0.10521163
145	0x3d64cb0b	0.0558577
146	0x3d60801e	0.054809682
147	0xbdbf9a0e	-0.093555555
148	0x3d3a087b	0.045418244
149	0x3c0729ca	0.008249709
150	0x3ca7ed7c	0.020498984
151	0x3c86662c	0.016406141
152	0xbda07834	-0.07835427
153	0x3d669bd2	0.056300946
154	0xbc8facf7	-0.01753853
155	0x3cc8a7dd	0.024494106
156	0x3dd7723b	0.105198346
157	0x3dc005a2	0.093760744
158	0x3d482b98	0.0488697
159	0xbda5e9ee	-0.08101259
160	0xbd982916	-0.074297115
161	0x3db52fb2	0.08846988
162	0xbd6a6e3d	-0.057234038
163	0xbcfccb36	-0.030858617
164	0xbdf498cb	-0.119432054
165	0xbdbdd208	-0.09268576
166	0x3de33852	0.110947266
167	0x3e047ac4	0.12937456
168	0x3d0a0e15	0.033704836
169	0xbd195a22	-0.037439473
170	0xbe0c6664	-0.13710934
171	0xbde6d06e	-0.112702236
172	0xbd86b4e7	-0.06577473
173	0x3e1febe5	0.1561733
174	0xbe025b16	-0.12730059
175	0x3d98261c	0.07429144
176	0x3ca4706d	0.02007314
177	0xbd862856	-0.06550662
178	0xbc2dd347	-0.0106094545
179	0xbd977073	-0.07394495
180	0x3cfe64c7	0.031053914
181	0xbd9aac69	-0.07552416
182	0xbc86fa0b	-0.016476652
183	0x3e058262	0.13038018
184	0x3df58546	0.119883105
185	0xbdb1457a	-0.0865583
186	0xbc839aa9	-0.016064959
187	0x3d351dbd	0.044217814
188	0x3dec2cfa	0.11532016
189	0xbdcb6bc3	-0.09932663
190	0xbe0d81d1	-0.13819052
191	0x3bdc1d91	0.006717392
192	0xbda05e16	-0.078304455
193	0x3daec7f5	0.085342325
194	0x3c253f5e	0.010085909
195	0x3dbc1ffe	0.091857895
196	0x3d4746bb	0.04865144
197	0x3c952bb8	0.018209323
198	0xbe061ea7	-0.1309763
199	0x3dc3123b	0.095249616
200	0x3cd2af3f	0.02571833
201	0x3cee1b22	0.029065672
202	0x3dc50ec1	0.09621955
203	0xbdb94217	-0.09045809
204	0xbd488e93	-0.048964094
205	0x3cccd619	0.025004433
206	0xbdcec0da	-0.10095377
207	0xbdbc2f9f	-0.091887705
208	0xbd87ac21	-0.06624628
209	0xbd3b8c69	-0.045788202
210	0xbda00e15	-0.07815186
211	0xbca49f36	-0.020095449
212	0xbdb30610	-0.08741391
213	0x3d81a0fd	0.06329534
214	0x3da1d192	0.079013005
215	0xbe0a55a9	-0.1350924
216	0x3db4adb9	0.088221975
217	0x3e0fe12f	0.14050744
218	0x3c8ca387	0.01716782
219	0xbdb0c2fc	-0.0863094
220	0x3d1ec321	0.03876031
221	0x3e084dc8	0.13310921
222	0xbde5eae0	-0.112264395
223	0x3c09bb2f	0.008406444
224	0xbd3f07ee	-0.04663842
225	0xbdbd1933	-0.09233322
226	0x3a60d694	0.00085768965
227	0xbcf576ae	-0.029963817
228	0xbb8c8b4c	-0.0042890664
229	0xbd039eff	-0.032134052
230	0xbd8a2575	-0.067454256
231	0x3d875d45	0.066095866
232	0xbd3f2243	-0.046663534
233	0xbd27a001	-0.040924076
234	0x3d50fb35	0.05102082
235	0xbd01be7a	-0.031675793
236	0xbddb8e81	-0.1072054
237	0xbe0f20d5	-0.13977368
238	0x3de12fd9	0.10995454
239	0x3daeacfe	0.085290894
240	0x3d173ad9	0.036921356
241	0xbd424db9	-0.047437403
242	0x3c2e7e1f	0.010650187
243	0xbde35d09	-0.111017294
244	0xbd9934f4	-0.07480803
245	0x3e193d23	0.14964728
246	0x3d27f88d	0.04100852
247	0xbdd81cca	-0.10552366
248	0xbc934942	-0.017979268
249	0xbd20eea4	-0.039290085
250	0xbda7cd4f	-0.081934564
251	0xbd506d2f	-0.050885376
252	0x3db1a205	0.08673481
253	0x3d04de17	0.032438364
254	0x3ddefa9c	0.10887644
255	0x3d20e1ef	0.039277967

advantage.0.bias f4 [256]
0	0x3cece91c	0.028919749
1	0x3dd9b5fc	0.10630414
2	0x3dc06d95	0.09395901
3	0x3d43591d	0.047692407
4	0x3d273a98	0.040827364
5	0xbe0a5537	-0.1350907
6	0xbdd83722	-0.10557391
7	0xbdf81b78	-0.12114614
8	0xbd0253aa	-0.03181807
9	0xbd02471a	-0.03180609
10	0x3dc4e084	0.096131355
11	0xbdc286f3	-0.09498396
12	0xbd303d4c	-0.043027207
13	0x3bd840bb	0.0065995133
14	0x3db51d38	0.08843464
15	0x3cda00c2	0.02661169
16	0xbe112b52	-0.14176682
17	0x3d9a514e	0.07535039
18	0xbda18a05	-0.07887653
19	0x3c3f30a6	0.011669314
20	0xbde3a32e	-0.111151084
21	0x3dd87bda	0.10570498
22	0xbd1b2e4e	-0.037885956
23	0x3d828467	0.0637291
24	0xbd694f97	-0.05696067
25	0x3cd7cc89	0.026342647
26	0xbc36d1dc	-0.011158433
27	0x3cf9289b	0.03041487
28	0x3dc49202	0.09598161
29	0xbd492e2f	-0.04911631
30	0xbcccdf39	-0.025008785
31	0x3d17ab5c	0.037028655
32	0xbdbc0143	-0.09179928
33	0x3d7e6014	0.062103346
34	0xbde5ee45	-0.11227087
35	0xbd83e898	-0.06440848
36	0x3d90c6d7	0.07069176
37	0xbd59a39d	-0.05313455
38	0x3b021e80	0.0019854605
39	0x3dd1e215	0.102482
40	0xbb76a4a0	-0.0037634745
41	0x3da98287	0.08276849
42	0x3d3ac5cb	0.045598786
43	0xbd09b42f	-0.033619102
44	0xb9a30756	-0.00031095248
45	0xbd8b3e0b	-0.06798943
46	0x3cb9b60c	0.022669815
47	0xbd9ea146	-0.07745604
48	0x3c7f2869	0.015573599
49	0xbd4b8484	-0.049686924
50	0xbd8c0897	-0.06837576
51	0x3d771e32	0.06033153
52	0x3d8a9771	0.067671664
53	0x3db6491a	0.08900662
54	0xbd5f9829	-0.05458847
55	0xbdad3b57	-0.08458584
56	0x3d745229	0.059648667
57	0xbd9a5e06	-0.07537465
58	0xbdca0049	-0.09863336
59	0xbc5c842e	-0.0134592485
60	0x3d7b4f59	0.06135497
61	0xbe0507f7	-0.1299132
62	0x3be22f9b	0.0069026477
63	0xbc8d94a1	-0.017282786
64	0xbd10f4f2	-0.035389848
65	0xbd64764a	-0.05577687
66	0x3cb41584	0.021982916
67	0xbdfc5e6b	-0.12322696
68	0x3dc4f3f9	0.096168466
69	0x3d49c1d0	0.0492571
70	0xbd52c477	-0.051456895
71	0xbde79e49	-0.113094874
72	0x3d13f98e	0.036126666
73	0x3d405e46	0.046964906
74	0x3dfe7b02	0.12425806
75	0xbe16e54d	-0.14735909
76	0xbb44ebee	-0.0030047852
77	0xbdbe6e9f	-0.09298443
78	0xbde88e98	-0.113553226
79	0xbe13abfa	-0.14421073
80	0x3ae2b1a6	0.0017295375
81	0x3cd9e0ce	0.026596453
82	0x3de50aea	0.11183722
83	0xbcad38fe	-0.02114534
84	0xbd80d73e	-0.06291054
85	0x3b913ec8	0.004432533
86	0x3c8797eb	0.016551932
87	0x3dc56612	0.09638609
88	0xbd1224fb	-0.0356798
89	0x3cc6cce0	0.024267614
90	0x3d8904f1	0.066903956
91	0x3d8b490e	0.068010435
92	0x3bfe6579	0.0077635613
93	0xbd36765a	-0.044546463
94	0xbd5d4418	-0.054020017
95	0x3c8aa6fa	0.016925324
96	0x3db8fb17	0.090322666
97	0xbd207722	-0.039176114
98	0xbdafdf76	-0.08587544
99	0xbd475fec	-0.048675463
100	0x3d55cac3	0.05219532
101	0x3d0bb4c2	0.03410793
102	0x3d8678d4	0.06566015
103	0x3db97b61	0.09056736
104	0xbdf9bd03	-0.12194254
105	0xbdf1cce7	-0.1180666
106	0xbd65df1d	-0.05612098
107	0xbd1dff37	-0.03857347
108	0xbb688132	-0.0035477397
109	0xbd967c51	-0.0734793
110	0x3d8260bd	0.063661076
111	0xbc160232	-0.009155797
112	0xbbb94dea	-0.00565504
113	0xbd023c5f	-0.031795856
114	0xbe151f78	-0.14562786
115	0xbd595608	-0.05306056
116	0xbda99c8e	-0.082818136
117	0xbd46fc20	-0.04858029
118	0xbdc7e64b	-0.09760722
119	0x3d959ad3	0.07304921
120	0xbcccd65b	-0.025004556
121	0x3d96d5fa	0.073650315
122	0xbdf8753b	-0.12131735
123	0x3d115ab4	0.035486892
124	0x3bd07473	0.006361538
125	0x3c23a4fc	0.009988066
126	0x3dca362f	0.09873616
127	0x3da2fd8d	0.07958517
128	0x3dc51b1d	0.09624312
129	0xbdb87266	-0.09006195
130	0x3d1cbabc	0.03826402
131	0xbdd3772b	-0.10325464
132	0xbc261f30	-0.010139272
133	0x3dcbf9c8	0.09959751
134	0xbcca9487	-0.024729026
135	0x3cc94add	0.02457183
136	0x3dc3ea9f	0.09566235
137	0xbdf75804	-0.120773345
138	0x3d261fab	0.040557545
139	0x3bd5ca88	0.0065243877
140	0xbdc71d22	-0.097223535
141	0xbca027f5	-0.019550303
142	0x3c7ec528	0.015549935
143	0x3dd3ea86	0.10347466
144	0xbd321b58	-0.04348311
145	0x3d9597c8	0.073043406
146	0x3dae7a7f	0.08519458
147	0x3dc29d40	0.09502649
148	0xbd92e7d8	-0.07173127
149	0x3cc738c7	0.024319066
150	0xbdfd5ee0	-0.123716116
151	0xbdcda509	-0.100412436
152	0xbc93337c	-0.017968886
153	0x3d99f144	0.07516721
154	0x3dc8a43a	0.09796949
155	0xbdfab2f4	-0.12241164
156	0x3dd0ac52	0.101891175
157	0xbca996ce	-0.020701792
158	0xbd3d1c51	-0.046169583
159	0x3d3d8071	0.04626507
160	0x3d4e3e91	0.050352637
161	0x3ddbfd14	0.1074163
162	0xbdf906b3	-0.12159481
163	0x3d5b6fd8	0.05357346
164	0xbdeab874	-0.11460963
165	0xbcfe4422	-0.031038348
166	0xbbfddd9d	-0.0077473656
167	0xbd684a4d	-0.056711484
168	0x3d73e714	0.059546545
169	0x3da0f4fa	0.078592256
170	0x3d558d19	0.052136514
171	0x3d0420d3	0.032257866
172	0xbdaba96f	-0.08381926
173	0xbdf939ea	-0.12169249
174	0x3dcb5329	0.09927971
175	0xbda805ba	-0.08204217
176	0xbdee9593	-0.11649623
177	0x3d88c245	0.06677679
178	0xbd14b713	-0.036307406
179	0xbda81fcc	-0.0820919
180	0xbd42d7f6	-0.047569238
181	0xbdda6aaf	-0.106648795
182	0x3c358922	0.011080058
183	0xbdd92aeb	-0.10603889
184	0xbc52cfe4	-0.012866948
185	0xbd87d992	-0.06633295
186	0x3daaaf14	0.08334175
187	0x3c94a733	0.018146133
188	0xbdfa47b4	-0.122207075
189	0x3a0078f8	0.0004900838
190	0xbd9da7d0	-0.07698023
191	0xbddb0250	-0.106938004
192	0xbdf0472e	-0.117323264
193	0xbde1ff00	-0.110349655
194	0x3da829c5	0.08211092
195	0x3d305d86	0.04305794
196	0xbb2ecec7	-0.0026673542
197	0x3d4848a9	0.04889742
198	0xbdb8da0d	-0.09025965
199	0x3cee2f04	0.029075153
200	0xbdcb4903	-0.09926035
201	0xbc6aba23	-0.014326605
202	0x3d9e7248	0.07736641
203	0x3d0e79fd	0.034784306
204	0x3c80eb7d	0.01573729
205	0x3dc14847	0.09437614
206	0x3c8eec41	0.017446639
207	0x3ab854a9	0.0014063317
208	0x3cd0a23b	0.025467983
209	0x3c670926	0.014101302
210	0x3b3f8484	0.0029223273
211	0xbc50c4e8	-0.012742259
212	0x3d3ea19b	0.046540838
213	0x3db85e3e	0.0900235
214	0x3b0f2039	0.0021839275
215	0xbe2be5fe	-0.16786954
216	0xbc43df82	-0.011955144
217	0xbd0bb819	-0.034111116
218	0xbdb68f0b	-0.08914002
219	0xbdb59b24	-0.08867481
220	0xbdfeae3f	-0.124355786
221	0x3db823d8	0.08991212
222	0xbccc67b0	-0.024951786
223	0x3d3337c4	0.043754354
224	0xbc4a227a	-0.012337321
225	0x3d895c57	0.067070656
226	0x3d5a3436	0.05327245
227	0x3c583842	0.013197007
228	0x3d87d116	0.06631677
229	0xbca6575c	-0.020305328
230	0x3dbd813a	0.09253164
231	0xbdd7d3b6	-0.105384275
232	0xbd880935	-0.06642381
233	0xbab6375f	-0.0013902
234	0xbe14e6a4	-0.14541107
235	0xbde700ed	-0.112794735
236	0xbd8343d1	-0.06409419
237	0x3cb6532d	0.022256458
238	0xbdb62e2a	-0.08895524
239	0xbe044f2b	-0.12920825
240	0x3b556a3b	0.003256454
241	0x3caba92f	0.020954696
242	0xbddd860f	-0.10816585
243	0xbdef0dc2	-0.11672546
244	0xbde5635f	-0.11200594
245	0xbc27f55c	-0.010251369
246	0x3da47238	0.08029598
247	0xbd2e4ff1	-0.042556707
248	0x3e06e217	0.13172184
249	0x3d791d0b	0.060818713
250	0xbdf1bb1b	-0.11803266
251	0xbcdbfddd	-0.02685445
252	0x3d9da233	0.07696953
253	0xbde680d1	-0.112550385
254	0x3cf8936c	0.030343734
255	0x3d1394f1	0.036030713
