result/low_level/ETHUSDT/best_model/slope/2/best_model.pkl (torch, 187425 bytes, 14 tensors)

fc1.weight f4 [64, 36]
00000000: 4070 343e 6800 ca3d ab52 9c3e 45e9 983d
00000010: bfc1 27bc 1fe4 393d 76c6 dabc 311d 1b3e
00000020: edd1 e03c 7333 253c 9dc8 de3d 5981 a33d
00000030: d2ee ea3d be8b 9cbe 33ce 8cbe 60e8 27be
00000040: e6f1 b63d bd8f b63d da50 12be cd32 9a3d
00000050: cbce eebc 5fff 9fbc f2e4 debd e367 153e
00000060: c547 babd 68df 8a3d 57f0 68bd 020c 1fbe
00000070: 3af5 6cbd ed6f c73d aa68 5dbe f47a 943d
00000080: e956 f2bc 007e df3d e431 2ebd ed8a 773d
00000090: 5d0d 333e d841 21be 30a8 e5bd 7d6f 663e
000000a0: 3363 26bb 9669 e63c 4ee9 8c3d 3922 81bd
000000b0: d37a 413d ff9b dcbd 86f8 50bd 944a 903d
000000c0: 92bf 2bbd be40 18be 99d5 a13d 6e4d 0dbe
000000d0: 8acb a43c c1a0 873c f436 d6bc a0aa 9e3d
000000e0: 7fbe 14bc 8d1f a93d 6448 0c3e e682 a0bd
000000f0: 14e6 343e 4b0d 663d 013c 3c3e 0633 4a3e
00000100: cc94 ddbd 7027 6cbd 8638 f8bb ca34 49bd
00000110: cf3d ab3d e35a 133e 5f51 eb3d 5f7d cc3d
00000120: 61bd 593d 49b8 813d 1f89 12be 90b3 883d
00000130: 0c6e 75be e90c 2d3c 28f8 11bd a37d d6bd
00000140: 16a5 56bd eb02 2a3d 15ea 79be 3dff d4bd
00000150: 446d bdbb bccf 27be b820 953d 6251 8ebd
00000160: e4a6 18be 1407 98bd 4fcb 01bd e5d3 87bc
00000170: 0c74 e03d 9e58 1bbd 9eda 2a3d 06cf aa3d
00000180: d977 5e3d 6eb4 943c 22ab 143d 8f7b e03d
00000190: e4b0 1cbe 4f48 06be 5038 3c3e d8b1 98bd
000001a0: 277f e23d 0dfc 9cbd 4241 e83c 34e2 93bc
000001b0: 0b83 22be 5aca 0d3d 225f dfbd 63bb 08be
000001c0: 6127 8ebd ed50 123e 61de f73c b3fc ecbd
000001d0: 697a 8fbd d841 b6bd 21af adbd 4467 8d3d
000001e0: 3d56 23bd 90a9 273e 0e6a ff3d 3901 3a3e
000001f0: 255c ce3a 9124 173e 71ac 36be 7ec0 b8bd
00000200: c358 c0bd 733b a03d fdb5 46be 6250 e9bd
00000210: 917a fe3c b0da f63d 9384 953d 7adf 843d
00000220: d384 0fbe 2db3 0e3e 2341 fabd 3fb2 5fbc
00000230: f618 32bd bafe 193e a257 f83d 690a e33d
00000240: eead 49be fb5f 563e 8f21 163e a71e 4e3c
00000250: e1e1 37be d4c0 0cbe 06a2 1a3e 4b61 27be
00000260: 90ba bc3d 9a15 af3c a49e 0e3e 7eb6 093e
00000270: 87bc 293e 4a8e 0a3e 450e a23c b378 3b3c
00000280: bbda 40be 042c 89bd 69ca 9eba d25f 6bbd
00000290: 8914 1b3d f3cf 013e e61e 15bd 21eb eabd
000002a0: ab3a 47be ae26 09be e6b3 da3a cb5d 43be
000002b0: f30c 0cbe 8a39 08bd 9a9d aebc 2fec dbbd
000002c0: 5471 833d cfbc 123e aa1f 0dbe 62ec 0bbd
000002d0: b850 e03d 8a5c 663e c726 67bb 96d9 bdbd
000002e0: 1902 41bd 01d3 43bd aae4 babc a3d0 653e
000002f0: 1fc4 733d 077a 69bd d904 afbd 7205 1ebe
00000300: c947 2dbe 19d7 2fbd ca69 323c 48b7 a93d
00000310: 350a 183e 4825 033e 6a69 8a3d c486 7fbd
00000320: 4669 f4bd 13e4 b4bc 0514 88bc e51e 3c3c
00000330: 5208 bf3c d8c9 97bd 37e5 fbbd 9774 66bd
00000340: 24f6 853b 93cd 39bb 6aab 05be 3b20 05be
00000350: 8aca ad3a 49bd 9b3d f085 8cbd 52b4 3dbe
00000360: 64db b73d 90eb abbd 4523 a63d e7b8 3dbd
00000370: b556 15be e2b6 2fbc da91 fc3b 2820 323d
00000380: cf4d 0fbd 1988 b83d 5d70 cabd 25a8 47be
00000390: 9779 0bbe 9098 bdba 175a 6f3d 13de 113e
000003a0: 2c2b 2f3e 4682 84bd 8988 17bd c6c4 b7bc
000003b0: 8dc2 633d ee72 40bd 9a08 093b 5542 b73d
000003c0: 7605 38bd 4193 503e a952 abbd 82ac 20be
000003d0: bac7 84bc f430 cdbd a63a 24bd 3dda e43d
000003e0: 6c2f 6f3d 16b7 9ebd a098 1abe 1446 a0bd
000003f0: 80ad 4bbd a82d 2f3d f1c9 b33d ff89 e53c
0.17620945 0.09863359 0.3053182 0.07466368 -0.010239064 0.04538357 -0.026705962 0.15147854
0.02744385 0.010083067 0.10878108 0.079836555 0.114713326 -0.30575365 -0.27501068 -0.16397238
0.08932857 0.08914135 -0.14288655 0.07529221 -0.029151341 -0.01953095 -0.108835116 0.14590411
-0.0909572 0.067808926 -0.05686983 -0.15531924 -0.057851054 0.09738145 -0.21621957 0.07250014
-0.029582458 0.109127045 -0.04252805 0.060435224 0.17485566 -0.15747774 -0.1121372 0.22503467
-0.0025388717 0.02812652 0.06880437 -0.063053556 0.047236275 -0.107719414 -0.05101826 0.07045475
-0.041930743 -0.14868447 0.07902069 -0.13799068 0.020116586 0.016556146 -0.02614925 0.07747388
-0.009078621 0.08257971 0.1369949 -0.07837467 0.17665893 0.05616502 0.18382265 0.19746026
-0.108193964 -0.057654798 -0.0075750975 -0.04912261 0.083613984 0.1439014 0.1149013 0.0998485
0.05315912 0.06333978 -0.1431012 0.06674874 -0.23967761 0.01056216 -0.03563705 -0.10473182
-0.052403532 0.04150669 -0.24405701 -0.10400245 -0.0057808477 -0.16387838 0.07281631 -0.06949116
-0.14907414 -0.07423225 -0.03168803 -0.016580531 0.10959634 -0.03792631 0.041712396 0.08340268
0.054313514 0.018152442 0.036296017 0.10961067 -0.15301853 -0.13113521 0.18380857 -0.07455796
0.11059409 -0.07665262 0.02835143 -0.018052198 -0.15870301 0.034616806 -0.10906817 -0.13352732
-0.06941105 0.14288683 0.030257406 -0.11571636 -0.0700577 -0.088992774 -0.08480669 0.06904462
-0.039877165 0.16373277 0.124714 0.18164529 0.0015744014 0.14760043 -0.17839219 -0.0902109
-0.0939193 0.07823839 -0.1940536 -0.11392285 0.031064304 0.1205343 0.07300677 0.06487937
-0.14015512 0.13935538 -0.12219455 -0.013653337 -0.043480836 0.15038577 0.1212609 0.1108597
-0.19695255 0.20935051 0.14661239 0.01258055 -0.1795726 -0.13745433 0.1510087 -0.16345708
0.092152715 0.021372605 0.13927704 0.13448521 0.16575824 0.13530841 0.019782195 0.011442351
-0.18833439 -0.066978484 -0.0012114766 -0.05746443 0.03786138 0.12676983 -0.03640642 -0.114706285
-0.19455974 -0.13393661 0.0016685694 -0.19078748 -0.13676815 -0.033258 -0.021315385 -0.10738408
0.064181 0.14329837 -0.1378161 -0.03416098 0.10952896 0.22496238 -0.0035270916 -0.09270017
-0.04712114 -0.04780865 -0.022814114 0.2244287 0.059513208 -0.05700114 -0.085458465 -0.15431765
-0.16921915 -0.042929742 0.01088948 0.08286911 0.14847644 0.1280719 0.067583874 -0.062384382
-0.11934142 -0.02208141 -0.016611109 0.011481975 0.023319397 -0.074115455 -0.12299579 -0.056263532
0.00408818 -0.0028351292 -0.1305367 -0.13000576 0.0013259214 0.07604463 -0.06861484 -0.18525818
0.08977392 -0.08394539 0.08112196 -0.046318915 -0.14583857 -0.010724755 0.0077078165 0.043487698
-0.034986313 0.090103336 -0.09884713 -0.19497736 -0.13620602 -0.0014465023 0.058435526 0.14244871
0.17106313 -0.0647016 -0.036995444 -0.022432696 0.05560546 -0.046984605 0.0020909668 0.08948199
-0.044927083 0.20368673 -0.083653755 -0.15690807 -0.016208518 -0.10019103 -0.040094994 0.11174438
0.058394834 -0.077497646 -0.15097284 -0.07825866 -0.04972601 0.04276815 0.08778752 0.028019903

fc1.bias f4 [64]
00000000: f323 723d f10b 0ebe 7fe7 2bbe 2ef6 48bd
00000010: 972d c93d 8375 283e 2a7f 9ebd a321 32be
00000020: 77f2 17be ccfb 793c 33c1 593d 5cf4 e6bd
00000030: 536a f73d 6d23 cfbd 9ef5 f7bd b142 e1bd
00000040: 0871 a5bd fc6e 223e d5f7 aebd 6477 6bbc
00000050: cd96 e8bd 0f88 263e 7f7d dbbd f9c1 d63c
00000060: 4ac2 adbd 65cb dcbd f0da d13d 7e45 2f3e
00000070: e7e4 0fbd f092 d0bc 3819 4ebd c548 c13c
00000080: ee82 dfbd 1dc9 9bbd d5f5 7f3e d6f9 373d
00000090: 4e84 0dbd cfcf 0ebe 3b53 dcbc 2bb7 d0bd
000000a0: 7723 96bd 3d4c 123e 9728 ff3c 76d3 ccbd
000000b0: c434 2cbe ed76 c93c f171 0c3e 3968 1abe
000000c0: f83f 11be 1da1 27be a085 ef3d e789 97be
000000d0: 752b ca3d 80d3 87bd ff3d 683d e1d5 513c
000000e0: afb7 3dbe f1c7 7f3d 9c2a 16be d01c 09bd
000000f0: e0a4 cf3b 1deb 673e fdb8 02be 4d9d 5e3c
0.059116315 -0.13871743 -0.16787528 -0.0490629 0.09823149 0.16451077 -0.07739098 -0.17395644
-0.14838587 0.015257787 0.053162765 -0.112770766 0.120808266 -0.10114179 -0.12107395 -0.109990485
-0.080781996 0.1586265 -0.08543364 -0.014371727 -0.11356888 0.1626284 -0.10717296 0.02621554
-0.08484323 -0.10780982 0.10246837 0.17116353 -0.035130408 -0.02546069 -0.05031702 0.02359427
-0.10913645 -0.07606719 0.24996121 0.044915996 -0.034550004 -0.1394646 -0.026895156 -0.101911865
-0.07330983 0.14286895 0.031147284 -0.100012705 -0.16817003 0.024592841 0.1371534 -0.1507882
-0.14184558 -0.16370054 0.11695409 -0.295974 0.0987157 -0.06632137 0.05669975 0.01280734
-0.18527101 0.06244654 -0.14664692 -0.033474743 0.0063367933 0.22648282 -0.1276588 0.013587308

fc2.weight f4 [64, 9]
00000000: 9385 c6bd 22f6 163e 148b af3d 4b4a bfbc
00000010: 8d32 7dbe 889b 8cbe a50d 34bd 5cea a3bc
00000020: 4aa2 703e 6e59 e6bd 17d2 1fbe 1a7c 463d
00000030: d33d efbb 130d de3d 1ad0 94bd 3d8d 0fbe
00000040: 99fb 09be 2d18 8b3d 5354 8abd 40e4 1c3e
00000050: e1dd 12bd e799 c23e e308 663e 0e60 653d
00000060: c2d5 273c 4ddb 89bb 4dd6 a93e d265 483d
00000070: eded e33d aae8 cdbd 8c6d 993e ac02 a3be
00000080: 6645 87bc 902c 853e 1fc2 a73d 8934 7c3e
00000090: 3d69 81be b20c b03e 951a 303e 6680 2d3e
000000a0: 8b5b 653e 2261 8fbe e67f 9a3e 2e38 efbd
000000b0: bf0a 8bbe 19af 483e 4ebd b2be 16b5 0ebc
000000c0: 8024 ca3d 24f5 46be ac43 8cbe d679 723d
000000d0: f8ea 173e 6e37 b8be 4d3a 0abe 0cc6 413e
000000e0: c7dc f7bd 4012 cebe 0a31 bdbb 7120 35be
000000f0: 5f56 5a3d 1067 7dbe 012b f5bc cff6 903e
00000100: acde 123d 377c 19be 5787 bfbd 9b54 21be
00000110: cebf 97be 981c e0bd 16c6 9b3e 774b fcbd
00000120: cc66 323e eaba 913e 2154 493c 68ce dfbd
00000130: 451b f4bd 4bc0 4e3e 1e4d a13e f822 aa3e
00000140: 6daa 553e 441b bc3d 5fb0 b43d f9a4 ff3e
00000150: d586 9f3d 1ed3 89be bcc5 233e 0dc3 17bc
00000160: dfda 4f3e 2a41 51bd de41 32be 6a7e 8fbe
00000170: 8ad5 eabd 12ce 52be 36fd 5cbe cb1b aebc
00000180: 5cb9 913e c476 28bd c433 10be 0f42 37be
00000190: 7511 99be 6889 2f3e d305 bf3e a0c2 00bc
000001a0: c9c1 f13d 8f18 2b3d e6d8 63be be83 6f3e
000001b0: ffc3 6dbe c59f a5be c7c3 683e 625e ae3e
000001c0: b5f5 b23d 7b63 bebb 02e4 70be 4773 8a3e
000001d0: 5fb0 91be dd0e 9abe 2735 9a3e b242 6b3e
000001e0: b69c 08be 7af7 57be b1d2 57bb 7761 e53d
000001f0: 4b05 94bd 0556 c13d 35ff 3fbe 9416 4fbe
00000200: 837d 84be 004c 13bd 5c62 4ebd f1c6 2ebd
00000210: c4b2 44be bd11 08be 1a0b 92bc 352a 59bd
00000220: 3921 903d 516a 73be fa75 53be ff52 9a3e
00000230: 5410 0c3e e784 3bbe f345 92bd b4d8 8c3e
00000240: e571 013e 0f68 35be a6a9 583d af61 013d
00000250: 118e d63d 3242 2dbe 84e7 f8bd dc69 55be
00000260: e42c 27be 8832 1e3e f7b9 803e 5d5b 1d3d
00000270: 912c 55bd 2292 e43d 7d28 9b3e 2638 78be
00000280: fb04 81be 274a 62be 96f2 78be ba39 113d
00000290: 4027 a0bd 74e5 bbbe b2d3 033e 174e 993e
000002a0: 6d12 6cbe 8096 8f3e 434b 61be 385a 73be
000002b0: b9c1 a23e d6d0 353e 18ab 283e 15c1 e13d
000002c0: 4ae7 8c3d caf0 2b3e 74a5 98be 552a 7a3e
000002d0: 8324 cabd 435b 9b3e dec0 493e 762b 81be
000002e0: 1717 853e 271d 94bd 7346 96bd 09f5 b53d
000002f0: 434a 93bc 3087 31be 7964 2f3e 7490 9bbe
00000300: 219b ad3d 9342 fd3d af39 f8bd 0416 dc3d
00000310: a777 dcbd 53bd a93e 0fcc 853e e867 a4be
00000320: 1d8e 50be 877c 5cbd 9a93 9c3e e92c bb3d
00000330: 477b eebd 6089 7d3e 4264 27be 82ac 963e
00000340: 1532 1e3e e6f4 93bd 372a 743e 2282 45be
00000350: 9286 483e ca8f a63e f8b3 8dbe 82f7 fdbc
00000360: 1b35 31be 6d8d 403e e425 773e d4bc 6f3e
00000370: 23c6 a73e 3cb0 ef3c 11a0 053e 32d4 913e
00000380: 1b22 093d 4067 5cbd b193 ea3d 269c 5cbd
00000390: 5254 523d 6cc5 123e fac6 a7bd 1d29 a33e
000003a0: d1e5 da3d 61cb 68be cfb8 303e 16ea 97be
000003b0: 094c 073e 947f 74be ac5d f2bd 437c a3bc
000003c0: 630c 1ebd 5d7a dabd 896e cebd 189c a03e
000003d0: d2d1 5dbd 2b97 963c 9c2b 48be e629 073e
000003e0: 43bf 02be bc60 383e c289 9dbd 28e8 dbbd
000003f0: 0c7a 753e 7762 8d3e d289 443e d209 e63d
-0.09693446 0.1474233 0.08571449 -0.023350855 -0.24726315 -0.2746241 -0.043958325 -0.020009212
0.23499408 -0.11247526 -0.15607487 0.048458196 -0.007301071 0.108423375 -0.07266255 -0.14018722
-0.13474883 0.067917205 -0.06754365 0.15321445 -0.03585613 0.38008043 0.22464328 0.055999808
0.010243835 -0.004207051 0.3317131 0.04892523 0.11129365 -0.10054143 0.2996639 -0.31837976
-0.016512584 0.2601056 0.081913225 0.24629416 -0.25275603 0.34384686 0.1719764 0.16943511
0.22398202 -0.28003794 0.30175704 -0.11680637 -0.27156636 0.19598044 -0.34910053 -0.008710166
0.09870243 -0.19429451 -0.2739538 0.059198223 0.14835727 -0.3597979 -0.13498802 0.18923205
-0.12102657 -0.402483 -0.005773668 -0.17688157 0.053305026 -0.24746346 -0.029927732 0.283133
0.035856888 -0.1498879 -0.09351986 -0.1575493 -0.29638523 -0.10942954 0.30424565 -0.12319081
0.17422026 0.28462917 0.012288124 -0.10928041 -0.11919264 0.20190541 0.31504148 0.33229804
0.20865794 0.09184888 0.088227026 0.49930552 0.07789389 -0.26918882 0.15993398 -0.009262812
0.20298336 -0.051087536 -0.17407939 -0.28026134 -0.114665106 -0.20586422 -0.21580967 -0.021253487
0.2846173 -0.04112889 -0.14082247 -0.17896293 -0.2989613 0.1714226 0.3730913 -0.007858902
0.1180454 0.041771468 -0.22250709 0.233901 -0.23219298 -0.32348457 0.22730933 0.34056383
0.08738271 -0.005810199 -0.23524478 0.27041075 -0.28454873 -0.30089465 0.30118677 0.22974661
-0.1334103 -0.21090499 -0.0032931978 0.112002306 -0.07227572 0.09440235 -0.18749698 -0.20223457
-0.25877008 -0.03596115 -0.05038677 -0.042670194 -0.19208819 -0.13288017 -0.01782756 -0.053018767
0.07037587 -0.23771025 -0.20650473 0.30141446 0.13678104 -0.18312417 -0.07142248 0.2750908
0.12641104 -0.17715476 0.052896164 0.0315873 0.10476316 -0.16919783 -0.12153533 -0.20841163
-0.16325718 0.15448964 0.2514188 0.03841721 -0.052044455 0.11160685 0.30304328 -0.24240169
-0.25199112 -0.220986 -0.24311289 0.035455443 -0.07819986 -0.36698496 0.12873724 0.2994239
-0.23053904 0.2804451 -0.22001366 -0.23764884 0.31788424 0.17755446 0.16471517 0.110231556
0.068800524 0.16791072 -0.2981373 0.24430211 -0.09870245 0.30343065 0.19702479 -0.2522847
0.2599418 -0.07232123 -0.07337656 0.08884627 -0.017979747 -0.17336726 0.17128171 -0.30383646
0.08476854 0.12366214 -0.12120377 0.10746387 -0.107650094 0.33152255 0.26132247 -0.32110524
-0.20366712 -0.053829696 0.3058136 0.09139425 -0.11644607 0.24759436 -0.16346839 0.29428488
0.15448792 -0.07224445 0.23844229 -0.19287923 0.19582585 0.32531577 -0.27676368 -0.03100181
-0.17305414 0.1880395 0.24135548 0.23411876 0.32768354 0.02925884 0.13049342 0.28482205
0.03347979 -0.053809404 0.11453951 -0.053859852 0.051349945 0.14333123 -0.08192249 0.31867304
0.10688365 -0.22733833 0.17257999 -0.2967078 0.13212599 -0.23876792 -0.11834273 -0.019956714
-0.03858603 -0.1066787 -0.10079677 0.3136909 -0.05415518 0.01838263 -0.19547886 0.13199577
-0.12768273 0.18005651 -0.07692291 -0.1073764 0.23972338 0.27614185 0.191932 0.11232342

fc2.bias f4 [64]
00000000: 4f56 803e 7308 a23e caeb 73be 8ca7 683e
00000010: fb56 0b3e 5fa8 803e a533 8dbe bc70 a73e
00000020: e2f4 9f3d e97d a1bd 0f8c ea3d 2867 23be
00000030: b708 6b3e ad20 86be 00f1 183e 18a9 843e
00000040: fe9e 873d 0fdb e03d db38 30be e684 263d
00000050: 17bd 123e b89e a33e d766 62be 1005 9c3e
00000060: 71ab 39be 5799 0a3e 8ba3 443e 4550 813d
00000070: d0c5 d43d 7c90 edbd e170 a33e 99d2 a1be
00000080: f519 953e 8bcb 823e e7da 8cbe b009 23be
00000090: 4838 1abe 40dd 503e 303d 203e f19b 493e
000000a0: 97d0 923e 1958 66bd 2a63 643e 4717 843e
000000b0: 5584 fb3c 38d8 453d 4c68 a43e 098f 3dbe
000000c0: e9ce 89bd d67b 9dbe 49ec 923e d353 80be
000000d0: cae4 bb3d e0cd 0fbe 83c6 22be a18b 8e3d
000000e0: 7f13 863e fd0f 0d3d e2e6 d83c 680c 8f3e
000000f0: 7a38 6c3e 664e 143d 4d8b 64be fdf7 b1bd
0.25065848 0.3164707 -0.23820415 0.22720164 0.13607399 0.25128457 -0.27578464 0.32703197
0.078103796 -0.078853436 0.11452495 -0.1595732 0.22952543 -0.26196805 0.14935684 0.25910258
0.06622122 0.10979282 -0.17209189 0.040654086 0.14329945 0.3195703 -0.22109543 0.30472612
-0.18131806 0.13535057 0.19203012 0.06314138 0.10389292 -0.11599824 0.31922057 -0.31605986
0.29121366 0.25545916 -0.2751076 -0.15921664 -0.15060532 0.203969 0.15648341 0.19688393
0.28674766 -0.05623636 0.22303453 0.2579901 0.03070275 0.048301905 0.32110822 -0.18511595
-0.06728918 -0.30758542 0.28695896 -0.25063953 0.091744974 -0.14043379 -0.15896039 0.06960226
0.2618675 0.034439076 0.026477281 0.27939153 0.23068419 0.03620758 -0.22318764 -0.08689878

embedding.weight f4 [2, 64]
00000000: 4ac4 68bf 0449 b3bf e246 1240 d9ca b13f
00000010: 80b8 9b3f a887 27bf a539 a13f 5523 b5bd
00000020: 4b36 02bf c88e 2bc0 a8a6 e5bd 97c7 163f
00000030: f032 243f 3857 823f c542 1940 b4a3 aebf
00000040: 5c75 6fbf eedb 16bf ae84 a13f f3a2 16bf
00000050: 1940 a5bf 4c77 153f 05cf c83e 1bb2 7dbf
00000060: 2207 c63f a84a 933f 4a19 1cbf e9a2 cebe
00000070: 0b06 1ebe ed3e 903f 29f7 bc3c c0fb 053f
00000080: 39e1 92be 849a 2dbf a2ca fd3f 4b33 9fbf
00000090: c92f 0ac0 3f4e ad3f 1ed5 01c0 c89c 1e3d
000000a0: c0ea f7bf 66b7 9ebf 4397 493f 72c0 1a3e
000000b0: 2d15 18bf 02d0 9cbe 8de4 863f 8ddd e23e
000000c0: 6867 ccbe 30dc e13e 6a1a d0bf 4e23 b93e
000000d0: 6a51 03c0 fcdb a4bf 16e8 983f 2b9b 4e3e
000000e0: bd61 e03e a017 bcbf 3f62 53bf 06cb 8dbd
000000f0: 7726 4ebe 198a 21c0 6f23 06c0 0a4b cf3f
00000100: d910 ecbe 91a6 873f 1957 9cbf 36d9 c8bf
00000110: f07f 4fbf 2180 2cbf f20c 5b3f ef9d 7dbf
00000120: fe59 1fbe bb04 633f 2f0d 24c0 c029 01c0
00000130: 88c8 123f 276c a63f 6cba 05be 1d3b 85be
00000140: ef9d 503e 3981 4dbe f72b 313f 284f d8bf
00000150: 9a24 3ebe f0b2 3ebf 134f 373f 58e4 943f
00000160: c92d d5bd 1531 d23f db23 84be a273 82be
00000170: 491b 03be 9db6 f03f ce67 df3f e36c 553e
00000180: c0f8 293d 51bb f9bf bea4 313f 395f c13e
00000190: 15e3 523e 7a09 563e 1b58 8abe dab0 e93e
000001a0: e9b1 c6be 2e4a 653f bf6f af3f 0e37 813f
000001b0: b689 bf3f d6ed c23e 8b24 9f3f 2439 423f
000001c0: 562f f0bf 192e dcbe 3fda 0740 a81b 22c0
000001d0: bfc0 edbf d2c4 ee3f 1032 edbe a131 da3e
000001e0: aaf5 603f 3f67 3c3f de20 17bf 98cd e0be
000001f0: 9b16 a8bf fb85 80bf 044a d13f 93b1 653d
-0.90924513 -1.4006658 2.2855763 1.3890029 1.216568 -0.6544137 1.2595717 -0.0884463
-0.50864094 -2.6805897 -0.11213428 0.588983 0.64140224 1.0182867 2.3947003 -1.3643708
-0.9353845 -0.58929336 1.2618616 -0.5884239 -1.2910186 0.5838516 0.39220443 -0.9909989
1.5470927 1.1507158 -0.6097609 -0.40358666 -0.15431993 1.1269203 0.023067074 0.52337265
-0.28687456 -0.678139 1.9827464 -1.2437528 -2.1591666 1.3539504 -2.0286326 0.038723737
-1.9368515 -1.2399719 0.7874643 0.15112475 -0.5940731 -0.30627447 1.0538498 0.44309655
-0.39922643 0.44113302 -1.6258061 0.36159748 -2.0518441 -1.2879634 1.1945827 0.2017638
0.43824568 -1.469471 -0.82571787 -0.06923489 -0.2013186 -2.5240538 -2.0959127 1.6194775
-0.46106604 1.0597707 -1.221408 -1.5691288 -0.8105459 -0.6738301 0.8556663 -0.9906911
-0.15561673 0.88679093 -2.5633047 -2.0181732 0.57337236 1.3001755 -0.13059396 -0.26021662
0.20372747 -0.20068826 0.6920771 -1.6899157 -0.1856865 -0.74491787 0.7160503 1.1632185
-0.104091235 1.6421229 -0.25808606 -0.25478846 -0.12803377 1.8805729 1.7453554 0.20842318
0.041496992 -1.951029 0.69392 0.37767962 0.20594437 0.20902053 -0.27020344 0.4564274
-0.3880761 0.89566314 1.3705977 1.0094926 1.4963901 0.3807208 1.2433027 0.7586844
-1.8764446 -0.4300392 2.1226957 -2.532938 -1.8574446 1.8653815 -0.46327257 0.4261599
0.87874854 0.7359504 -0.59034526 -0.43906856 -1.3131899 -1.0040888 1.6350713 0.05607755

adaLN_modulation.1.weight f4 [128, 64]
00000000: 2f62 b43d 3d92 043e e9ee d7bd 92fd 7dbc
00000010: 501e c5bd affc bd3d 87f1 943d ff61 e13d
00000020: 5376 0d3d 32cb bcbd f943 de3d 5134 843d
00000030: c1a7 4dbd 1519 623d 52ff e8bd ffa5 e73d
00000040: 5c8f 723c 899b adbc 0ec9 cd3d 6318 0c3c
00000050: 07e6 363d 469e a1bd c9bb 33bd 2153 783d
00000060: 69e2 00be 85a5 09bd dd97 a93d b71b 7c3d
00000070: 8481 c83d ace0 643c 9678 703d 6fd3 7f3d
00000080: cc1b b0bd a386 4b3d caa6 ecbc e16d 98bc
00000090: c872 d33d 0535 78bd a6bd d6bb 6422 5bbd
000000a0: 77b4 82bd 6083 debc ea0d 003e 00cc 953d
000000b0: 196e 653d 5529 7c3c d87b 41ba 9dfe 43bd
000000c0: a844 e0bb e03c fd3c b77a 1fbd 8fa9 283d
000000d0: 3f81 b5bb 4772 7d3d 23a2 4d3a 1926 e5bc
000000e0: 6f0e 0f3c 1758 413d 0303 b13c 4be8 d4bd
000000f0: 6e38 d9ba 5bea 42bd 3ffc d8bd b57f 6b3c
00000100: 04a1 933d e164 d63d 281d 49bc a577 e6bd
00000110: e85b 10bd 40a7 a73d ced9 a8bc 1af9 393d
00000120: b7d2 cc3d ba5f f6bd 4a3d f8bd b5a6 53bd
00000130: d47c 993d 3d16 bdbd 97f4 abbd 77e5 403d
00000140: d4fe c33d 92b9 e23c 2ce3 07bd 039b ce3d
00000150: 79f0 8abb daae f1bd d853 873a 833d 03be
00000160: 962a a03d 5170 59bd 9574 d1bd 4fc1 903d
00000170: 4d36 aa3d 505d 883c e1c6 f93b 91a2 ea3d
00000180: e346 bb3d ce17 00be 82e2 18bd ca7a f5bd
00000190: b273 183d 0b46 8e3d 1f1b 07bd 86e4 c5bb
000001a0: 9385 e4bd 4f18 17bd 1a36 c63d 2f17 98bd
000001b0: d3e2 81bc 24fe cf3c e0f0 fcbc 83d4 c33c
000001c0: 7d71 6ebb 547d dd3d 93a7 99bd 3e59 4dbd
000001d0: 91f2 00bd f087 fabd 2db8 47bd 926f b23d
000001e0: f631 ffbd e09e f0bd 1757 683d 0647 3e3c
000001f0: 47ce 52bd 73a5 b9bd 2ac7 863b d72b 88ba
00000200: c9ab 35bd 1cbc 053d b792 a53c 4603 3e3c
00000210: 5900 64bd 71d8 a53c ad51 883d 30bf fcbc
00000220: abf1 553b 9a16 953b 4a1a cdbd 70f0 9ebd
00000230: 91cb 7abd 3fe4 ab3d a97c cd3d 9b62 dd3d
00000240: 3ba2 d43b e87a a93d 5ee1 b1bc 2795 913d
00000250: e743 2ebd e072 0e3d 4074 b63d b21a 7a3d
00000260: 6800 763d 0663 fc3c cf29 46bd 2805 8ebd
00000270: e664 8bbd 34db cfbd 1cd4 1f3c e6f6 ae3c
00000280: 2e52 37bd fefe 0a3d df6a afbd af76 fd3b
00000290: 103b 24bd 4fdd b8bd 6433 883d c880 c0bd
000002a0: 73c5 bdbd b893 2b3d 1587 74bd 2f3d c63d
000002b0: 02ec 9abd 30e2 a6bd 5fff 29bc 0854 86bd
000002c0: f6b7 b63d 0b22 1e3d 0d1d c3bd a87c ab3d
000002d0: 27ff b4bd 7f8a 3c3d 1a7c 37bc 774d 8b3c
000002e0: 0040 9839 d7d9 70bb 8165 86bd 9c91 c2bd
000002f0: 4a85 8bbd 78c7 553d 8160 e33d 9905 29bd
00000300: 42a3 55bb 3453 f9bd 3164 923c 7b92 0dba
00000310: 061a d1bc 4ed1 c13d dc8b bdbc f349 b23d
00000320: aaaf 3fbd 98cf c63c 52f5 6b3d ada9 b33d
00000330: d282 b0bd c93b c83c 2522 b53d 4d2a e0bd
00000340: 72f5 9c3c 5c46 9f3c ff00 fbbc f735 f9bd
00000350: 79c1 1fbc d3a5 7ebd 8a19 b03d 293b 993d
00000360: 2040 933d 64ef a8bd 689c b43d b0a6 793d
00000370: 710c 653c ee4c 4cbd 2fe8 bd3b 7e4f 643d
00000380: f0c1 253b 5333 9a3c 7872 8e3c db73 dabd
00000390: dde4 a0bb 9030 693d d9ad a2bd a74a c6bd
000003a0: 54f9 673b ac22 32bd 278d e8bd 15a4 7abd
000003b0: 03cd d7bd 761e c5bd bea1 98bb 23ce 343c
000003c0: 93a7 5dbd e16a 07bd 999c 993d 1d3b 2abd
000003d0: cbd9 dcbc c538 fe3c 3674 803c 61b6 b83d
000003e0: 96ca 103d d775 053c 32af 3fbd 969c 323c
000003f0: 8526 ca3d a6ca 083d 7290 dfbc fb38 98bd
0.088077895 0.1294641 -0.10543615 -0.01550235 -0.09624922 0.09276711 0.0727263 0.110050194
0.03453667 -0.09218444 0.108528085 0.06455291 -0.05020881 0.0551997 -0.113768235 0.11310958
0.014804687 -0.021192329 0.10048114 0.008550736 0.044652965 -0.078915164 -0.043880258 0.060626153
-0.12586369 -0.033605117 0.08280919 0.06154987 0.09790328 0.013969582 0.05870875 0.0624575
-0.08599052 0.049688946 -0.028888125 -0.018607082 0.10324627 -0.06059744 -0.0065533696 -0.053499594
-0.06382077 -0.027162254 0.12505308 0.073143005 0.0560132 0.015390714 -0.000738082 -0.04785024
-0.006844122 0.030912817 -0.03893539 0.04117733 -0.005539089 0.06187656 0.00078442896 -0.027972268
0.008731469 0.04720315 0.021607881 -0.10395869 -0.0016572603 -0.04758678 -0.10594987 0.014373709
0.07208446 0.1046846 -0.012275018 -0.11253289 -0.0352439 0.08186197 -0.02061167 0.045403577
0.10001128 -0.12029977 -0.12121065 -0.051672656 0.07494512 -0.09232757 -0.08396261 0.047093835
0.09570089 0.027676377 -0.033175632 0.1008816 -0.0042400924 -0.118009284 0.001032467 -0.12816434
0.078206226 -0.05308563 -0.102273144 0.07068121 0.08311138 0.016646057 0.007622585 0.11456788
0.0914438 -0.12509081 -0.03732539 -0.11986311 0.03721971 0.069469534 -0.03298485 -0.006039205
-0.1115829 -0.036888417 0.09678288 -0.07426297 -0.015855229 0.025389738 -0.030876577 0.023905044
-0.0036383562 0.1081492 -0.07502665 -0.050133936 -0.03148133 -0.12232959 -0.048759628 0.087126866
-0.12460701 -0.11749053 0.05672368 0.011613613 -0.051466253 -0.0906476 0.0041130977 -0.0010389042
-0.04435328 0.0326501 0.02021156 0.01159746 -0.055664394 0.020244809 0.066562034 -0.030852884
0.0032645266 0.0045498135 -0.1001478 -0.077607036 -0.061229292 0.08393144 0.10033543 0.10809823
0.006489066 0.08275396 -0.021713909 0.07108527 -0.042545225 0.034777522 0.08908892 0.061060615
0.06005898 0.030808937 -0.048379716 -0.06934577 -0.06806354 -0.101492316 0.009755161 0.021357965
-0.044756107 0.033934586 -0.08565306 0.0077350955 -0.04009539 -0.09026586 0.06650427 -0.09399563
-0.09266176 0.041888922 -0.059699137 0.096796386 -0.07564546 -0.081486106 -0.010375827 -0.065589964
0.089218065 0.038606685 -0.09527025 0.08373386 -0.08837729 0.046030518 -0.011199022 0.017004712
0.00029039383 -0.0036750936 -0.06562329 -0.09500429 -0.06812532 0.05219218 0.11102391 -0.041265104
-0.003259853 -0.12174073 0.01787004 -0.00054005504 -0.025525104 0.0946375 -0.02313798 0.08705511
-0.046798386 0.02426891 0.057607003 0.087725975 -0.08618702 0.02444257 0.08844403 -0.10945568
0.019160006 0.01944273 -0.030640123 -0.12168496 -0.009750717 -0.06216986 0.08598621 0.07481987
0.07189965 -0.08248785 0.088188946 0.06094998 0.013980017 -0.049878053 0.0057955007 0.055739872
0.0025292598 0.018823301 0.017388567 -0.10666629 -0.004910095 0.05693108 -0.07943315 -0.096822076
0.0035396414 -0.043490097 -0.11355048 -0.061191637 -0.1053715 -0.096249506 -0.004657953 0.011035475
-0.05411489 -0.033060912 0.07500572 -0.04156028 -0.02695932 0.03103293 0.015680414 0.09019161
0.03534945 0.008145771 -0.04679794 0.010901591 0.09870628 0.033396386 -0.027290557 -0.07432743

adaLN_modulation.1.bias f4 [128]
00000000: 656c 88bd 794c 623d d1f8 36bc be97 123c
00000010: 929f cfbd 93f6 c8bd 5c54 84bd 1a65 0fbd
00000020: 041a 9dbd 5b6e fabc 7cd3 8e3d a3cd ff3d
00000030: 17fc db3d 87c5 dc3c 37a3 8dbb 52e2 efbd
00000040: 4f82 f33d f41a b5bc 0266 01be f196 aaba
00000050: 65b9 103d 9d3c 83bc 3d43 f4bc 7126 53bc
00000060: d297 d8bd 9213 eebd 7d8e f23d c5ce abbd
00000070: 3d4f b73d bbd8 adbd 7130 b93d c2cf 383d
00000080: c61f fcbd b54d 81bd 44a6 b5bd 92d2 2f3c
00000090: b920 30bd 2c92 6c3d 92db 6e3b ce8d 3b3d
000000a0: 7c38 ac3d c0c6 fd3d 4af2 cc3d 4164 c1bd
000000b0: 48db c6bc 0cdf 9fbc 526d b63d 7628 cc3d
000000c0: d65b b53d 4e55 34bd 4853 f5bd bcdf 433d
000000d0: 0a75 1e3d 1620 92bd 9e63 de3d 8b5b c3bc
000000e0: 3bd1 97bb 97ff 8cbd 1bc6 893c 7e9f 993c
000000f0: c2c4 12bd 9eff 7abd c471 55bc b806 983c
00000100: e7ba 9f3d 2f59 c93d d87f 06bd d12d ba3d
00000110: b96f 6fbd 61ea 46bd e1c4 073e 1df8 0ebe
00000120: 42a9 00be e5d9 09be 06df 77bc 4568 aabd
00000130: e5a5 a7bc 0442 413d 005f 84bc 5a7d 703d
00000140: c886 823d aa80 b53d 0fc7 2c3d d62c 9e3d
00000150: 04ff fa3c 2b6f ee3d 75b3 38bd 8df4 993b
00000160: 007b 03be 7b2f ffbd 75ca 54bd 4e7d f2bd
00000170: 2236 e3bd b94d 4bbd e5e4 463c 2932 bdbd
00000180: d415 b2bd d69e 0f3d 9f8f f53d f9da 88bc
00000190: 5baa 45bc e1ef c6bd 9bd3 853c bd89 0b3d
000001a0: a268 1f3d ad61 893d 41cb 3bbd 439e d1bd
000001b0: 50d9 043d 0f27 03be 02b6 f5bc 1160 33bd
000001c0: 49bc f3bc 2384 c3bc 1db4 74bd c1bc 8b3d
000001d0: 82c2 a43b 3e15 73bd a40a 473d 551e c23c
000001e0: 78b3 273d 790d a73d ef8a be3d c4db bbbd
000001f0: af58 983d b048 8fbc d400 c6bd b672 da3d
-0.066612996 0.05524871 -0.011167721 0.008947311 -0.101378575 -0.09812655 -0.06461403 -0.035008527
-0.07670978 -0.0305702 0.06973931 0.12490394 0.10741442 0.026949657 -0.0043224352 -0.11713089
0.11890089 -0.022107579 -0.12636569 -0.0013014955 0.035333056 -0.016020114 -0.029817218 -0.012887583
-0.105758324 -0.116248265 0.11843584 -0.083890475 0.089506604 -0.08488604 0.090424426 0.04512001
-0.12310748 -0.063136496 -0.08869603 0.010731356 -0.042999957 0.057756588 0.0036446792 0.045789532
0.08409211 0.12391424 0.100071505 -0.0944295 -0.024274483 -0.019515537 0.0890757 0.09968655
0.08855407 -0.044026665 -0.11978775 0.04782079 0.038685836 -0.07135026 0.10858844 -0.023847362
-0.0046330965 -0.068846874 0.016818097 0.01875281 -0.035832174 -0.06127893 -0.013027612 0.018557891
0.07799321 0.098314635 -0.032836765 0.0909077 -0.058456156 -0.048563365 0.13258697 -0.13961835
-0.12564567 -0.13462026 -0.0151288565 -0.08320669 -0.020464847 0.047182098 -0.01615858 0.058713295
0.06373364 0.08862431 0.042182025 0.077233955 0.030639179 0.11642297 -0.04509302 0.004698342
-0.1283989 -0.12460228 -0.05195089 -0.11840306 -0.110943094 -0.04963467 0.012139534 -0.09238083
-0.0869557 0.035063587 0.11990284 -0.016705977 -0.012064542 -0.09713722 0.016336253 0.034066904
0.038918145 0.06708083 -0.045848135 -0.10235264 0.032433808 -0.12807868 -0.029994015 -0.043792788
-0.029752867 -0.023866719 -0.059742082 0.06823111 0.00502807 -0.05934643 0.048594132 0.023696104
0.04094264 0.081568666 0.09303843 -0.09172776 0.0743879 -0.017490715 -0.09668127 0.106664106

advantage.0.weight f4 [256, 64]
00000000: af24 0c3d 0cdd e9bd a884 253d 9a13 5d3d
00000010: 6315 023e 53a5 f9bd 2e6b a8bc ddab e1bc
00000020: 7959 c33d 0d33 b1bd 3774 b6bd 0af8 62bd
00000030: d28c 83bd 9b93 3dbd 03eb 87bc 552b debb
00000040: 03ec 94bb d4a5 e13d 78a5 a43c 3de1 d5bd
00000050: 2010 073e 756f b13d 7512 7abd b962 363d
00000060: 9abb f2bc 40a2 e93c 2512 cbbd 5434 2d3d
00000070: a777 f8bd b688 ce3d f9c0 b7bc 916a cfbb
00000080: 1edc ed3d c222 d93c f2c4 00be e4ac f63b
00000090: daf0 f43d cb2c 36bd a62a 57bd 97f5 e13d
000000a0: 6370 cf3d 054a 263d 2dca 9a3d af52 a1bd
000000b0: c3e4 3a3c 1a2d d3bc 0a04 5cbc a89d cbbd
000000c0: e934 823d 5a54 8fbc afd8 32bc 36da 02bc
000000d0: 6312 ac3d 68cc ed3d 0448 d93c 9673 cbbd
000000e0: ba74 adbd d2c1 0a3e 6915 d03d bd7b 14be
000000f0: e775 203d aa91 ddbc fbec a2bd 1741 aebd
00000100: 9df5 d8bc 7012 713d a61f d1bd ef44 b9bc
00000110: 929c b5bd 81d2 e73d 08c3 cdbd 7d54 aabd
00000120: 7880 a73d a03c 09bd b09b c33d 075b 013e
00000130: a34b 283d bf06 26bd 0c22 8ebc 9707 57bc
00000140: fa8b 9b3d c4ff ab3d ef1c db3d 5ce9 f03d
00000150: c518 583d e3d4 05be 07ed a13d f9fb b2bd
00000160: 8a24 643d a46d df3d b6d5 d2bd c152 82bd
00000170: 372b a53d 95bb b0bc 5f07 34bd d474 723c
00000180: 6bae 25bd 03df cebd 3c1f 323d 4c4f b7bd
00000190: eb15 bb3d 1a61 503d 5bc1 963d 2d96 51bd
000001a0: 4d67 92bd d07b e4bd 057b bdbd 443b 95bd
000001b0: 1aae 35bc 5338 503d 83a8 18bd 6faf 153d
000001c0: a273 a1bd fae1 843d cec3 0b3d fb72 b53c
000001d0: 8eb3 013c 9d89 6a3d 5a60 9bbd d81e 793d
000001e0: 2e4a cb3c 09e2 1abc f092 913c 9e59 b4bd
000001f0: 3f3a 65bd 996b 273d 4d17 c3bd 5e71 febd
00000200: 53c6 0d3d c95e aa3c 1dcb d83d 40fc cfbd
00000210: 275c a53c 1b1a de3d 86b2 a7bd 6446 2f3d
00000220: 4509 c5bd e8a0 a2bd 7324 d33d e187 67bd
00000230: 0c43 03be 7533 67bd 76e5 fbbd e4df ec3d
00000240: 7ce7 e3bd ed9f 393d 0c91 6a3d 8aeb b6bd
00000250: aae5 2c3d 4847 143b 7d6e 9c3c 7b2e caba
00000260: 48b0 95bd bbcc 623d 80cc fcbb 0703 fb3c
00000270: a893 ee3d 3889 c43d 1254 153d 4cc7 d0bd
00000280: cfeb 16bd bc0d 923d aa35 06bd e947 abbc
00000290: 83b6 d2bd f372 40bd cf66 ba3d 48ef 023e
000002a0: 23c3 143d 5ca1 1dbd 7255 cabd bdbf e5bd
000002b0: 9412 7fbd d74f ff3d 33a7 e6bd 40e2 883d
000002c0: 50c1 433d 1315 98bd 1606 70bd ef01 37bd
000002d0: e5bb 683d 9ee6 98bd 2519 eabc 1f61 003e
000002e0: a5d5 eb3d 6fbf 95bd 5fa9 d7bc 751e 7e3d
000002f0: 3baa f63d 352c c2bd 74c7 f3bd 0836 d63c
00000300: 6e3e 6fbd d733 be3d ed4d 8abb 901c b53d
00000310: f047 033d b8b2 103d 86b1 f6bd eff2 e63d
00000320: d07f 5e3c bbd6 583d 4057 eb3d d1ed 60bd
00000330: e1ea 4bbd a246 e13c 50ee fdbd 45f1 cbbd
00000340: 8fae 79bd e9c1 d5bc 0d24 d1bd 17df dbbc
00000350: a861 b6bd a293 a63d 3db1 783d 54ae d9bd
00000360: a65c 9f3d 5b81 073e 7b19 07bd 9842 a8bd
00000370: 78e9 003d ef9e f93d 3c89 02be 360c b93b
00000380: 3618 12bd e3fb bfbd a87c 07bd 7e86 db39
00000390: e5b7 e4bb 7c6f b2bc bd0c a3bd acc6 bf3d
000003a0: fccc e0bc e2ac 2fbd c71b 593c 739e 55bd
000003b0: 5e85 bebd 92c3 00be fe4b d33d ccda ba3d
000003c0: 6a62 863d 53e4 99bd 283e 633b 617a bebd
000003d0: 3a37 67bd a037 053e 08aa 803d 9b27 c2bd
000003e0: 292e 33bc ae01 4cbd 86f4 c0bd bccd 38bd
000003f0: 2c86 a03d 4894 003d 6720 da3d a6be 553b
0.03421467 -0.114191145 0.040409714 0.05397377 0.12703471 -0.12189736 -0.02055892 -0.027547771
0.0953855 -0.08652315 -0.08908885 -0.05541233 -0.06423344 -0.046283346 -0.016591555 -0.006780068
-0.0045447364 0.11017957 0.020098433 -0.104433514 0.13189745 0.08663837 -0.06105276 0.044527743
-0.029630471 0.02851975 -0.0991557 0.042286232 -0.12132197 0.10084669 -0.022430884 -0.0063298424
0.1161425 0.026505832 -0.12575129 0.0075279344 0.11960001 -0.04447631 -0.052530907 0.11033171
0.10128858 0.040597934 0.07558093 -0.07877099 0.01140708 -0.025778342 -0.013428697 -0.0994218
0.06357748 -0.017496277 -0.010915919 -0.007986596 0.084019445 0.11611253 0.026523598 -0.09934156
-0.084695294 0.13550499 0.10160334 -0.14500327 0.03917494 -0.027046997 -0.07955357 -0.08508509
-0.026484305 0.058855474 -0.102111146 -0.022615878 -0.08867754 0.11319447 -0.10046965 -0.08316896
0.081788 -0.033505082 0.095511794 0.1263238 0.041087758 -0.040533777 -0.01735022 -0.013124368
0.07595058 0.08398393 0.10698878 0.1176326 0.052757997 -0.13069491 0.079065375 -0.08739466
0.05569891 0.10909584 -0.102946684 -0.0636344 0.08064883 -0.021573821 -0.043952342 0.014798362
-0.04044954 -0.1010113 0.04348682 -0.089506716 0.0913504 0.050873853 0.073610984 -0.05116861
-0.07148609 -0.11156428 -0.0925198 -0.07286695 -0.011088872 0.050834965 -0.03727008 0.03654426
-0.07883383 0.06488414 0.03412228 0.022149554 0.007916344 0.057260145 -0.07586737 0.06082043
0.024815645 -0.009453305 0.01777026 -0.088061556 -0.05596375 0.040874097 -0.09525929 -0.12423967
0.034612965 0.02079715 0.10585616 -0.10155535 0.020185543 0.10844823 -0.081883475 0.04279174
-0.09620909 -0.07940847 0.103096865 -0.05652607 -0.12818545 -0.056445558 -0.122996256 0.11566141
-0.111281365 0.045318533 0.057267234 -0.08931644 0.042211212 0.0022625495 0.019095654 -0.0015425229
-0.073090136 0.055371027 -0.007714808 0.030641092 0.11649257 0.09596485 0.03645713 -0.10194263
-0.03684598 0.07131526 -0.03276602 -0.020908313 -0.102887176 -0.046984624 0.091016404 0.12786591
0.03631891 -0.038483962 -0.09879579 -0.11218212 -0.062273577 0.124664 -0.112623595 0.06683779
0.04779178 -0.074258946 -0.058599554 -0.04467958 0.056819815 -0.07465862 -0.028576443 0.12537049
0.11515359 -0.07311904 -0.02632588 0.062040765 0.12044188 -0.09481088 -0.11903277 0.026148811
-0.058409147 0.092872314 -0.0042207153 0.088433385 0.032051027 0.03532669 -0.12045579 0.11276805
0.013580278 0.052939158 0.11491251 -0.0549143 -0.049784545 0.0274995 -0.1239897 -0.09958128
-0.060957488 -0.02609344 -0.10211954 -0.026839776 -0.08905345 0.081336275 0.060715903 -0.106289536
0.07781343 0.13232939 -0.032983284 -0.08215827 0.031472653 0.12188517 -0.12747663 0.0056472076
-0.03566762 -0.093742155 -0.033077866 0.0004187114 -0.0069799297 -0.021781676 -0.07961414 0.093640655
-0.027441494 -0.042889483 0.013251252 -0.052153062 -0.093027815 -0.12574604 0.10317229 0.091237634
0.0656174 -0.075142525 0.00346745 -0.09300686 -0.056449153 0.130095 0.06282431 -0.094802104
-0.010936298 -0.04980629 -0.09421639 -0.04511808 0.07838091 0.031391412 0.106507115 0.0032614856

advantage.0.bias f4 [256]
00000000: 4318 cc3c 228c dd3d e761 c93d 98d5 3e3d
00000010: 3eb3 253d 55cb 04be a37f b8bd dcd3 f0bd
00000020: e694 b039 6858 b1bc 155f d33d 9747 9abd
00000030: ac30 1fbd ad27 f93c 950d dc3d ae0a c83c
00000040: cd6d 08be b7d5 b63d 8469 6ebd 875c 633d
00000050: 08f8 d0bd 7600 f73d 3f07 febc 0282 ac3d
00000060: 3b19 0ebd 6785 003d e86c cfbb 48c8 ed3c
00000070: 220d ca3d 05ab 4fbd 8405 9ebc 169b 553d
00000080: 8bc0 92bd 1447 753d b6ed cbbd 1e6e 68bd
00000090: 1f02 a03d 013b 11bd 9a6b 783a 7928 de3d
000000a0: cbcc 5ebc 2b0c b83d 6f05 623d 9276 1fbd
000000b0: 79ee 393c a1d3 8cbd e5a0 433d 6ea0 90bd
000000c0: 0ed7 e43c b904 22bd f3e1 8abd bac6 593d
000000d0: f299 983d ae2c d83d 0840 53bd b597 abbd
000000e0: 0b44 a93d b220 6abd 12b9 97bd ba6c b8bb
000000f0: f3aa 853d ee83 00be 80bd 333c 6303 88bc
00000100: 5c70 c0bc cc44 d7bc 918d d93c 3e82 cabd
00000110: bde5 da3d 8e57 6b3d aca4 52bd 17d4 d4bd
00000120: e947 223d ba3d 9a3d 7a6b f33d d8a9 07be
00000130: cf7b 843c ebaa c6bd 2d7f c5bd 5a80 f1bd
00000140: 3931 7c3c e358 5c3d 33a5 e43d ad3d 30bc
00000150: 73ac a4bd 1fb8 a03c 0651 143d 4d23 db3d
00000160: 9557 d4bc d88e 773d 72b8 9e3d 5542 b33d
00000170: dc74 1b3c ac73 1bbd e8cb 66bd 519f 0d3d
00000180: 9c8c ed3d 574c debc 33e0 92bd 50f1 06bd
00000190: 5c59 823d 3cd7 3a3d 5f91 a13d dd76 ca3d
000001a0: d375 f9bd 7491 d7bd 2fc2 03bd 184f 3cbd
000001b0: bb36 873b 44cc 85bd cf5d a83d 8f8b 9b3b
000001c0: fb31 153c 7c57 2e3c 0b25 f9bd f419 16bd
000001d0: d2b8 4bbd 7d1e 16bd f0a2 b3bd 3d81 c43d
000001e0: 754d 0dbc bf39 be3d 698a ddbd eea0 133d
000001f0: 4c31 043d f6ca f63c 44f7 e73d 13fb c03d
00000200: 998d eb3d 6719 9abd 6841 513d 89b5 c9bd
00000210: edbc 3f3b 42ab e43d aadf 4fbc 7efe ff3c
00000220: 6e9f c43d 6bb6 e8bd 818f 7a3d 9c39 983c
00000230: 431b cebd 89d3 973a ddcd 3c3c eebf f03d
00000240: edd8 f6bc 06c8 b73d 1a80 c33d d018 c13d
00000250: 259d 98bd f626 463d 9cae edbd 8e31 afbd
00000260: 90d8 83bc 4eac 9d3d 817c d83d 9d03 e0bd
00000270: f4d8 e53d adb2 79bb 5bfc 8cbc d3f2 763d
00000280: c5ff 953d 5e30 e33d 5bd6 f5bd 40f8 883d
00000290: 5240 c9bd 9f7b 903c b93f 063d 8527 7bbd
000002a0: 71c5 953d 5a76 a43d 5b33 893d 3144 5e3d
000002b0: 7c59 97bd 7e54 e3bd da8c dd3d 65c4 04bd
000002c0: 1ff7 cbbd 4c4b 893d 204a 9dbc dce2 4dbd
000002d0: 6d40 2ebd 12f3 c4bd 800f da3b 6065 97bd
000002e0: 8785 9a3b 617d 52bd 1920 a93d b71d fe3c
000002f0: 3e62 e7bd 8032 323c 1beb e6bd 7073 b2bd
00000300: 4105 ebbd 5927 bdbd 5490 893d 45a7 663d
00000310: 0694 153c aa6e 293d 266b a7bd 02ca 593d
00000320: 8031 babd e3ca 7739 da5e b33d 6fae 163d
00000330: b20a 043c 442d be3d 82ac c93c 250e c4bb
00000340: e135 313d 4bdf 413d a454 9a3c ff20 0bbb
00000350: b9ad 633d 20a2 cc3d e303 fb3b ecde febd
00000360: f531 7eba 351f acbc 3654 9dbd 20a1 a6bd
00000370: 578d cdbd 8e18 c63d 8dbd 93bb de87 703d
00000380: 1d7d fd3b 7729 af3d 3d6c 843d 8b12 193d
00000390: 4a93 933d ea6e bfba 3d78 e23d c9cf d3bd
000003a0: 29c7 3ebd 8fe2 923b 7645 ffbd c506 f5bd
000003b0: d583 6abd 6a27 083d 2096 40bd 3853 f0bd
000003c0: 2218 2a3c 595a 923c 8c66 edbd 7ce1 b8bd
000003d0: 7083 c0bd ac4b 55bc fb38 d53d fba5 b8bc
000003e0: 2def 013e 9975 993d 9643 babd f7e1 753b
000003f0: 281b aa3d 8f39 d1bd ae0e 0a3d 9967 583d
0.024913913 0.10817744 0.098331265 0.046590418 0.04045414 -0.1296819 -0.0900872 -0.11759159
0.00033680274 -0.0216486 0.1032087 -0.07533186 -0.038864776 0.030414427 0.10744778 0.024419155
-0.13323136 0.089274816 -0.058206096 0.055508163 -0.10203558 0.12060635 -0.031009315 0.084232345
-0.03469203 0.031377222 -0.0063301213 0.029026166 0.09865786 -0.050700206 -0.01928974 0.052149855
-0.07165631 0.05988224 -0.09957449 -0.05674564 0.078129046 -0.03545666 0.0009476483 0.10847563
-0.013598631 0.08986696 0.055180963 -0.038931437 0.01134836 -0.068763025 0.047760863 -0.070618495
0.027934577 -0.039555285 -0.06781378 0.053168036 0.07451238 0.10555397 -0.051574737 -0.08378545
0.08264931 -0.057160087 -0.07408346 -0.0056281956 0.065267466 -0.12550327 0.010970473 -0.016603177
-0.023491077 -0.026277922 0.026556762 -0.09888123 0.1068835 0.057456546 -0.051426575 -0.103920154
0.03961936 0.07531305 0.11885734 -0.13248384 0.016172318 -0.09700569 -0.096433975 -0.11792059
0.015392595 0.053795706 0.11164322 -0.010756892 -0.080407046 0.019619046 0.036210082 0.107000925
-0.025920669 0.06043896 0.07750024 0.08752886 0.009488311 -0.03795211 -0.056346804 0.034575764
0.11599085 -0.027136011 -0.07171669 -0.032944977 0.063647 0.04561542 0.078890555 0.098859526
-0.12180676 -0.1052579 -0.03216761 -0.045973867 0.0041263974 -0.06533101 0.082210176 0.0047468613
0.009106155 0.010640975 -0.121652685 -0.036645845 -0.049736805 -0.03665017 -0.08771312 0.09594963
-0.008624424 0.09288358 -0.10817415 0.036042146 0.032273576 0.030126076 0.11326459 0.094228886
0.11501617 -0.07524376 0.051087767 -0.09849078 0.0029256896 0.11165477 -0.012687603 0.031249281
0.09600721 -0.113629185 0.061172012 0.018582158 -0.100637935 0.0011583428 0.011523691 0.11755358
-0.030132735 0.08973698 0.09545918 0.09428561 -0.07451848 0.048377 -0.1160557 -0.08554374
-0.016094476 0.0769888 0.10570622 -0.10938189 0.11223021 -0.0038100884 -0.017210176 0.06029017
0.07324175 0.1109321 -0.12003776 0.06687975 -0.09826721 0.017637072 0.032775614 -0.061316986
0.073130496 0.08030386 0.066992484 0.05426425 -0.07390115 -0.111001 0.10817881 -0.03241386
-0.09959244 0.06703815 -0.019200385 -0.050265178 -0.04254191 -0.096166745 0.00665468 -0.073923826
0.0047156247 -0.051389102 0.08258075 0.031020029 -0.11298035 0.010876298 -0.112753116 -0.08713424
-0.114756115 -0.092360206 0.067169815 0.056311864 0.00912953 0.041365303 -0.08174734 0.053171165
-0.090914726 0.00023631337 0.08758326 0.036787447 0.008059191 0.092859775 0.024618391 -0.0059831315
0.043264274 0.04733209 0.018839188 -0.0021229384 0.055585597 0.099918604 0.0076603754 -0.12444863
-0.0009696775 -0.021010974 -0.076820776 -0.08136201 -0.10036724 0.09672652 -0.00450868 0.058723323
0.007735862 0.08552831 0.06465957 0.0373712 0.072058275 -0.0014605199 0.1105809 -0.10342366
-0.046576653 0.0044825743 -0.124644205 -0.11964182 -0.05725463 0.033240713 -0.04701817 -0.11734623
0.01038173 0.017865347 -0.11591825 -0.09027383 -0.0940007 -0.01301853 0.10411259 -0.022540083
0.12688895 0.07493133 -0.09094922 0.0037518719 0.08305961 -0.102160566 0.033705406 0.052833173

advantage.2.weight f4 [2, 256]
00000000: 19be fd3c d33d 60bc 51b9 e63c de74 713d
00000010: 982d 9ebc 4e46 c5bc 318e f03c 3e91 2cbc
00000020: c57b 95b9 cd9f cbbc 0274 55bd 8a83 e2bc
00000030: c9dc c03c 7806 e33c 4c65 44bd 2154 893d
00000040: 833f 413b 0050 863c cf0c 8bbc 3346 0bbd
00000050: 2263 39bd 79da acbc 02f2 6dbc 380a d3bc
00000060: 5312 833c 3242 6fbd 1465 fa3c 429c 283d
00000070: 5e6b 8dbd 1ff8 72bd 02cb 0bbd f2d9 1b3d
00000080: 8136 173d e849 22bd 4e91 2f3a 8484 623d
00000090: 9e63 01bd ef11 0a3d 69d1 6a3c 3dde 4bbc
000000a0: 184f 4cbd e982 9fbb d243 b5bc 4502 69bd
000000b0: d734 27bd 44cc acbc 4269 ba3c 3a13 d93c
000000c0: f462 663d 2dc4 433d e61d edbc d8fa 8b3d
000000d0: 8f61 b23c 2ead 5b3c bfe0 143c 9ac6 5c3d
000000e0: a79d 183c 9a8b b4ba 0205 9abc 0b17 103d
000000f0: 8dbd ba3c 8020 263d 2109 313c 3c85 30bc
00000100: 5fba 42bd fb8b a1bc 07a6 93bc 784c 2fbd
00000110: 6ed1 413d ce2c be3a b8d1 35bd 7afd c0ba
00000120: 37f5 34bd 2ae5 5ebd 3f15 743d 990e e33c
00000130: 485b 033d 2beb abbc 4f09 6e3d 96b8 bf3c
00000140: c1e1 b8bc f182 643d 3443 053d 7d63 0abd
00000150: 00c5 7d3d 7fe8 1d39 3a2e 1f3d b127 20bd
00000160: 3eb6 483c 62f5 b9bc 76fd acbc b172 d0bc
00000170: 183d ddbc 71bb 4d3d dbbf 273c b1ac 1a3d
00000180: e66d e13c 517b b2ba 7d3c 183d bf4d 38bd
00000190: 2c50 8fbc 483e b6bb c578 3abd 2baa cb3c
000001a0: e096 0d3c 8ed0 44bd 3516 66bd caf9 4abd
000001b0: 0432 07bc 2abf 8d3c 3c95 68bd 00b6 4fbc
000001c0: 6a64 073c 46ec 48bc eec5 39bc 22a2 043d
000001d0: 398d 8ebc f272 343c b3c3 7b3b dc6b 23bd
000001e0: 6992 13bb c330 d63b d941 803d 2b44 01bc
000001f0: f000 11bd 869f 953c 795d 343d b255 b63c
00000200: 5401 f9bb 84f1 733b 66c3 38bd c486 293b
00000210: 4de8 023d 4f10 2b3d 5200 b13c 0ea9 973c
00000220: ec6e 143c 81f4 82bc e30e 503d 7c61 623d
00000230: f374 a73b 5c7f d5bc eb11 8c3c d73f 32bd
00000240: d3de 1d3d a308 073c 0c5e 9d3c a04a 03bc
00000250: abc6 2a3d cd3e f5bc c803 ef3c 4450 353d
00000260: 5c27 69bd 149d 6e3d 5dcb ce3b d6de 68bd
00000270: ae2c ab3c fd58 47bc c33e 613d 807e c7bc
00000280: bb38 ef3c 84f5 1b3d 7ce7 bb3c 2584 1abd
00000290: 5fd0 12bc 3f8a acbc e1cd babc 3c5c df3c
000002a0: bf91 7f3c 8381 123d 0827 4d3d b8bd da3c
000002b0: 9c20 4fbc 1e75 8a3d a7fc 653d 2b5a 75bc
000002c0: 2b5c 063d 1a87 3abd 4b59 2f3c dc60 19bb
000002d0: 86c7 57bd e534 63bd bbf5 603d 65ba 413d
000002e0: 0abd 94bd 3b7c 543d 3c06 fb3b db79 ec3c
000002f0: cd7c 983c 8bc8 023d f900 40bd c5d0 33bc
00000300: e540 d03c c82d b8bc 6696 f13b 4b7a 0e3d
00000310: e461 8fbd 8b09 fa3c d024 5ebd 0171 9fbc
00000320: 3fc6 a7bc c3cc f7bc dbf9 c4bc c5a8 9cba
00000330: 0102 b13c 46ff 433d 9a18 e83c 7f2b 8d3c
00000340: 12b4 b53c c872 febc bceb 863c 9629 05bd
00000350: 3889 05bd 3327 033b abcc c83a 94ef 2bbd
00000360: 07fd 4abd 822b f5bc e710 dfbc 1304 ddbc
00000370: 9009 93bd 930b a13c ea4d 2bbd 76ba 473d
00000380: 023b 813c a06f 76bc b9ac 6b3c 7484 95bc
00000390: 14ee 37bd a970 163d f073 c4bc fd74 343d
000003a0: 4336 72bb 176a fd3d 8da2 053d 6844 183d
000003b0: 711b 16bd 9416 71bd 8695 94bc ae0b 313c
000003c0: fcf5 62bc 00a7 313d cec3 423b 83de 3e3d
000003d0: 569b 3b3d ed8d 1c3c 4b39 3dbb b7cc 52bd
000003e0: 4d3b 243d df55 723d 6e3c 33bc b2e7 973d
000003f0: ab5c 30bd d7ec 60ba 7121 55bb 157d 3bbd
0.030974435 -0.013686615 0.028164538 0.058949344 -0.01930885 -0.024081375 0.029364677 -0.010532675
-0.0002851171 -0.024856472 -0.052112587 -0.027650613 0.023542779 0.027713045 -0.047948167 0.067054994
0.0029487319 0.016395569 -0.016973881 -0.034002494 -0.045260556 -0.02110027 -0.014523031 -0.025761709
0.015999949 -0.05841274 0.030565776 0.041164644 -0.06905244 -0.059318658 -0.03412915 0.038049646
0.036917213 -0.039621264 0.00066973723 0.055302158 -0.031589143 0.03370851 0.014332154 -0.012443122
-0.049880117 -0.0048679006 -0.022127066 -0.05688693 -0.040821876 -0.021093495 0.022755269 0.026498426
0.056246713 0.04779451 -0.02894492 0.06834954 0.021775035 0.0134079885 0.009086787 0.05390034
0.009314931 -0.0013774515 -0.018801216 0.035178225 0.022795463 0.04055834 0.010805399 -0.010773953
-0.04754102 -0.019720068 -0.018023504 -0.042797536 0.04731887 0.0014509202 -0.044389457 -0.0014723979
-0.044179168 -0.054417767 0.059590574 0.027716922 0.032069474 -0.02098616 0.058114346 0.023403447
-0.022568585 0.055788938 0.032534793 -0.033786286 0.061955452 0.00015059298 0.038862444 -0.039100353
0.012250481 -0.022700015 -0.021116953 -0.025445314 -0.02700667 0.050227586 0.010238613 0.037762348
0.027518224 -0.0013617073 0.03716706 -0.04499602 -0.017494284 -0.0055616237 -0.04552533 0.024861416
0.008641928 -0.048050456 -0.056173522 -0.049554624 -0.008251671 0.017303068 -0.056782946 -0.0126776695
0.008263687 -0.012263363 -0.011338694 0.032381184 -0.017401325 0.011013733 0.0038416206 -0.039897785
-0.0022517687 0.0065365746 0.062625594 -0.007889788 -0.035401285 0.018264543 0.044034455 0.02225766
-0.0075990353 0.0037222812 -0.04510822 0.002586768 0.03195982 0.0417636 0.021606598 0.018513229
0.009059649 -0.01598573 0.050795447 0.05526875 0.005110377 -0.026061706 0.017098388 -0.043517914
0.03854258 0.008241805 0.019209884 -0.008013397 0.04169337 -0.029937172 0.029176608 0.044266
-0.0569223 0.05825527 0.006310864 -0.056853138 0.020895328 -0.012167213 0.054991495 -0.024352312
0.029201856 0.03807594 0.022937529 -0.03772368 -0.008960812 -0.021062015 -0.022803249 0.02726566
0.015598713 0.035768043 0.05008605 0.026701793 -0.012642052 0.067606196 0.05614915 -0.014975111
0.032802742 -0.045539 0.010702441 -0.002340368 -0.052680515 -0.055470366 0.054921847 0.0472969
-0.07262619 0.051876288 0.0076606553 0.028866699 0.018614197 0.031929534 -0.046875928 -0.0109750675
0.02542157 -0.022482768 0.007372665 0.034784596 -0.07001093 0.030522129 -0.054234326 -0.019463064
-0.020480273 -0.030249005 -0.024044922 -0.0011952153 0.0216074 0.04785087 0.028332043 0.017232655
0.02218059 -0.031060591 0.016469829 -0.032510363 -0.032601565 0.0020012378 0.0015319785 -0.041976526
-0.049557712 -0.029927973 -0.02722974 -0.026979482 -0.07179558 0.01965884 -0.04182235 0.048761807
0.015775207 -0.015041262 0.014384442 -0.018251635 -0.044904783 0.036728535 -0.023981065 0.04405688
-0.0036958612 0.12373751 0.032625724 0.037174612 -0.036647264 -0.058859423 -0.018137705 0.010806007
-0.013852593 0.043372154 0.002971876 0.046598922 0.045802437 0.009555322 -0.002887326 -0.051464763
0.040095616 0.059163924 -0.0109397005 0.07417239 -0.043057125 -0.0008580214 -0.0032521153 -0.045773584

advantage.2.bias f4 [2]
00000000: 6df9 b1bc 1a58 af3c
-0.02172538 0.021404315
