result/low_level/ETHUSDT/best_model/vol/3/best_model.pkl (torch, 187425 bytes, 14 tensors)

fc1.weight f4 [64, 36]
0.17806983 0.15387283 0.0070723123 -0.07555621 -0.2704807 -0.24742568 -0.05275554 -0.0026978378
-0.11088266 -0.19459361 -0.10534399 0.11407939 0.14738335 -0.2521302 -0.29988372 -0.20536697
0.0906936 0.09292991 -0.18181148 0.06522862 -0.032934677 -0.014070133 -0.1681812 0.086553626
-0.14980516 0.010357169 -0.11592839 -0.11720125 -0.178961 0.09447962 -0.23161976 -0.038167257
-0.09575325 0.07196013 -0.021541443 0.09457956 0.14599085 -0.15760295 -0.21403003 0.036733102
-0.12431631 -0.16596706 0.0071373605 -0.09484525 -0.025155345 -0.25626513 -0.13237584 0.17509304
0.063766494 -0.2646894 -0.038022954 -0.26095912 -0.010735798 -0.007971369 -0.050819963 0.0883994
-0.016322719 0.092622496 0.05840826 -0.15723395 0.10181388 -0.017021729 0.10662471 0.041164007
-0.1807392 -0.02686778 -0.17570916 -0.11524882 0.13531443 0.24859864 0.07599045 0.2134258
0.074959464 0.079452276 -0.013877839 0.21049324 -0.09081322 0.15359516 0.013973941 -0.0748615
0.03885423 0.16738993 -0.1535715 -0.1913858 -0.09229108 -0.056066666 0.11296727 -0.04374326
-0.12495302 -0.05744009 -0.0031533204 -0.0008338492 0.08682794 -0.0177625 -0.009547273 0.031586323
0.0015871484 -0.034331784 -0.015494936 0.03795449 -0.09385363 -0.28577065 0.23786533 0.03652759
0.26507136 -0.079019904 0.028237024 -0.21900932 -0.15506141 0.04684382 -0.1066027 -0.16109386
-0.094591536 0.112824105 -0.0092349695 -0.043741852 -0.061040457 -0.08678659 -0.11667644 0.029322792
-0.080268376 0.12844859 0.05234593 0.0955068 -0.0012898233 0.15700893 -0.19010898 -0.049680375
-0.09244752 0.07510182 -0.14633043 -0.06736323 0.080475956 0.17021933 0.12131023 0.12406434
-0.121673 0.07864955 -0.04933287 0.041121107 0.05627996 0.21340102 0.18351506 0.05246837
-0.14106879 0.16709164 0.19815902 0.1506208 -0.02784049 0.03885638 0.1638187 -0.11357681
0.14622816 0.1318304 0.2893233 0.15944539 0.19008648 0.13531823 0.030452905 0.033158913
-0.14630608 -0.0034508249 -0.010846946 -0.049717493 0.05067751 0.11865802 -0.015534661 -0.093334116
-0.17439167 -0.11530645 0.022299353 -0.22272216 -0.12018056 0.0200137 0.05417136 -0.11478625
0.023664381 0.09284589 -0.2020149 -0.013403281 0.10072221 0.18121028 0.0028527568 -0.041449644
0.0006818791 0.0035348379 0.0057569793 0.11881148 0.022555249 -0.044682354 -0.031056013 -0.16569443
-0.17982863 -0.043224186 0.0533644 0.131753 0.1360159 0.12293848 0.084632896 -0.16020802
-0.11187253 -0.029978983 -0.037036493 -0.008641952 0.00089911325 -0.097275965 -0.14396971 -0.08872006
0.026256472 0.066230685 -0.15976056 -0.11949136 -0.03229273 -0.08473177 -0.08943099 -0.20303716
0.09105646 -0.021049595 0.11063703 -0.10347264 -0.16665395 0.02723821 0.014382923 0.19681118
-0.0045248806 0.14456922 -0.07786846 -0.1389634 -0.08116261 0.027213624 0.1125836 0.17312102
0.18281221 -0.072676696 -0.08166781 0.0010367243 0.04712723 -0.037240673 -0.05234402 0.035882257
-0.09802366 0.15128376 -0.13766536 -0.10335241 -0.0600982 -0.09780043 -0.06439069 0.15371549
-0.052569598 0.0072844764 -0.14457817 -0.055164058 -0.030246735 0.21826345 0.16934247 0.1074108
00000000: f057 363e d790 1d3e dbbe e73b 37bd 9abd
00000010: 727c 8abe 285d 7dbe 3116 58bd 35ce 30bb
00000020: 7316 e3bd 8c43 47be 97be d7bd 75a2 e93d
00000030: a9eb 163e 3617 81be 5c8a 99be b84b 52be
00000040: 91bd b93d 0952 be3d ca2c 3abe 9596 853d
00000050: 83e6 06bd 6a86 66bc b137 2cbe 0743 b13d
00000060: 8666 19be 1eb1 293c dd6b edbd 3507 f0bd
00000070: 8d41 37be 887e c13d bb2d 6dbe 4555 1cbd
00000080: 481a c4bd d55f 933d ae77 b0bc eeb2 c13d
00000090: a07e 153e ab62 21be b02a 5bbe 7375 163d
000000a0: 8d99 febd 45f3 29be 85e0 e93b 3a3e c2bd
000000b0: 9512 cebc 2f35 83be 888d 07be 974b 333e
000000c0: 0298 823d 5e85 87be f5bd 1bbd 6f9c 85be
000000d0: 33e5 2fbc 589a 02bc 9828 50bd bf0a b53d
000000e0: 39b7 85bc ddb0 bd3d 803d 6f3d f001 21be
000000f0: cc83 d03d 2771 8bbc 0e5e da3d 979b 283d
00000100: b213 39be d219 dcbc 1aed 33be 9307 ecbd
00000110: de8f 0a3e a490 7e3e e2a0 9b3d 4b8c 5a3e
00000120: 5984 993d e0b7 a23d e05f 63bc 8a8b 573e
00000130: 48fc b9bd 0d48 1d3e f5f2 643c fc50 99bd
00000140: 9d25 1f3d 4468 2b3e d941 1dbe a4fa 43be
00000150: 1b03 bdbd 29a6 65bd 625b e73d 222c 33bd
00000160: 5ee7 ffbd 4d46 6bbd f0a7 4ebb ac96 5aba
00000170: d9d2 b13d aa82 91bc 2a6c 1cbc a960 013d
00000180: dd07 d03a 7c9f 0cbd 79de 7dbc 2b76 1b3d
00000190: 5536 c0bd 8850 92be f892 733e f49d 153d
000001a0: 6fb7 873e 30d5 a1bd 5551 e73c fb43 60be
000001b0: 6bc8 1ebe 4edf 3f3d 8452 dabd caf5 24be
000001c0: 35b9 c1bd 5310 e73d 454e 17bc a82a 33bd
000001d0: 8f05 7abd 2bbd b1bd 0ff4 eebd 5a36 f03c
000001e0: bf63 a4bd 0788 033e b068 563d 1299 c33d
000001f0: 4a0f a9ba f3c6 203e eeab 42be a67d 4bbd
00000200: 2055 bdbd fcce 993d a5d7 15be bcf5 89bd
00000210: 94d0 a43d fa4d 2e3e 7f71 f83d 7215 fe3d
00000220: b22f f9bd 0413 a13d 4311 4abd 9b6e 283d
00000230: d185 663d cc85 5a3e 5feb 3b3e 13e9 563d
00000240: 5674 10be 121a 2b3e 33ea 4a3e 573c 1a3e
00000250: bd11 e4bc de27 1f3d 17c0 273e f59a e8bd
00000260: d6bc 153e 8cfe 063e 2f22 943e a745 233e
00000270: 08a6 423e dd90 0a3e 5f78 f93c a4d1 073d
00000280: 43d1 15be 3c27 62bb 64b7 31bc 92a4 4bbd
00000290: 3993 4f3d fa02 f33d 1785 7ebc f525 bfbd
000002a0: bb93 32be ca25 ecbd 22ad b63c 4711 64be
000002b0: 3a21 f6bd c5f3 a33c cae2 5d3d 0e15 ebbd
000002c0: cedb c13c fc25 be3d fedc 4ebe 6f99 5bbc
000002d0: 7247 ce3d 308f 393e 51f5 3a3b 1ac7 29bd
000002e0: 22c0 323a bda8 673b 0ba5 bc3b 6f53 f33d
000002f0: c9c5 b83c d804 37bd 2e69 febc cdab 29be
00000300: ff24 38be d80b 31bd a194 5a3d 42ea 063e
00000310: c147 0b3e 2bc7 fb3d 0354 ad3d 920d 24be
00000320: 6d1d e5bd 7c96 f5bc 94b3 17bd f996 0dbc
00000330: 78b2 6b3a 9f38 c7bd cc6c 13be ddb2 b5bd
00000340: d017 d73c f4a3 873d 4698 23be e3b7 f4bd
00000350: 6245 04bd da87 adbd 9827 b7bd f9e8 4fbe
00000360: cf7b ba3d 3370 acbc ab95 e23d 77e9 d3bd
00000370: 55a7 2abe ab22 df3c 5aa6 6b3c df88 493e
00000380: 7345 94bb f409 143e 8079 9fbd 6c4c 0ebe
00000390: 9538 a6bd 1bef de3c 3b92 e63d a346 313e
000003a0: 2033 3b3e 85d7 94bd 7441 a7bd b2e2 873a
000003b0: 7b08 413d ad89 18bd af66 56bd 46f9 123d
000003c0: a1c0 c8bd 21ea 1a3e 26f8 0cbe 6eaa d3bd
000003d0: 8829 76bd 984b c8bd 44df 83bd 9867 1d3e
000003e0: 3853 57bd 9eb2 ee3b 4d0c 14be b5f3 61bd
000003f0: 00c8 f7bc 7480 5f3e 1d68 2d3e 32fa db3d

fc1.bias f4 [64]
-0.05180958 -0.22765158 -0.09510318 -0.06014118 0.15056111 0.16728084 -0.0401724 -0.023589322
-0.011869118 0.031408817 0.08559259 -0.08002822 0.101771966 -0.11755271 -0.15700974 -0.09558838
-0.04329926 0.105279304 -0.12411996 -0.16066477 -0.099805936 0.19077237 0.037915498 0.057136238
-0.25366563 0.074746646 0.1269964 0.08222764 0.107184425 -0.0337464 0.023520539 0.07721581
-0.1594093 -0.12161633 0.12863979 -0.018234111 -0.1503683 -0.12432447 -0.110574506 -0.00623868
-0.013757536 0.095469244 0.14316322 -0.024081983 -0.1940439 -0.031077633 -0.0061215763 -0.20310158
-0.32301453 -0.072545685 0.20909767 -0.23187007 0.086083665 -0.06157079 0.04976874 -0.00569474
-0.06471621 0.04903371 -0.081378914 -0.08631472 0.041268703 0.18458419 -0.08507798 0.03919073
00000000: 4836 54bd 7f1d 69be 75c5 c2bd 9956 76bd
00000010: b12c 1a3e ab4b 2b3e d18b 24bd 653e c1bc
00000020: b076 42bc 88a6 003d 2b4b af3d d6e5 a3bd
00000030: d26d d03d 7abf f0bd 29c7 20be d7c3 c3bd
00000040: 915a 31bd ad9c d73d 9b32 febd 4e85 24be
00000050: 0e67 ccbd d559 433e 484d 1b3d b007 6a3d
00000060: 76e0 81be c514 993d 580b 023e f766 a83d
00000070: 8283 db3d aa39 0abd 25ae c03c 5323 9e3d
00000080: 313c 23be fc11 f9bd 26ba 033e b45f 95bc
00000090: 26fa 19be d49d febd e374 e2bd d76d ccbb
000000a0: 4a67 61bc 6185 c33d 6199 123e 9447 c5bc
000000b0: 72b3 46be 8596 febc 8197 c8bb dcf9 4fbe
000000c0: 2962 a5be d592 94bd b31d 563e 596f 6dbe
000000d0: a24c b03d a731 7cbd 4eda 4b3d f19a babb
000000e0: ef89 84bd 92d7 483d fda9 a6bd c6c5 b0bd
000000f0: 5f09 293d a303 3d3e 5d3d aebd 7586 203d

fc2.weight f4 [64, 9]
-0.110826604 0.13370393 -0.028316269 -0.20246941 -0.26104674 -0.28802267 -0.059083126 -0.0014749039
0.2847077 -0.13013701 -0.17424844 0.47262067 0.32201394 0.09049281 -0.090442106 -0.123978436
-0.1709758 0.04587254 -0.025193365 0.19608936 -0.03336792 0.32827982 0.26711002 0.09823506
0.003023792 0.015113534 0.35017967 0.04350232 0.106412165 -0.29225132 0.16198002 -0.32336637
-0.02152694 0.2714487 0.06857406 0.29272017 -0.26582432 0.33065063 0.35710487 0.42511895
0.21072935 -0.2937535 0.3386126 -0.1695867 -0.33720237 0.20421591 -0.34035176 -0.30446592
-0.07353332 -0.185804 -0.2655003 0.075812384 0.15800537 -0.32018664 -0.14021674 0.18424363
0.030060014 -0.19654047 -0.0109171355 -0.18209103 0.059165854 -0.2846747 -0.07753446 0.25687516
0.009427084 -0.2376788 -0.33505985 -0.18392906 -0.3230153 -0.080192484 0.30757228 -0.09669881
0.19219531 0.30246827 0.04937909 -0.20335993 -0.10128675 0.21982878 0.31697926 0.3477819
0.22229747 0.10720541 0.104280554 0.21716948 -0.27387828 -0.25360233 0.17550446 -0.023783293
0.21688972 -0.04041557 -0.17554697 -0.28168023 0.03465517 -0.14156051 -0.21730006 -0.023053234
0.32966304 -0.12831111 -0.22566915 -0.16252393 -0.2831165 0.27572817 0.46901253 0.008248936
0.13421024 0.05537723 -0.24679883 0.2928014 -0.21068577 -0.30161995 0.40430665 0.48159763
0.10900026 0.015776273 -0.18447469 0.20615627 -0.2951797 -0.29875794 0.30331993 0.4174228
0.14823763 -0.20883022 -0.0014021683 0.09236657 -0.07469688 0.06239947 -0.20692512 -0.22073837
-0.2751367 0.016501311 -0.06926258 -0.061609183 -0.20905933 -0.13232087 -0.0069205104 -0.09114621
0.032219198 -0.41349718 -0.26982298 0.2631469 0.09904898 -0.21787128 -0.054355968 0.31648868
0.09758275 -0.2057096 0.02563848 0.0463101 0.0759807 -0.19830279 -0.10800229 -0.22873908
-0.24835543 0.20811434 0.3047809 0.11146927 0.07682677 0.16513675 0.35664925 -0.18462354
-0.29691854 -0.25343135 -0.25755376 0.02099159 -0.19079193 -0.40859053 0.11434653 0.28513885
-0.2165511 0.25967044 -0.11391711 -0.20035988 0.35545796 0.2127372 0.18613845 0.14768104
0.1061101 0.20866817 -0.3323184 0.25278845 -0.09313216 0.3089143 0.025353331 -0.36767986
0.26549426 -0.06634099 -0.035077017 0.06292497 -0.04679309 -0.17381574 0.17081663 -0.090909176
0.43295956 0.12307761 -0.12217011 0.08037666 -0.08527676 0.28870398 0.2846652 -0.29786134
-0.31843382 -0.1251543 0.3290395 0.115332395 -0.1025053 0.23828666 -0.1731124 0.29130623
0.15139277 -0.08550651 0.22050458 -0.1959644 0.1928163 0.299162 -0.25108355 -0.07812418
-0.17007887 0.19125625 0.20359768 0.251379 0.3309473 0.032180306 0.1661323 0.25559562
0.02739974 -0.08904077 0.07946226 -0.109661385 0.00015884687 0.108166225 -0.117196456 0.36669287
0.04252132 -0.27662972 0.16166063 -0.30769518 0.45139742 0.080455184 -0.12933749 -0.031176189
-0.0051917215 -0.16295797 -0.114560775 0.30474412 -0.06291375 -0.050947644 -0.34038132 0.123130724
-0.13642654 0.19177124 -0.086029336 -0.09857134 0.24598353 0.28233564 0.3367368 0.21962526
00000000: 0ff9 e2bd afe9 083e 85f7 e7bc 2454 4fbe
00000010: eba7 85be b577 93be 2601 72bd 9051 c1ba
00000020: 35c5 913e a342 05be 2f6e 32be 56fb f13e
00000030: 03df a43e 4b54 b93d b639 b9bd 68e8 fdbd
00000040: 4814 2fbe d8e4 3b3d 5162 cebc a6cb 483e
00000050: cdac 08bd 4b14 a83e a5c2 883e 772f c93d
00000060: d02a 463b c29e 773c c04a b33e 7d2f 323d
00000070: 9fee d93d f7a1 95be 17de 253e 4790 a5be
00000080: 4459 b0bc 53fb 8a3e 8f70 8c3d 6bdf 953e
00000090: 201a 88be 0a4b a93e 73d6 b63e 31a9 d93e
000000a0: 6fc9 573e dc66 96be a15e ad3e 23a8 2dbe
000000b0: caa5 acbe fa1d 513e 9642 aebe f5e2 9bbe
000000c0: a398 96bd 6743 3ebe a8ef 87be 8643 9b3d
000000d0: 29cc 213e 81ef a3be fa94 0fbe 5daa 3c3e
000000e0: 6b40 f63c e841 49be c9dd 32bc 1276 3abe
000000f0: e557 723d e2c0 91be 63ca 9ebd 2485 833e
00000100: 0e74 1a3c 1262 73be f78c abbe e657 3cbe
00000110: 4362 a5be f53b a4bd 1d7a 9d3e 070a c6bd
00000120: d9ce 443e 1fdd 9a3e bb41 4a3d 963d 50be
00000130: 6d6f cfbd cc1a 613e 1b4b a23e 7810 b23e
00000140: f3a1 633e 838e db3d 0b91 d53d ad61 5e3e
00000150: c639 8cbe 2ad8 81be 71b7 333e 2ed5 c2bc
00000160: 5718 5e3e cc8a 25bd 96c2 33be 6438 90be
00000170: 94f2 0d3d 3df5 10be e883 5ebe 23da bcbc
00000180: 98c9 a83e fd63 03be d015 67be ac6c 26be
00000190: a5f4 90be 3e2c 8d3e 6922 f03e 8c26 073c
000001a0: 696e 093e 3cd3 623d d5b8 7cbe 11ea 953e
000001b0: 03be 57be ee6d 9abe 4801 cf3e f793 f63e
000001c0: 873b df3d 3e3d 813c efe6 3cbe a11a 533e
000001d0: cb21 97be cdf6 98be c04c 9b3e 71b8 d53e
000001e0: 9bcb 173e 97d7 55be f6c8 b7ba af2a bd3d
000001f0: aefa 98bd 9696 7f3d 2ee4 53be 3d09 62be
00000200: b8de 8cbe c22d 873c 8ad9 8dbd e959 7cbd
00000210: a613 56be 1f7f 07be 73c5 e2bb ddaa babd
00000220: 47f8 033d e7b5 d3be 3d26 8abe 31bb 863e
00000230: 31da ca3d a619 5fbe 5da4 5ebd ce0a a23e
00000240: 77d9 c73d 8aa5 52be ca07 d23c a9af 3d3d
00000250: c59b 9b3d e30f 4bbe 4e30 ddbd 943a 6abe
00000260: e350 7ebe ed1b 553e 3e0c 9c3e 004a e43d
00000270: 5b57 9d3d 9c19 293e bb9a b63e f40d 3dbe
00000280: b505 98be c1c1 81be 16de 83be 8ef6 ab3c
00000290: f65e 43be c732 d1be 832e ea3d b8fd 913e
000002a0: 92bf 5dbe 86f3 843e 604d e9bd 242b 4dbe
000002b0: 96fe b53e c8d7 593e 149b 3e3e b339 173e
000002c0: 4150 d93d 1cad 553e a325 aabe 7d6d 813e
000002d0: 13bc bebd 042a 9e3e cab1 cf3c 8940 bcbe
000002e0: ddee 873e c9dd 87bd ebac 0fbd cfde 803d
000002f0: 1caa 3fbd c1fc 31be 8eea 2e3e 972e babd
00000300: e0ac dd3e 1d10 fc3d 5334 fabd 859c a43d
00000310: 95a5 aebd 02d1 933e a3bf 913e 4881 98be
00000320: c209 a3be 7328 00be de77 a83e 6433 ec3d
00000330: 4cee d1bd 6b01 743e 6144 31be 1726 953e
00000340: b506 1b3e 0a1e afbd f4cb 613e e4aa 48be
00000350: a371 453e c32b 993e 068e 80be 92ff 9fbd
00000360: 2829 2ebe aed8 433e e97b 503e c0b4 803e
00000370: ed71 a93e 7fcf 033d 961e 2a3e 6edd 823e
00000380: 6b75 e03c 025b b6bd 1cbd a23d 2696 e0bd
00000390: 2290 2639 4186 dd3d b204 f0bd 2bbf bb3e
000003a0: d62a 2e3d 69a2 8dbe 5d8a 253e 398a 9dbe
000003b0: 901d e73e b0c5 a43d 0c71 04be 3565 ffbc
000003c0: 511f aabb 74de 26be d79e eabd 6c07 9c3e
000003d0: edd8 80bd 7aae 50bd 7646 aebe f62b fc3d
000003e0: 66b3 0bbe ae5f 443e 2630 b0bd c5df c9bd
000003f0: 1be3 7b3e 4c8e 903e c468 ac3e 72e5 603e

fc2.bias f4 [64]
0.24749377 0.30920961 -0.2552104 0.1979653 0.12840137 0.25203675 -0.29272583 0.32680747
0.071534045 -0.07063317 0.1284155 -0.1670751 0.23636784 -0.26193395 0.14094424 0.26222652
0.07100851 0.105426334 -0.1751346 0.0067187333 0.16306844 0.30069268 -0.2001483 0.27997857
-0.19680572 0.16354309 0.18158333 0.05982422 0.09304663 -0.14062534 0.32047644 -0.3251415
0.30302384 0.265489 -0.2815575 -0.14565481 -0.18362528 0.22714655 0.14231355 0.1756177
0.27995184 -0.043416522 0.18813524 0.2614108 0.0110866 0.042885873 0.34792545 -0.19360572
-0.060441155 -0.3130017 0.26332378 -0.26732498 0.08781378 -0.16386378 -0.14416084 0.06739841
0.26341876 0.022202473 -0.018191168 0.2913539 0.24789742 0.04022692 -0.21665467 -0.065410785
00000000: 026f 7d3e b950 9e3e f0aa 82be 6ab7 4a3e
00000010: a67b 033e f60a 813e 29e0 95be 4f53 a73e
00000020: 7180 923d 20a8 90bd 5a7f 033e bc15 2bbe
00000030: 690a 723e 351c 86be b053 103e 8e42 863e
00000040: e96c 913d c3e9 d73d 7c56 33be d228 dc3b
00000050: 6afb 263e 64f4 993e adf3 4cbe 5a59 8f3e
00000060: 7087 49be d777 273e fbf0 393e 3e0a 753d
00000070: 3b8f be3d 1700 10be 7d15 a43e f278 a6be
00000080: f125 9b3e 2dee 873e 4e28 90be 8926 15be
00000090: 4408 3cbe 1b99 683e a5ba 113e 20d5 333e
000000a0: d955 8f3e 86d5 31bd 86a6 403e a3d7 853e
000000b0: 92a4 353c 19a9 2f3d 4923 b23e 9440 46be
000000c0: 2591 77bd c241 a0be 60d2 863e d2de 88be
000000d0: b6d7 b33d e8cb 27be e69e 13be 2d08 8a3d
000000e0: d3de 863e f6e1 b53c a505 95bc 572c 953e
000000f0: d2d8 7d3e fcc4 243d b9da 5dbe 17f6 85bd

embedding.weight f4 [2, 64]
-0.9013137 -1.3447607 2.25638 1.3594899 1.2188596 -0.66252244 1.2372851 -0.07378977
-0.51306415 -2.7026026 -0.10194162 0.58484286 0.6510369 1.0181694 2.3761163 -1.365196
-0.96063536 -0.55866104 1.2446419 -0.58141375 -1.2564063 0.56625503 0.4162545 -0.9949193
1.5332489 1.148321 -0.6164647 -0.4040404 -0.17218675 1.1013706 0.033854835 0.52832824
-0.2829283 -0.6952817 1.9796302 -1.2284409 -2.0885727 1.35994 -2.1399126 0.016115015
-1.909243 -1.300545 0.7713873 0.153448 -0.5883018 -0.28363407 1.0795074 0.41438615
-0.39550087 0.45232195 -1.6806581 0.33239055 -2.0099988 -1.2641494 1.194606 0.20946397
0.4296487 -1.4223984 -0.87107456 -0.052069157 -0.21097715 -2.497307 -2.0985487 1.636473
-0.46955654 1.0437934 -1.1532764 -1.5839784 -0.83843315 -0.6666456 0.84762585 -1.0189207
-0.1616651 0.89666116 -2.5298626 -2.0378299 0.5748082 1.297877 -0.115690105 -0.2531717
0.2135529 -0.22513036 0.69809234 -1.7500796 -0.17616858 -0.7511285 0.7253274 1.1355181
-0.10950441 1.6750834 -0.26540974 -0.25760463 -0.1300021 1.8694187 1.7410885 0.18707556
0.056335513 -1.8974907 0.68565625 0.38905698 0.16393127 0.24896188 -0.26506543 0.4447024
-0.3990065 0.9291381 1.337012 1.0144713 1.4755186 0.36852384 1.2568637 0.7773879
-1.8590372 -0.43717432 2.1077867 -2.4941947 -1.898666 1.838745 -0.42099673 0.41663536
0.8869314 0.72122955 -0.6154612 -0.44695988 -1.2543782 -1.0058763 1.6419563 0.07028046
00000000: 7fbc 66bf 1e21 acbf 8868 1040 c403 ae3f
00000010: 9703 9c3f 129b 29bf 5c5f 9e3f 171f 97bd
00000020: 2c58 03bf 71f7 2cc0 c5c6 d0bd 43b8 153f
00000030: 5baa 263f 6053 823f 4a12 1840 bebe aebf
00000040: 33ec 75bf 6904 0fbf 6d50 9f3f 88d7 14bf
00000050: ecd1 a0bf 17f6 103f 4f1f d53e 08b3 7ebf
00000060: 8041 c43f 2ffc 923f a1d0 1dbf 62de cebe
00000070: b951 30be b6f9 8c3f 5eab 0a3d 8540 073f
00000080: fadb 90be fbfd 31bf 8664 fd3f 8d3d 9dbf
00000090: 2dab 05c0 8412 ae3f 54f4 08c0 a303 843c
000000a0: 1362 f4bf 4278 a6bf a379 453f 7921 1d3e
000000b0: f29a 16bf 7c38 91be 4c2d 8a3f 6c2a d43e
000000c0: 177f cabe be96 e73e ce1f d7bf 182f aa3e
000000d0: d2a3 00c0 a6cf a1bf d9e8 983f b97d 563e
000000e0: eafa db3e 2711 b6bf befe 5ebf 7846 55bd
000000f0: 650a 58be e1d3 1fc0 9f4e 06c0 f277 d13f
00000100: b769 f0be 069b 853f 909e 93bf cebf cabf
00000110: 8ea3 56bf 49a9 2abf 02fe 583f fe6b 82bf
00000120: 898b 25be 968b 653f 45e9 21c0 ce6b 02c0
00000130: a126 133f d520 a63f efee ecbd b99f 81be
00000140: 9dad 5a3e 9388 66be 2eb6 323f 9c02 e0bf
00000150: 8965 34be f549 40bf 0eaf 393f a858 913f
00000160: d943 e0bd 2269 d63f c9e3 87be c1e4 83be
00000170: 451f 05be 1d49 ef3f fddb de3f bc90 3f3e
00000180: 11c0 663d fae0 f2bf 2b87 2f3f 7a32 c73e
00000190: 99dd 273e ddef 7e3e a8b6 87be 08b0 e33e
000001a0: 944a ccbe ffdb 6d3f 3623 ab3f 32da 813f
000001b0: cbdd bc3f 28af bc3e e9e0 a03f e502 473f
000001c0: eef4 edbf 50d5 dfbe fae5 0640 e3a0 1fc0
000001d0: 7d07 f3bf ff5b eb3f e28c d7be 3b51 d53e
000001e0: f00d 633f 80a2 383f dd8e 1dbf edd7 e4be
000001f0: 778f a0bf 8ec0 80bf a02b d23f 34ef 8f3d

adaLN_modulation.1.weight f4 [128, 64]
0.11494167 0.10880373 -0.09874876 0.001408352 -0.109533146 0.088157214 0.06552704 0.12808166
-0.002173198 -0.08421985 0.09467213 0.06325726 -0.04752818 0.040493 -0.10602366 0.075721934
0.011487944 -0.0077131726 0.1171622 0.0057510133 0.037046384 -0.06622983 -0.03271212 0.027418397
-0.12523334 -0.037704293 0.032861702 0.06945412 0.10366746 0.007127258 0.055933543 0.06675073
-0.1183516 0.04427602 -0.036007136 -0.060351603 0.0722914 -0.057445653 -0.03794151 -0.054299697
-0.06396697 -0.04724106 0.13156074 0.056110267 0.054052413 0.02100775 0.010339765 -0.050244126
-0.009060628 0.03701409 -0.05473486 0.0072874716 -0.01720594 0.049996763 -0.002223347 -0.05028527
-0.0037758832 0.027416121 -0.020477897 -0.053007152 -0.019112118 -0.049395345 -0.09182079 0.017468743
0.09988401 0.09201227 -0.039883558 -0.106362455 -0.059029475 0.108829655 -0.011294946 0.073223904
0.10472627 -0.11228881 -0.084148705 -0.033510692 0.083532885 -0.095921375 -0.06927654 0.052597214
0.086300835 0.061297353 -0.038008593 0.09001049 0.026295917 -0.13296375 0.011087687 -0.11884319
0.060525633 -0.039705396 -0.12677181 0.10560506 0.11948196 0.03752581 0.0028882104 0.07739609
0.088696316 -0.072103664 -0.03392268 -0.09882492 0.025899976 0.046099126 -0.05187366 0.0008541224
-0.07738434 -0.018244952 0.10251214 -0.06099629 -0.0065207 0.0071536084 -0.031483933 0.05028555
0.007598318 0.13519886 -0.073760845 -0.03270587 -0.060369857 -0.120855965 -0.07520621 0.08360201
-0.11641003 -0.10299729 0.06498206 0.005611169 -0.061316386 -0.08348521 0.010666552 0.0024274695
-0.0013244691 0.034076046 0.0039771087 0.009105977 -0.0660298 0.05917755 0.07950392 -0.01008693
-0.030206783 -0.0066967686 -0.05141798 -0.09002514 -0.063784964 0.08614992 0.106612906 0.07573739
0.02131528 0.061426025 -0.03141325 0.05510211 -0.064454705 0.017165093 0.07758084 0.057898585
0.03827377 0.034750987 -0.038702708 -0.056150783 -0.091913156 -0.09135339 -0.009990732 -0.022591041
-0.028259177 0.096210055 -0.07526193 -0.020565389 -0.030543312 -0.11284983 0.06756154 -0.0840488
-0.11327737 0.023292916 -0.056664057 0.11121964 -0.08250175 -0.082347006 -0.017871678 -0.04559091
0.10108269 0.009946394 -0.0842038 0.08817462 -0.07623795 0.054139495 -0.02768892 -0.010747041
-0.0098464 -0.006962867 -0.10691378 -0.08665943 -0.059722602 0.08911069 0.10562451 -0.03013569
-0.0033110515 -0.10521421 0.028160298 -0.0019118513 -0.018315863 0.07279908 -0.017033758 0.066682726
-0.07017484 0.03147394 0.036404107 0.07736889 -0.074656166 0.044136092 0.0867223 -0.1513123
0.014088516 0.016868902 -0.016732845 -0.12790683 -0.021777099 -0.070261665 0.09091307 0.062029265
0.09060324 -0.07655633 0.0885328 0.038969535 0.039096702 -0.040874355 0.010782444 0.06354176
0.013369536 0.014265609 0.02883005 -0.11053987 -0.009612495 0.07082404 -0.07532158 -0.08972171
-0.010768929 -0.059683595 -0.10113963 -0.06439093 -0.0984887 -0.08062181 0.0051469416 0.011293307
-0.0639994 -0.03780865 0.08137001 -0.07964545 -0.025417913 0.041546974 0.024421021 0.08571128
0.03999257 -0.0066662724 -0.049480297 0.016870504 0.10245642 0.039215058 -0.03426757 -0.06776268
00000000: 8a66 eb3d 7dd4 de3d ca3c cabd 7498 b83a
00000010: ea52 e0bd c58b b43d 0a33 863d d727 033e
00000020: 366c 0ebb 757b acbd 76e3 c13d 068d 813d
00000030: e9ac 42bd fddb 253d ef22 d9bd 1a14 9b3d
00000040: ee37 3c3c c8be fcbb bcf2 ef3d ff72 bc3b
00000050: f3bd 173d 81a3 87bd 25fd 05bd 8c9c e03c
00000060: 2b3d 00be d16f 1abd fe99 063d f63d 8e3d
00000070: 9b4f d43d c68b e93b 921a 653d 9bb4 883d
00000080: 5362 f2bd c65a 353d 387c 13bd 3e33 77bd
00000090: 830d 943d 224c 6bbd 8f68 1bbd 5c69 5ebd
000000a0: 1d01 83bd d77f 41bd dcb7 063e e1d3 653d
000000b0: 1066 5d3d 7218 ac3c 1e68 293c c9cc 4dbd
000000c0: 0773 14bc 169c 173d a931 60bd becb ee3b
000000d0: 79f3 8cbc 68c9 4c3d 93b5 11bb edf7 4dbd
000000e0: cf74 77bb c697 e03c 43c1 a7bc 071e 59bd
000000f0: 0491 9cbc c652 4abd 8a0c bcbd 9c1a 8f3c
00000100: fd8f cc3d ee70 bc3d f15c 23bd 8fd4 d9bd
00000110: e4c8 71bd 15e2 de3d 700e 39bc 6af6 953d
00000120: ba7a d63d adf7 e5bd 2856 acbd 8242 09bd
00000130: 4a13 ab3d 6d72 c4bd dce0 8dbd 2d70 573d
00000140: 7ebe b03d ef12 7b3d e6ae 1bbd 6b57 b83d
00000150: 896a d73c a627 08be 21a9 353c 0f64 f3bd
00000160: bae9 773d 20a2 22bd 78d0 01be 7747 d83d
00000170: f5b2 f43d aab4 193d 2148 3d3b d781 9e3d
00000180: 6aa6 b53d 16ab 93bd 82f2 0abd b864 cabd
00000190: 302c d43c 70d2 3c3d 7a79 54bd 2fe7 5f3a
000001a0: ae7b 9ebd 7076 95bc e3f1 d13d 3fd7 79bd
000001b0: 99ab d5bb d168 ea3b 4cf5 00bd 39f8 4d3d
000001c0: 50fb f83b 9271 0a3e ed0f 97bd 97f6 05bd
000001d0: 6246 77bd 5583 f7bd b705 9abd 8837 ab3d
000001e0: 6268 eebd 3ef0 d2bd 5015 853d e6dd b73b
000001f0: e426 7bbd 4bfa aabd c3c2 2e3c 2e16 1f3b
00000200: cf99 adba 5393 0b3d 6852 823b 3c31 153c
00000210: a23a 87bd 2964 723d f4d2 a23d a743 25bc
00000220: 3774 f7bc 9170 dbbb a99b 52bd 1a5f b8bd
00000230: b1a1 82bd 5f6f b03d de57 da3d 341c 9b3d
00000240: 629d ae3c db99 7b3d 2eab 00bd c0b2 613d
00000250: d400 84bd cf9d 8c3c b4e2 9e3d 1127 6d3d
00000260: f5c4 1c3d 0d57 0e3d bb86 1ebd 5dfe 65bd
00000270: f73c bcbd 7c17 bbbd 2bb0 23bc d910 b9bc
00000280: ca7f e7bc c709 c53d ed22 9abd bf78 a8bc
00000290: f835 fabc d01d e7bd b45d 8a3d c721 acbd
000002a0: f7fd e7bd c9d0 be3c 9218 68bd 1fc7 e33d
000002b0: adf6 a8bd 8ca5 a8bd a067 92bc 89bd 3abd
000002c0: 7104 cf3d 33f6 223c 0b73 acbd e594 b43d
000002d0: a422 9cbd 60c1 5d3d e0d3 e2bc 5b14 30bc
000002e0: cb52 21bc c328 e4bb 9df5 dabd 807a b1bd
000002f0: b09f 74bd aa7f b63d aa51 d83d 1fdf f6bc
00000300: 3afe 58bb 8c7a d7bd 6db0 e63c 1697 faba
00000310: 260b 96bc af17 953d 618a 8bbc f490 883d
00000320: d4b7 8fbd d1ea 003d 791c 153d 9573 9e3d
00000330: 55e5 98bd 0cc8 343d 769b b13d 9df1 1abe
00000340: 85d3 663c a730 8a3c 5213 89bc 02fa 02be
00000350: e365 b2bc 59e5 8fbd a230 ba3d 6612 7e3d
00000360: 318e b93d 91c9 9cbd af50 b53d 859e 1f3d
00000370: dd23 203d de6b 27bd d9a8 303c 2f22 823d
00000380: e60b 5b3c 4dba 693c ff2c ec3c ba62 e2bd
00000390: ba7d 1dbc 320c 913d 3342 9abd 04c0 b7bd
000003a0: 2970 30bc c976 74bd 4b22 cfbd 64df 83bd
000003b0: 72b4 c9bd 0c1d a5bd ada7 a83b 9007 393c
000003c0: 1e12 83bd 3edd 1abd 52a5 a63d 271d a3bd
000003d0: 3a39 d0bc 292d 2a3d 980e c83c 6589 af3d
000003e0: 40cf 233d bf70 dabb daab 4abd 0334 8a3c
000003f0: acd4 d13d f89f 203d 275c 0cbd 29c7 8abd

adaLN_modulation.1.bias f4 [128]
-0.06689516 0.05693624 -0.016163986 0.017500736 -0.09974097 -0.095272526 -0.05882052 -0.024032682
-0.074904755 -0.042993575 0.06695023 0.13613509 0.10114324 0.037841596 -0.012042677 -0.123614915
0.11449237 -0.023747573 -0.14284708 0.0031558904 0.04229679 -0.008437325 -0.026183475 -0.015730765
-0.11145469 -0.11720479 0.12564822 -0.08108167 0.077085696 -0.08410217 0.08945222 0.043807473
-0.11639736 -0.059017383 -0.10374821 0.013593732 -0.031886123 0.07677468 0.009749539 0.05128795
0.090547204 0.11132812 0.12062985 -0.09942073 -0.024921006 -0.030371716 0.07278512 0.10026806
0.084877 -0.057764214 -0.12700234 0.05995617 0.04380181 -0.0675543 0.10844264 -0.02551057
0.011334898 -0.07953029 0.017385002 -0.014262338 -0.020055315 -0.05277491 -0.004356208 0.009369215
0.09293718 0.09728562 -0.040904738 0.091299914 -0.06027872 -0.05130833 0.12327874 -0.15099442
-0.14102577 -0.13060166 -0.017213337 -0.09414202 0.008259836 0.039319023 -0.031116819 0.05160193
0.056226417 0.06783466 0.050015323 0.076051675 0.020826906 0.10295008 -0.06287835 -0.007550938
-0.13030693 -0.13338254 -0.05511531 -0.11858861 -0.103288144 -0.05762375 -0.0028267158 -0.08718354
-0.06344964 0.038300984 0.105989665 -0.022111641 -0.015951386 -0.073421806 0.03639017 0.018372746
0.038683098 0.04859519 -0.025104776 -0.11099516 0.042348202 -0.12808014 -0.03556128 -0.056528807
-0.024150645 -0.019246198 -0.04885154 0.06515743 0.019239709 -0.06726748 0.013485754 0.022571359
0.03737545 0.09142055 0.09567452 -0.098244 0.06845557 -0.015916629 -0.10783785 0.1370661
00000000: 5400 89bd fa35 693d 566a 84bc b45d 8f3c
00000010: fe44 ccbd 3e1e c3bd c9ed 70bd 30e0 c4bc
00000020: aa67 99bd 081a 30bd 341d 893d ff66 0b3e
00000030: 3024 cf3d caff 1a3d a64e 45bc d129 fdbd
00000040: fa7a ea3d 458a c2bc 8146 12be 0ed3 4e3b
00000050: 663f 2d3d b53c 0abc ba7e d6bc cedd 80bc
00000060: 5b42 e4bd 1109 f0bd eda9 003e 260e a6bd
00000070: 1bdf 9d3d c23d acbd ba32 b73d 776f 333d
00000080: bd61 eebd 36bc 71bd f179 d4bd 3fb8 5e3c
00000090: 069b 02bd 0b3c 9d3d 88bc 1f3c 5013 523d
000000a0: d070 b93d ffff e33d c80c f73d 189d cbbd
000000b0: 2327 ccbc 1bce f8bc 5d10 953d 5759 cd3d
000000c0: fed3 ad3d 2b9a 6cbd e70c 02be 9a94 753d
000000d0: 8769 333d e959 8abd 2d17 de3d 8bfb d0bc
000000e0: 02b6 393c c7e0 a2bd fe6a 8e3c 95ac 69bc
000000f0: 0b4b a4bc 812a 58bd 85be 8ebb 5681 193c
00000100: d955 be3d af3d c73d ba8b 27bd 73fb ba3d
00000110: d2e6 76bd af28 52bd 9079 fc3d 489e 1abe
00000120: 0f69 10be 71bc 05be fc02 8dbc 88cd c0bd
00000130: 4354 073c fc0c 213d b3e8 febc 8c5c 533d
00000140: ac4d 663d e6ec 8a3d dedc 4c3d fbc0 9b3d
00000150: 309d aa3c 7ed7 d23d 5dc6 80bd dc6d f7bb
00000160: 2e6f 05be 6f95 08be 97c0 61bd 96de f2bd
00000170: bc88 d3bd e206 6cbd 6c40 39bb 498d b2bd
00000180: e3f1 81bd 7ee1 1c3d 1c11 d93d 7923 b5bc
00000190: 7bac 82bc 2c5e 96bd dc0d 153d 7182 963c
000001a0: 2b72 1e3d c00b 473d 88a8 cdbc 6e51 e3bd
000001b0: 4f75 2d3d 7127 03be b4a8 11bd c08a 67bd
000001c0: 93d7 c5bc 34aa 9dbc 8d18 48bd 4271 853d
000001d0: 989c 9d3c 88c3 89bd 5af3 5c3c 92e7 b83c
000001e0: 0017 193d b33a bb3d 01f1 c33d 2634 c9bd
000001f0: 6f32 8c3d 9763 82bc 17da dcbd 0e5b 0c3e

advantage.0.weight f4 [256, 64]
0.086599536 -0.11114145 0.031607445 0.024692811 0.09638186 -0.123887576 -0.029834192 -0.010363154
0.03454088 0.019552236 -0.124187395 -0.100605525 -0.0739411 -0.061313216 -0.050426178 0.02306993
-0.017141592 0.11289013 -0.023495547 -0.1244449 0.12791485 0.16619708 -0.07377778 0.04250026
-0.039879516 0.0111711165 0.051463634 0.09354531 -0.097698346 0.0657065 0.0021308379 -0.0081861885
0.13046518 -0.00071232166 -0.12922476 0.021379663 0.11755557 0.00320288 -0.09728742 0.11224222
0.11786349 0.050988983 0.0961175 -0.11763098 -0.014000422 -0.042674012 -0.010830121 -0.09943283
0.09036619 -0.008779549 -0.0073142443 0.016235894 0.0833756 0.10684066 0.04768089 -0.09299441
-0.052658208 0.17636725 0.083123 -0.06425564 0.057064176 0.0070184637 -0.0822506 -0.096245274
-0.0028069702 0.064110965 -0.10061469 -0.055630606 -0.08423861 0.11272671 -0.09348128 -0.08730079
0.070239425 -0.037581973 0.08116465 0.14043531 0.029162774 -0.028790072 -0.01949324 -0.0138127655
0.08800725 0.09100574 0.12452404 0.11416604 0.048226822 -0.1382189 0.086521275 -0.08143743
0.0525737 0.10982344 -0.13414049 -0.0733857 0.06650928 -0.041862063 -0.07226448 0.019630415
-0.025988055 -0.09879756 0.03243757 -0.09532872 0.11112577 0.019733362 0.072390355 -0.03435832
-0.08490547 -0.10629277 -0.12913299 -0.08122324 -0.023840073 0.042365097 -0.029105196 0.03840682
-0.104839586 0.05600504 0.003923884 0.0291235 0.001704424 0.070845544 -0.074114755 0.05621298
0.022730805 -0.03848132 0.019432247 -0.07363229 -0.04988329 0.043597877 -0.09188275 -0.11187184
0.03367979 0.019087037 0.10775766 -0.08661319 0.019236725 0.10837176 -0.08593267 0.025993563
-0.10310551 -0.09320541 0.10144112 -0.054541994 -0.13708717 -0.055413645 -0.12587093 0.13282779
-0.100614704 0.05215303 0.069681466 -0.10364943 0.04224187 0.0013469855 0.022593567 -0.0013450526
-0.068560705 0.051862173 -0.017648807 0.0297446 0.123336375 0.11737396 0.016428838 -0.10111899
-0.040432274 0.067349546 -0.05455704 -0.018292187 -0.1067674 -0.09770026 0.095168166 0.11363791
0.035162378 -0.029623592 -0.13363163 -0.11379215 -0.066229306 0.12033287 -0.10758029 0.06312504
0.04616547 -0.08926478 -0.06829995 -0.052635487 0.044334114 -0.06334155 -0.028824396 0.11961306
0.111213446 -0.07010518 -0.016028559 0.07613475 0.13103841 -0.09986978 -0.11661436 0.029342402
-0.061989766 0.085729614 -0.0050442135 0.08061487 0.018191941 0.032119688 -0.09747055 0.094313465
0.008570005 0.048085812 0.1080887 -0.036465388 -0.036619652 0.03075015 -0.10401213 -0.09669192
-0.048977196 -0.03857781 -0.11078887 -0.049262974 -0.085025445 0.08436191 0.053596605 -0.101874314
0.08357587 0.122124024 -0.026977276 -0.09001692 0.021888169 0.123155 -0.12225316 -0.0031908096
-0.04094109 -0.09219258 -0.036914308 -0.00586949 -0.005641064 -0.037677284 -0.07249275 0.0962612
-0.035264548 -0.045106847 0.019449053 -0.04415477 -0.092512295 -0.13066375 0.10792495 0.10167194
0.062247142 -0.08147764 -0.004399441 -0.08717433 -0.040175933 0.124760814 0.06657437 -0.092971
-0.022600586 -0.07229049 -0.08657751 -0.052968927 0.08092185 0.024439055 0.12312111 0.013769963
00000000: 195b b13d 219e e3bd cf76 013d 9448 ca3c
00000010: da63 c53d c5b8 fdbd d666 f4bc 38ca 29bc
00000020: bd7a 0d3d 032c a03c f655 febd 450a cebd
00000030: 6e6e 97bd 9123 7bbd ae8b 4ebd 26fd bc3c
00000040: 866c 8cbc f132 e73d bc79 c0bc f8dc febd
00000050: 1cfc 023e 912f 2a3e ce18 97bd c114 2e3d
00000060: b458 23bd 0f07 373c 88cb 523d af94 bf3d
00000070: 1216 c8bd 2191 863d 87a5 0b3b 5d1f 06bc
00000080: aa98 053e 19bb 3aba 7f53 04be 6724 af3c
00000090: fac0 f03d 69e7 513b a03e c7bd 40df e53d
000000a0: 6a62 f13d d3d9 503d 40d9 c43d 83e8 f0bd
000000b0: 0762 65bc f2ca 2ebd d270 31bc 71a3 cbbd
000000c0: e911 b93d 19d8 0fbc 54ac efbb 2301 853c
000000d0: d4c0 aa3d 47cf da3d 094d 433d da73 bebd
000000e0: 22b0 57bd 9e99 343e 643c aa3d 7698 83bd
000000f0: 20bc 693d 24fb e53b 0173 a8bd 3e1c c5bd
00000100: 25f5 37bb 9c4c 833d 130f cebd ebdc 63bd
00000110: 4b85 acbd 43dd e63d 1d73 bfbd c2ca b2bd
00000120: b0d9 8f3d 8eef 19bd a739 a63d 46ce 0f3e
00000130: c5e6 ee3c 28d9 ebbc 4ab0 9fbc f04e 62bc
00000140: 253d b43d 3861 ba3d 7606 ff3d e3cf e93d
00000150: 7d89 453d 4189 0dbe 1132 b13d abc8 a6bd
00000160: 8557 573d 1deb e03d 205c 09be 3e4b 96bd
00000170: 0436 883d 8e77 2bbd 66ff 93bd f7cf a03c
00000180: e7e4 d4bc 6056 cabd 42dd 043d b43b c3bd
00000190: e895 e33d dca7 a13c 6541 943d 4fbb 0cbd
000001a0: ebe2 adbd 06b0 d9bd 703b 04be 5f58 a6bd
000001b0: 424c c3bc 0687 2d3d 056e eebc 7850 1d3d
000001c0: 23b6 d6bd 8a65 653d ed93 803b 6894 ee3c
000001d0: fb66 df3a 7817 913d 7ac9 97bd 953f 663d
000001e0: f435 ba3c 979e 1dbd 6030 9f3c 87cc 96bd
000001f0: 6c52 4cbd b093 323d 062d bcbd 101d e5bd
00000200: d2f3 093d 6b5c 9c3c 0cb0 dc3d 4262 b1bd
00000210: 5696 9d3c 03f2 dd3d 78fd afbd 74f0 d43c
00000220: fb28 d3bd 7ae2 bebd 5dc0 cf3d 6d67 5fbd
00000230: 9460 0cbe 6bf9 62bd 4fe4 00be 0204 083e
00000240: 150f cebd 6a9e 553d 28b5 8e3d 2746 d4bd
00000250: d005 2d3d 558d b03a 2516 b93c 7a4c b0ba
00000260: 8e69 8cbd 6e6d 543d 3b94 90bc f3aa f33c
00000270: c897 fc3d c261 f03d c595 863c 7917 cfbd
00000280: 509c 25bd 8fee 893d 3477 5fbd 7fd9 95bc
00000290: dea8 dabd 1317 c8bd 87e7 c23d feba e83d
000002a0: 6d06 103d 2dad f2bc bbd6 08be dc0b e9bd
000002b0: 3ba3 87bd 1471 f63d 0e53 dcbd b347 813d
000002c0: 0118 3d3d 74d0 b6bd d8e0 8bbd 4f98 57bd
000002d0: b097 353d 37b9 81bd 2421 ecbc b1f7 f43d
000002e0: e0c3 e33d 4e93 8fbd 534e 83bc 89ec 9b3d
000002f0: ef2e 063e 8788 ccbd 82d3 eebd 7a5f f03c
00000300: fbe8 7dbd 0293 af3d ee49 a5bb 6919 a53d
00000310: 4407 953c ef8f 033d a49e c7bd 6b27 c13d
00000320: 3569 0c3c a1f5 443d 9c5d dd3d bb5c 15bd
00000330: 7dfe 15bd bde7 fb3c 5004 d5bd 6a06 c6bd
00000340: 509c 48bd c403 1ebd 46e5 e2bd f9c7 49bd
00000350: d221 aebd f0c5 ac3d 1d88 5b3d 7ba3 d0bd
00000360: d329 ab3d 291c fa3d 73ff dcbc ca5a b8bd
00000370: d14e b33c b038 fc3d dd5f fabd e71c 51bb
00000380: d8b1 27bd 77cf bcbd 7533 17bd da54 c0bb
00000390: add8 b8bb 7f53 1abd 1477 94bd 9824 c53d
000003a0: 8f71 10bd f5c1 38bd 9f53 9f3c a2db 34bd
000003b0: 1677 bdbd b8cc 05be c207 dd3d 6139 d03d
000003c0: dcf6 7e3d c0dd a6bd 3029 90bb 7588 b2bd
000003d0: 858f 24bd 9982 ff3d 2558 883d 9467 bebd
000003e0: dd24 b9bc 090d 94bd 8d4f b1bd f2f5 58bd
000003f0: 5bba a53d 6a34 c83c ec26 fc3d 699b 613c

advantage.0.bias f4 [256]
0.05357816 0.10201045 0.09382955 0.04501071 0.037079833 -0.13683707 -0.09489401 -0.1263522
-0.0043348684 -0.025200095 0.08115839 -0.07809401 -0.050320677 0.010924395 0.10731175 0.025067182
-0.1404265 0.08786855 -0.07743267 0.04427493 -0.113046005 0.11631701 -0.033821993 0.08634097
-0.049234167 0.027681448 -0.0006249646 0.018771254 0.08096279 -0.049051814 -0.027191678 0.040016796
-0.08952427 0.057748485 -0.10793394 -0.043178342 0.0828773 -0.042282894 -0.004944959 0.09847965
-0.010670231 0.0841781 0.04918867 -0.05066514 0.0029444376 -0.07029652 0.04511673 -0.07506126
0.020358272 -0.0525291 -0.079110816 0.05042869 0.067887336 0.09601249 -0.05849733 -0.08606855
0.08121252 -0.07888139 -0.06469782 -0.014042996 0.061231382 -0.1291187 0.003976806 -0.02329572
-0.034702152 -0.03923516 0.012340374 -0.1278736 0.10067623 0.043575544 -0.052633934 -0.11498232
0.031964038 0.049827926 0.10970402 -0.14146134 0.009032515 -0.10098899 -0.09713829 -0.13726395
0.0081594465 0.040787745 0.11190155 -0.033505913 -0.09235085 0.0031067063 0.024195798 0.103541255
-0.03100627 0.041405257 0.07039276 0.07134265 0.0043879254 -0.041453857 -0.054394074 0.026625643
0.1057822 -0.03202503 -0.06944755 -0.042667247 0.053226124 0.040256515 0.08691381 0.08362031
-0.13072708 -0.11000862 -0.03721248 -0.044590715 0.008175043 -0.07443302 0.06633239 -0.0031878166
-0.0020001505 -0.0010605154 -0.13493969 -0.038623888 -0.0634944 -0.046732336 -0.09114141 0.086115286
-0.015026855 0.0896306 -0.108610034 0.017558133 0.023756433 0.024952848 0.103449896 0.08598982
0.11611574 -0.0793416 0.039100844 -0.10561801 -0.014910345 0.10635858 -0.013548226 0.02145782
0.08667288 -0.119367026 0.055155184 0.016049484 -0.10662373 -0.016638255 -0.001262464 0.11007735
-0.03006591 0.09314198 0.089925796 0.07729388 -0.064926654 0.036241055 -0.12090761 -0.090454675
-0.026901238 0.073866434 0.09912526 -0.12065432 0.112560675 -0.016714694 -0.052195664 0.04381772
0.07468606 0.10567739 -0.11251734 0.05787173 -0.09672695 -0.00047358737 0.009112344 -0.061046075
0.07293271 0.07490662 0.05582683 0.040232327 -0.08338771 -0.11787579 0.10065216 -0.040905267
-0.11429753 0.05589304 -0.022538995 -0.06365705 -0.05415669 -0.10228441 0.02147514 -0.085448034
-0.023884315 -0.05829442 0.06326491 0.028523482 -0.11616151 -0.0012250236 -0.09994032 -0.119201995
-0.11366926 -0.10351719 0.083339244 0.061478388 -0.020584667 0.034423146 -0.082845345 0.031317975
-0.09650681 -0.0074435575 0.086382456 0.036730066 -0.002349488 0.084854595 0.01443807 -0.0143181225
0.03552286 0.04325377 0.010841738 -0.013217524 0.046831228 0.07137942 0.0052178646 -0.1440996
-0.00909185 -0.02915411 -0.07758098 -0.084217325 -0.11471687 0.09084817 -0.018240392 0.04759884
-0.0009450902 0.08247694 0.052334845 0.02575305 0.071796656 -0.009772637 0.104861796 -0.098680496
-0.061413217 0.019398462 -0.126196 -0.122150406 -0.05997969 0.014879057 -0.044213876 -0.13115688
0.01156192 0.0110348575 -0.10525476 -0.096045844 -0.10310082 -0.018105729 0.094506435 -0.03404074
0.12559749 0.06927722 -0.09480688 -0.0018998969 0.07241531 -0.11326891 0.015744628 0.039836068
00000000: c674 5b3d dbea d03d b529 c03d 265d 383d
00000010: 06e1 173d 041f 0cbe ca57 c2bd 7962 01be
00000020: 830b 8ebb 6e70 cebc 5f36 a63d c1ef 9fbd
00000030: 0e1d 4ebd 3cfc 323c 43c6 db3d b159 cd3c
00000040: f7cb 0fbe 6df4 b33d 0595 9ebd a159 353d
00000050: aa84 e7bd 9d37 ee3d ee88 0abd 89d3 b03d
00000060: c4a9 49bd 34c4 e23c aad4 23ba 2cc6 993c
00000070: d2cf a53d 8eea 48bd 15c1 debc a7e8 233d
00000080: 8058 b7bd ad89 6c3d 780c ddbd c6db 30bd
00000090: 93bb a93d d430 2dbd 5309 a2bb b3af c93d
000000a0: 31d2 2ebc 9165 ac3d 0f7a 493d 4086 4fbd
000000b0: 77f7 403b 9ff7 8fbd 52cc 383d b8b9 99bd
000000c0: 64c6 a63c c128 57bd da04 a2bd 508e 4e3d
000000d0: 8408 8b3d 32a2 c43d e59a 6fbd b544 b0bd
000000e0: c052 a63d 918c a1bd 4a80 84bd 9814 66bc
000000f0: c2cd 7a3d b137 04be de4f 823b aad6 bebc
00000100: d823 0ebd 0cb5 20bd 482f 4a3c 4cf1 02be
00000110: 572f ce3d 457c 323d ae96 57bd da7b ebbd
00000120: b9ec 023d 5e18 4c3d 80ac e03d 3edb 10be
00000130: 1dfd 133c 51d3 cebd 71f0 c6bd ec8e 0cbe
00000140: 33af 053c 0d11 273d a42c e53d 7f3d 09bd
00000150: 7122 bdbd e299 4b3b 4436 c63c 700d d43d
00000160: dc00 febc 8f98 293d 142a 903d 181c 923d
00000170: 96c8 8f3b 85cb 29bd 52cc 5ebd 051e da3c
00000180: 57a4 d83d ae2c 03bd 843a 8ebd dac3 2ebd
00000190: a303 5a3d 04e4 243d deff b13d 2041 ab3d
000001a0: 52dd 05be 334c e1bd 1d6c 18bd c1a4 36bd
000001b0: 9ef0 053c 5770 98bd 47d9 873d b0ea 50bb
000001c0: f514 03bb fe00 8bba a12d 0abe 1534 1ebd
000001d0: 5a09 82bd 686a 3fbd 59a8 babd 365d b03d
000001e0: 3333 76bc 3f90 b73d f06e debd 13d6 8f3c
000001f0: da9c c23c ea69 cc3c 8add d33d 6e1b b03d
00000200: 17ce ed3d d97d a2bd 3528 203d 414e d8bd
00000210: 854a 74bc 87d2 d93d 61f9 5dbc 4fc8 af3c
00000220: 8d81 b13d b376 f4bd 67ea 613d 357a 833c
00000230: 8b5d dabd f34c 88bc 4379 a5ba 3c70 e13d
00000240: c94c f6bc 39c1 be3d 042b b83d 414c 9e3d
00000250: 44f8 84bd 8071 143d 699e f7bd 4d40 b9bd
00000260: fc5f dcbc 4947 973d 2f02 cb3d 9d19 f7bd
00000270: 3686 e63d 41ed 88bc 1fcb 55bd 367a 333d
00000280: 01f5 983d 636d d83d 7e6f e6bd e80a 6d3d
00000290: c718 c6bd d24b f8b9 f14b 153c 730b 7abd
000002a0: bf5d 953d a468 993d adaa 643d a7ca 243d
000002b0: 2dc7 aabd dd68 f1bd b822 ce3d 488c 27bd
000002c0: d314 eabd 1af0 643d b3a3 b8bc a15e 82bd
000002d0: 68d3 5dbd 7d7a d1bd a2ec af3c 61ff aebd
000002e0: 0aa9 c3bc 21c6 6ebd 0891 813d 14aa e93c
000002f0: 16e6 edbd f990 a0ba 83ad ccbd 2d20 f4bd
00000300: 6ecb e8bd d200 d4bd c4ad aa3d c3d0 7b3d
00000310: 2da1 a8bc 49ff 0c3d d2aa a9bd 4747 003d
00000320: 5da5 c5bd 16e9 f3bb 49e9 b03d 4472 163d
00000330: def9 19bb 3fc8 ad3d a88d 6c3c 8f96 6abc
00000340: 6b80 113d dd2a 313d 8ca1 313c 508e 58bc
00000350: 1ad2 3f3d 602f 923d 9ffa aa3b d88e 13be
00000360: fcf5 14bc 9ad4 eebc c7e2 9ebd 227a acbd
00000370: aef0 eabd 9b0e ba3d e06c 95bc 00f7 423d
00000380: eebf 77ba abe9 a83d 105d 563d 0ff8 d23c
00000390: 200a 933d 691d 20bc c8c1 d63d 0019 cabd
000003a0: 6d8c 7bbd 86e9 9e3c 8639 01be fe29 fabd
000003b0: 43ad 75bd 4ac7 733c 9c19 35bd fd4d 06be
000003c0: 356e 3d3c 8ccb 343c cf8f d7bd afb3 c4bd
000003d0: 8626 d3bd 7752 94bc 978c c13d 4e6e 0bbd
000003e0: a19c 003e 37e1 8d3d 1c2a c2bd f605 f9ba
000003f0: 7a4e 943d 88f9 e7bd e1fa 803c 252b 233d

advantage.2.weight f4 [2, 256]
0.03946786 -0.00911125 0.03057949 0.047436584 -0.02177013 -0.028087644 0.04060062 -0.034242682
-0.014642102 0.0390593 -0.027207982 -0.03105174 0.021971159 0.011932205 -0.03803155 0.043735273
0.0068422123 0.010610507 -0.01578539 -0.016365452 -0.031887144 -0.015725238 -0.013845736 -0.03389978
0.010473545 -0.0522405 0.015877929 0.034984194 -0.05730599 -0.059279613 -0.030847521 0.010454204
0.026206514 -0.036623783 0.00065217353 0.053957842 -0.025889311 0.016888872 0.02390387 -0.01626895
-0.011890465 0.02551337 -0.023212817 -0.030470364 -0.033035796 0.0006770314 0.016334897 0.020083498
0.040250253 0.044878602 -0.03863718 0.06075793 0.023109011 0.013561171 0.0059883753 0.03624208
0.02190648 -0.0011237602 0.021497387 0.035136607 0.020549037 0.025931729 0.012715722 -0.012456521
-0.041693576 0.010189796 -0.022915486 -0.039532933 0.03721205 -0.01821005 -0.039806504 2.0209944e-05
-0.043243986 -0.009354657 0.052805156 0.015863793 0.023804743 -0.012148366 0.06588003 0.014946313
-0.015654825 0.043783326 0.037006732 -0.017012859 0.06607999 0.00062045595 0.015237945 -0.032330845
0.025001682 -0.025189504 -0.014014808 -0.027502455 0.001991489 0.05036539 -0.0032329303 0.05593876
0.029871022 0.003959318 0.029682241 -0.062859535 -0.014761566 -0.009784931 -0.044829812 0.01705889
0.010132232 -0.06742101 -0.046901975 0.020951139 -0.005971902 0.018714547 -0.042208005 -0.018107982
0.0027322643 -0.0060136644 -0.015845502 0.035567403 -0.016140915 0.0060618306 0.0025746373 -0.028641708
0.010291298 0.018735632 0.080051236 -0.0045954348 -0.040881786 0.007967451 0.028144184 0.024881395
-0.00917676 -0.00055254 -0.04556678 0.00821867 0.019633874 0.031864885 0.023733974 0.023597611
0.042606644 -0.018916035 0.048451588 0.04163158 0.00054748816 -0.02575893 0.027387623 -0.033675034
0.034487646 0.009571053 0.028200688 -0.015262281 0.011643599 -0.008691674 0.02703988 0.038408678
-0.05034389 0.043598946 0.004140236 -0.06467275 0.011758871 -0.010882563 0.05148398 -0.007880427
0.050310507 0.03398099 0.034659278 -0.03134304 -0.01857955 -0.0007676767 -0.020060526 0.024922812
0.015415463 0.03161408 0.021578195 0.007240217 -0.012763586 0.0651013 0.057772607 -0.038384445
0.049767796 -0.034369502 -0.0003464113 -0.0045779115 -0.050686173 -0.043443963 0.044811763 0.021085674
-0.051821075 0.017406963 0.007927243 0.03182427 0.032338288 0.034970336 -0.04755425 -0.00075774494
0.04308683 -0.006442081 0.022667747 0.032327816 -0.042577926 0.023782961 -0.05161245 -0.011539261
-0.024050029 -0.011465014 -0.02017128 -0.008348896 0.045822013 0.05797051 0.02776979 0.029012935
0.01089714 -0.026634116 0.018929007 -0.020141771 -0.0047049415 -0.0064212577 0.005431822 0.0017443172
-0.043090105 -0.04161603 -0.021100262 -0.042957965 -0.038728386 0.020222597 -0.045715667 0.030212076
0.010208576 0.009830627 0.0060016965 -0.016987352 -0.04535318 0.03274073 -0.026937943 0.04540944
-0.010226977 -0.0063555813 0.023212366 0.034569208 -0.041569993 -0.033972643 -0.030610977 0.02205819
-0.019975068 0.031742893 0.015990056 0.03696828 0.05621533 0.016519979 -0.0020801064 -0.04570119
0.047801923 0.057227235 -0.02083474 0.091742545 -0.0399406 -0.038397606 -0.012066603 -0.03376836
00000000: 0da9 213d 5a47 15bc d781 fa3c dd4c 423d
00000010: 4657 b2bc 0f18 e6bc d64c 263d 0e42 0cbd
00000020: 6de5 6fbc a5fc 1f3d 46e3 debc 3860 febc
00000030: dcfc b33c 4c7f 433c f8c6 1bbd c223 333d
00000040: a334 e03b b1d7 2d3c 5d50 81bc d710 86bc
00000050: 189c 02bd 37d2 80bc 3ad9 62bc 7fda 0abd
00000060: 3b99 2b3c 22fa 55bd 6e12 823c 964b 0f3d
00000070: b0b9 6abd 2ecf 72bd f1b3 fcbc 1c48 2b3c
00000080: 0baf d63c d202 16bd a0f6 2a3a e602 5d3d
00000090: d215 d4bc 885a 8a3c 0cd2 c33c 7646 85bc
000000a0: 3ad0 42bc 6a01 d13c ce28 bebc fc9c f9bc
000000b0: 8b50 07bd cf7a 313a c3d0 853c 2686 a43c
000000c0: 73dd 243d a0d2 373d 0542 1ebd 4fdd 783d
000000d0: 1c4f bd3c ac2f 5e3c 223a c43b 9372 143d
000000e0: 3875 b33c 234b 93ba 4a1b b03c 67eb 0f3d
000000f0: 7456 a83c c76e d43c 9b55 503c 7016 4cbc
00000100: e2c6 2abd 1af3 263c 42b9 bbbc 49ed 21bd
00000110: aa6b 183d 3e2d 95bc 250c 23bd 8688 a937
00000120: 9b20 31bd 4644 19bc 384a 583d c9f4 813c
00000130: 2a02 c33c f109 47bc 1cec 863d 61e1 743c
00000140: 8c3e 80bc 2556 333d 5f94 173d 8d5e 8bbc
00000150: f254 873d 18a6 223a 93a8 793c 596d 04bd
00000160: 54d0 cc3c 385a cebc 5e9e 65bc d44c e1bc
00000170: a483 023b f04b 4e3d 92df 53bb 0b20 653d
00000180: 13b4 f43c 2bbd 813b 2c28 f33c 80bc 80bd
00000190: 7fda 71bc fa50 20bc 779f 37bd 16bf 8b3c
000001a0: a901 263c 0714 8abd 491c 40bd b9a1 ab3c
000001b0: f2af c3bb 404f 993c 4de2 2cbd 3157 94bc
000001c0: ca0f 333b 460e c5bb 6dce 81bc 20af 113d
000001d0: f439 84bc 52a2 c63b 3fbb 283b 04a2 eabc
000001e0: d59c 283c 787b 993c e7f1 a33d 4d95 96bb
000001f0: a973 27bd e989 023c a28e e63c 11d4 cb3c
00000200: 1f5a 16bc 55d8 10ba 3ba4 3abd 9aa7 063c
00000210: 38d7 a03c c184 023d c06d c23c c74f c13c
00000220: 4e84 2e3d cdf5 9abc 2c75 463d e085 2a3d
00000230: 4f85 0f3a 6404 d3bc 025c e03c d5ee 09bd
00000240: eb42 0d3d e8cf 1c3c 2105 e73c a50e 7abc
00000250: cbc4 3e3c 8667 0ebc bd82 dd3c 6b52 1d3d
00000260: 6535 4ebd cf94 323d d1aa 873b 2673 84bd
00000270: 48a8 403c c74c 32bc dee0 523d e81c 01bc
00000280: 6412 4e3d a72f 0b3d e3f6 0d3d 8f61 00bd
00000290: 2434 98bc e93d 49ba f955 a4bc ed2a cc3c
000002a0: 2391 7c3c c47d 013d c1c4 b03c 583f ed3b
000002b0: 5c1e 51bc d553 853d f8a2 6c3d 0239 1dbd
000002c0: 51d9 4b3d 09c7 0cbd 8a9e b5b9 4e02 96bb
000002d0: 4e9c 4fbd 4cf2 31bd 8a8c 373d ddbb ac3c
000002e0: 5642 54bd 0c99 8e3c 44e1 013c 2a5a 023d
000002f0: 2775 043d 0e3d 0f3d 3fc8 42bd 67a3 46ba
00000300: d17b 303d 1818 d3bb b6b1 b93c 2c6a 043d
00000310: 3166 2ebd 7cd4 c23c 9467 53bd 2b0f 3dbc
00000320: 9104 c5bc c1d7 3bbc 3d3e a5bc cfc9 08bc
00000330: ddaf 3b3d 7c72 6d3d 787d e33c 89ac ed3c
00000340: eb89 323c ca2f dabc 0111 9b3c 5b00 a5bc
00000350: e92b 9abb 6a69 d2bb 6dfd b13b 93a1 e43a
00000360: 407f 30bd 9275 2abd 75da acbc b1f4 2fbd
00000370: a8a1 1ebd dca9 a53c 5a40 3bbd 517f f73c
00000380: df41 273c a310 213c e1a9 c43b 0f29 8bbc
00000390: 42c4 39bd 251b 063d f6ac dcbc 40ff 393d
000003a0: 0d8f 27bc 7b42 d0bb dc27 be3c 7198 0d3d
000003b0: 4c45 2abd e626 0bbd dfc3 fabc 61b3 b43c
000003c0: c1a2 a3bc d604 023d 94fd 823c 0d6c 173d
000003d0: 0c42 663d e854 873c 6552 08bb 2c31 3bbd
000003e0: f3cb 433d 1b67 6a3d 9ead aabc 84e3 bb3d
000003f0: c198 23bd cf46 1dbd 00b3 45bc b150 0abd

advantage.2.bias f4 [2]
-0.020838022 0.02051701
00000000: 80b4 aabc 4a13 a83c
